backend: tensorflow
class_name: Model
config:
  input_layers:
  - [input_1, 0, 0]
  layers:
  - class_name: InputLayer
    config:
      batch_input_shape: !!python/tuple [null, null, null, 3]
      dtype: float32
      name: input_1
      sparse: false
    inbound_nodes: []
    name: input_1
  - class_name: Conv2D
    config:
      activation: linear
      activity_regularizer: null
      bias_constraint: null
      bias_initializer:
        class_name: Zeros
        config: {}
      bias_regularizer: null
      data_format: channels_last
      dilation_rate: &id001 !!python/tuple [1, 1]
      filters: 32
      kernel_constraint: null
      kernel_initializer:
        class_name: VarianceScaling
        config: {distribution: uniform, mode: fan_avg, scale: 1.0, seed: null}
      kernel_regularizer: null
      kernel_size: !!python/tuple [3, 3]
      name: conv2d_1
      padding: valid
      strides: !!python/tuple [2, 2]
      trainable: true
      use_bias: false
    inbound_nodes:
    - - - input_1
        - 0
        - 0
        - {}
    name: conv2d_1
  - class_name: BatchNormalization
    config:
      axis: 3
      beta_constraint: null
      beta_initializer:
        class_name: Zeros
        config: {}
      beta_regularizer: null
      center: true
      epsilon: 0.001
      gamma_constraint: null
      gamma_initializer:
        class_name: Ones
        config: {}
      gamma_regularizer: null
      momentum: 0.99
      moving_mean_initializer:
        class_name: Zeros
        config: {}
      moving_variance_initializer:
        class_name: Ones
        config: {}
      name: batch_normalization_1
      scale: false
      trainable: true
    inbound_nodes:
    - - - conv2d_1
        - 0
        - 0
        - {}
    name: batch_normalization_1
  - class_name: Activation
    config: {activation: relu, name: activation_1, trainable: true}
    inbound_nodes:
    - - - batch_normalization_1
        - 0
        - 0
        - {}
    name: activation_1
  - class_name: Conv2D
    config:
      activation: linear
      activity_regularizer: null
      bias_constraint: null
      bias_initializer:
        class_name: Zeros
        config: {}
      bias_regularizer: null
      data_format: channels_last
      dilation_rate: *id001
      filters: 32
      kernel_constraint: null
      kernel_initializer:
        class_name: VarianceScaling
        config: {distribution: uniform, mode: fan_avg, scale: 1.0, seed: null}
      kernel_regularizer: null
      kernel_size: !!python/tuple [3, 3]
      name: conv2d_2
      padding: valid
      strides: &id002 !!python/tuple [1, 1]
      trainable: true
      use_bias: false
    inbound_nodes:
    - - - activation_1
        - 0
        - 0
        - {}
    name: conv2d_2
  - class_name: BatchNormalization
    config:
      axis: 3
      beta_constraint: null
      beta_initializer:
        class_name: Zeros
        config: {}
      beta_regularizer: null
      center: true
      epsilon: 0.001
      gamma_constraint: null
      gamma_initializer:
        class_name: Ones
        config: {}
      gamma_regularizer: null
      momentum: 0.99
      moving_mean_initializer:
        class_name: Zeros
        config: {}
      moving_variance_initializer:
        class_name: Ones
        config: {}
      name: batch_normalization_2
      scale: false
      trainable: true
    inbound_nodes:
    - - - conv2d_2
        - 0
        - 0
        - {}
    name: batch_normalization_2
  - class_name: Activation
    config: {activation: relu, name: activation_2, trainable: true}
    inbound_nodes:
    - - - batch_normalization_2
        - 0
        - 0
        - {}
    name: activation_2
  - class_name: Conv2D
    config:
      activation: linear
      activity_regularizer: null
      bias_constraint: null
      bias_initializer:
        class_name: Zeros
        config: {}
      bias_regularizer: null
      data_format: channels_last
      dilation_rate: *id001
      filters: 64
      kernel_constraint: null
      kernel_initializer:
        class_name: VarianceScaling
        config: {distribution: uniform, mode: fan_avg, scale: 1.0, seed: null}
      kernel_regularizer: null
      kernel_size: !!python/tuple [3, 3]
      name: conv2d_3
      padding: same
      strides: *id002
      trainable: true
      use_bias: false
    inbound_nodes:
    - - - activation_2
        - 0
        - 0
        - {}
    name: conv2d_3
  - class_name: BatchNormalization
    config:
      axis: 3
      beta_constraint: null
      beta_initializer:
        class_name: Zeros
        config: {}
      beta_regularizer: null
      center: true
      epsilon: 0.001
      gamma_constraint: null
      gamma_initializer:
        class_name: Ones
        config: {}
      gamma_regularizer: null
      momentum: 0.99
      moving_mean_initializer:
        class_name: Zeros
        config: {}
      moving_variance_initializer:
        class_name: Ones
        config: {}
      name: batch_normalization_3
      scale: false
      trainable: true
    inbound_nodes:
    - - - conv2d_3
        - 0
        - 0
        - {}
    name: batch_normalization_3
  - class_name: Activation
    config: {activation: relu, name: activation_3, trainable: true}
    inbound_nodes:
    - - - batch_normalization_3
        - 0
        - 0
        - {}
    name: activation_3
  - class_name: MaxPooling2D
    config:
      data_format: channels_last
      name: max_pooling2d_1
      padding: valid
      pool_size: !!python/tuple [3, 3]
      strides: !!python/tuple [2, 2]
      trainable: true
    inbound_nodes:
    - - - activation_3
        - 0
        - 0
        - {}
    name: max_pooling2d_1
  - class_name: Conv2D
    config:
      activation: linear
      activity_regularizer: null
      bias_constraint: null
      bias_initializer:
        class_name: Zeros
        config: {}
      bias_regularizer: null
      data_format: channels_last
      dilation_rate: *id001
      filters: 80
      kernel_constraint: null
      kernel_initializer:
        class_name: VarianceScaling
        config: {distribution: uniform, mode: fan_avg, scale: 1.0, seed: null}
      kernel_regularizer: null
      kernel_size: !!python/tuple [1, 1]
      name: conv2d_4
      padding: valid
      strides: *id002
      trainable: true
      use_bias: false
    inbound_nodes:
    - - - max_pooling2d_1
        - 0
        - 0
        - {}
    name: conv2d_4
  - class_name: BatchNormalization
    config:
      axis: 3
      beta_constraint: null
      beta_initializer:
        class_name: Zeros
        config: {}
      beta_regularizer: null
      center: true
      epsilon: 0.001
      gamma_constraint: null
      gamma_initializer:
        class_name: Ones
        config: {}
      gamma_regularizer: null
      momentum: 0.99
      moving_mean_initializer:
        class_name: Zeros
        config: {}
      moving_variance_initializer:
        class_name: Ones
        config: {}
      name: batch_normalization_4
      scale: false
      trainable: true
    inbound_nodes:
    - - - conv2d_4
        - 0
        - 0
        - {}
    name: batch_normalization_4
  - class_name: Activation
    config: {activation: relu, name: activation_4, trainable: true}
    inbound_nodes:
    - - - batch_normalization_4
        - 0
        - 0
        - {}
    name: activation_4
  - class_name: Conv2D
    config:
      activation: linear
      activity_regularizer: null
      bias_constraint: null
      bias_initializer:
        class_name: Zeros
        config: {}
      bias_regularizer: null
      data_format: channels_last
      dilation_rate: *id001
      filters: 192
      kernel_constraint: null
      kernel_initializer:
        class_name: VarianceScaling
        config: {distribution: uniform, mode: fan_avg, scale: 1.0, seed: null}
      kernel_regularizer: null
      kernel_size: !!python/tuple [3, 3]
      name: conv2d_5
      padding: valid
      strides: *id002
      trainable: true
      use_bias: false
    inbound_nodes:
    - - - activation_4
        - 0
        - 0
        - {}
    name: conv2d_5
  - class_name: BatchNormalization
    config:
      axis: 3
      beta_constraint: null
      beta_initializer:
        class_name: Zeros
        config: {}
      beta_regularizer: null
      center: true
      epsilon: 0.001
      gamma_constraint: null
      gamma_initializer:
        class_name: Ones
        config: {}
      gamma_regularizer: null
      momentum: 0.99
      moving_mean_initializer:
        class_name: Zeros
        config: {}
      moving_variance_initializer:
        class_name: Ones
        config: {}
      name: batch_normalization_5
      scale: false
      trainable: true
    inbound_nodes:
    - - - conv2d_5
        - 0
        - 0
        - {}
    name: batch_normalization_5
  - class_name: Activation
    config: {activation: relu, name: activation_5, trainable: true}
    inbound_nodes:
    - - - batch_normalization_5
        - 0
        - 0
        - {}
    name: activation_5
  - class_name: MaxPooling2D
    config:
      data_format: channels_last
      name: max_pooling2d_2
      padding: valid
      pool_size: !!python/tuple [3, 3]
      strides: !!python/tuple [2, 2]
      trainable: true
    inbound_nodes:
    - - - activation_5
        - 0
        - 0
        - {}
    name: max_pooling2d_2
  - class_name: Conv2D
    config:
      activation: linear
      activity_regularizer: null
      bias_constraint: null
      bias_initializer:
        class_name: Zeros
        config: {}
      bias_regularizer: null
      data_format: channels_last
      dilation_rate: *id001
      filters: 64
      kernel_constraint: null
      kernel_initializer:
        class_name: VarianceScaling
        config: {distribution: uniform, mode: fan_avg, scale: 1.0, seed: null}
      kernel_regularizer: null
      kernel_size: !!python/tuple [1, 1]
      name: conv2d_9
      padding: same
      strides: *id002
      trainable: true
      use_bias: false
    inbound_nodes:
    - - - max_pooling2d_2
        - 0
        - 0
        - {}
    name: conv2d_9
  - class_name: BatchNormalization
    config:
      axis: 3
      beta_constraint: null
      beta_initializer:
        class_name: Zeros
        config: {}
      beta_regularizer: null
      center: true
      epsilon: 0.001
      gamma_constraint: null
      gamma_initializer:
        class_name: Ones
        config: {}
      gamma_regularizer: null
      momentum: 0.99
      moving_mean_initializer:
        class_name: Zeros
        config: {}
      moving_variance_initializer:
        class_name: Ones
        config: {}
      name: batch_normalization_9
      scale: false
      trainable: true
    inbound_nodes:
    - - - conv2d_9
        - 0
        - 0
        - {}
    name: batch_normalization_9
  - class_name: Activation
    config: {activation: relu, name: activation_9, trainable: true}
    inbound_nodes:
    - - - batch_normalization_9
        - 0
        - 0
        - {}
    name: activation_9
  - class_name: Conv2D
    config:
      activation: linear
      activity_regularizer: null
      bias_constraint: null
      bias_initializer:
        class_name: Zeros
        config: {}
      bias_regularizer: null
      data_format: channels_last
      dilation_rate: *id001
      filters: 48
      kernel_constraint: null
      kernel_initializer:
        class_name: VarianceScaling
        config: {distribution: uniform, mode: fan_avg, scale: 1.0, seed: null}
      kernel_regularizer: null
      kernel_size: !!python/tuple [1, 1]
      name: conv2d_7
      padding: same
      strides: *id002
      trainable: true
      use_bias: false
    inbound_nodes:
    - - - max_pooling2d_2
        - 0
        - 0
        - {}
    name: conv2d_7
  - class_name: Conv2D
    config:
      activation: linear
      activity_regularizer: null
      bias_constraint: null
      bias_initializer:
        class_name: Zeros
        config: {}
      bias_regularizer: null
      data_format: channels_last
      dilation_rate: *id001
      filters: 96
      kernel_constraint: null
      kernel_initializer:
        class_name: VarianceScaling
        config: {distribution: uniform, mode: fan_avg, scale: 1.0, seed: null}
      kernel_regularizer: null
      kernel_size: !!python/tuple [3, 3]
      name: conv2d_10
      padding: same
      strides: *id002
      trainable: true
      use_bias: false
    inbound_nodes:
    - - - activation_9
        - 0
        - 0
        - {}
    name: conv2d_10
  - class_name: BatchNormalization
    config:
      axis: 3
      beta_constraint: null
      beta_initializer:
        class_name: Zeros
        config: {}
      beta_regularizer: null
      center: true
      epsilon: 0.001
      gamma_constraint: null
      gamma_initializer:
        class_name: Ones
        config: {}
      gamma_regularizer: null
      momentum: 0.99
      moving_mean_initializer:
        class_name: Zeros
        config: {}
      moving_variance_initializer:
        class_name: Ones
        config: {}
      name: batch_normalization_7
      scale: false
      trainable: true
    inbound_nodes:
    - - - conv2d_7
        - 0
        - 0
        - {}
    name: batch_normalization_7
  - class_name: BatchNormalization
    config:
      axis: 3
      beta_constraint: null
      beta_initializer:
        class_name: Zeros
        config: {}
      beta_regularizer: null
      center: true
      epsilon: 0.001
      gamma_constraint: null
      gamma_initializer:
        class_name: Ones
        config: {}
      gamma_regularizer: null
      momentum: 0.99
      moving_mean_initializer:
        class_name: Zeros
        config: {}
      moving_variance_initializer:
        class_name: Ones
        config: {}
      name: batch_normalization_10
      scale: false
      trainable: true
    inbound_nodes:
    - - - conv2d_10
        - 0
        - 0
        - {}
    name: batch_normalization_10
  - class_name: Activation
    config: {activation: relu, name: activation_7, trainable: true}
    inbound_nodes:
    - - - batch_normalization_7
        - 0
        - 0
        - {}
    name: activation_7
  - class_name: Activation
    config: {activation: relu, name: activation_10, trainable: true}
    inbound_nodes:
    - - - batch_normalization_10
        - 0
        - 0
        - {}
    name: activation_10
  - class_name: AveragePooling2D
    config:
      data_format: channels_last
      name: average_pooling2d_1
      padding: same
      pool_size: !!python/tuple [3, 3]
      strides: !!python/tuple [1, 1]
      trainable: true
    inbound_nodes:
    - - - max_pooling2d_2
        - 0
        - 0
        - {}
    name: average_pooling2d_1
  - class_name: Conv2D
    config:
      activation: linear
      activity_regularizer: null
      bias_constraint: null
      bias_initializer:
        class_name: Zeros
        config: {}
      bias_regularizer: null
      data_format: channels_last
      dilation_rate: *id001
      filters: 64
      kernel_constraint: null
      kernel_initializer:
        class_name: VarianceScaling
        config: {distribution: uniform, mode: fan_avg, scale: 1.0, seed: null}
      kernel_regularizer: null
      kernel_size: !!python/tuple [1, 1]
      name: conv2d_6
      padding: same
      strides: *id002
      trainable: true
      use_bias: false
    inbound_nodes:
    - - - max_pooling2d_2
        - 0
        - 0
        - {}
    name: conv2d_6
  - class_name: Conv2D
    config:
      activation: linear
      activity_regularizer: null
      bias_constraint: null
      bias_initializer:
        class_name: Zeros
        config: {}
      bias_regularizer: null
      data_format: channels_last
      dilation_rate: *id001
      filters: 64
      kernel_constraint: null
      kernel_initializer:
        class_name: VarianceScaling
        config: {distribution: uniform, mode: fan_avg, scale: 1.0, seed: null}
      kernel_regularizer: null
      kernel_size: !!python/tuple [5, 5]
      name: conv2d_8
      padding: same
      strides: *id002
      trainable: true
      use_bias: false
    inbound_nodes:
    - - - activation_7
        - 0
        - 0
        - {}
    name: conv2d_8
  - class_name: Conv2D
    config:
      activation: linear
      activity_regularizer: null
      bias_constraint: null
      bias_initializer:
        class_name: Zeros
        config: {}
      bias_regularizer: null
      data_format: channels_last
      dilation_rate: *id001
      filters: 96
      kernel_constraint: null
      kernel_initializer:
        class_name: VarianceScaling
        config: {distribution: uniform, mode: fan_avg, scale: 1.0, seed: null}
      kernel_regularizer: null
      kernel_size: !!python/tuple [3, 3]
      name: conv2d_11
      padding: same
      strides: *id002
      trainable: true
      use_bias: false
    inbound_nodes:
    - - - activation_10
        - 0
        - 0
        - {}
    name: conv2d_11
  - class_name: Conv2D
    config:
      activation: linear
      activity_regularizer: null
      bias_constraint: null
      bias_initializer:
        class_name: Zeros
        config: {}
      bias_regularizer: null
      data_format: channels_last
      dilation_rate: *id001
      filters: 32
      kernel_constraint: null
      kernel_initializer:
        class_name: VarianceScaling
        config: {distribution: uniform, mode: fan_avg, scale: 1.0, seed: null}
      kernel_regularizer: null
      kernel_size: !!python/tuple [1, 1]
      name: conv2d_12
      padding: same
      strides: *id002
      trainable: true
      use_bias: false
    inbound_nodes:
    - - - average_pooling2d_1
        - 0
        - 0
        - {}
    name: conv2d_12
  - class_name: BatchNormalization
    config:
      axis: 3
      beta_constraint: null
      beta_initializer:
        class_name: Zeros
        config: {}
      beta_regularizer: null
      center: true
      epsilon: 0.001
      gamma_constraint: null
      gamma_initializer:
        class_name: Ones
        config: {}
      gamma_regularizer: null
      momentum: 0.99
      moving_mean_initializer:
        class_name: Zeros
        config: {}
      moving_variance_initializer:
        class_name: Ones
        config: {}
      name: batch_normalization_6
      scale: false
      trainable: true
    inbound_nodes:
    - - - conv2d_6
        - 0
        - 0
        - {}
    name: batch_normalization_6
  - class_name: BatchNormalization
    config:
      axis: 3
      beta_constraint: null
      beta_initializer:
        class_name: Zeros
        config: {}
      beta_regularizer: null
      center: true
      epsilon: 0.001
      gamma_constraint: null
      gamma_initializer:
        class_name: Ones
        config: {}
      gamma_regularizer: null
      momentum: 0.99
      moving_mean_initializer:
        class_name: Zeros
        config: {}
      moving_variance_initializer:
        class_name: Ones
        config: {}
      name: batch_normalization_8
      scale: false
      trainable: true
    inbound_nodes:
    - - - conv2d_8
        - 0
        - 0
        - {}
    name: batch_normalization_8
  - class_name: BatchNormalization
    config:
      axis: 3
      beta_constraint: null
      beta_initializer:
        class_name: Zeros
        config: {}
      beta_regularizer: null
      center: true
      epsilon: 0.001
      gamma_constraint: null
      gamma_initializer:
        class_name: Ones
        config: {}
      gamma_regularizer: null
      momentum: 0.99
      moving_mean_initializer:
        class_name: Zeros
        config: {}
      moving_variance_initializer:
        class_name: Ones
        config: {}
      name: batch_normalization_11
      scale: false
      trainable: true
    inbound_nodes:
    - - - conv2d_11
        - 0
        - 0
        - {}
    name: batch_normalization_11
  - class_name: BatchNormalization
    config:
      axis: 3
      beta_constraint: null
      beta_initializer:
        class_name: Zeros
        config: {}
      beta_regularizer: null
      center: true
      epsilon: 0.001
      gamma_constraint: null
      gamma_initializer:
        class_name: Ones
        config: {}
      gamma_regularizer: null
      momentum: 0.99
      moving_mean_initializer:
        class_name: Zeros
        config: {}
      moving_variance_initializer:
        class_name: Ones
        config: {}
      name: batch_normalization_12
      scale: false
      trainable: true
    inbound_nodes:
    - - - conv2d_12
        - 0
        - 0
        - {}
    name: batch_normalization_12
  - class_name: Activation
    config: {activation: relu, name: activation_6, trainable: true}
    inbound_nodes:
    - - - batch_normalization_6
        - 0
        - 0
        - {}
    name: activation_6
  - class_name: Activation
    config: {activation: relu, name: activation_8, trainable: true}
    inbound_nodes:
    - - - batch_normalization_8
        - 0
        - 0
        - {}
    name: activation_8
  - class_name: Activation
    config: {activation: relu, name: activation_11, trainable: true}
    inbound_nodes:
    - - - batch_normalization_11
        - 0
        - 0
        - {}
    name: activation_11
  - class_name: Activation
    config: {activation: relu, name: activation_12, trainable: true}
    inbound_nodes:
    - - - batch_normalization_12
        - 0
        - 0
        - {}
    name: activation_12
  - class_name: Concatenate
    config: {axis: 3, name: mixed0, trainable: true}
    inbound_nodes:
    - - - activation_6
        - 0
        - 0
        - &id003 {}
      - - activation_8
        - 0
        - 0
        - *id003
      - - activation_11
        - 0
        - 0
        - *id003
      - - activation_12
        - 0
        - 0
        - *id003
    name: mixed0
  - class_name: Conv2D
    config:
      activation: linear
      activity_regularizer: null
      bias_constraint: null
      bias_initializer:
        class_name: Zeros
        config: {}
      bias_regularizer: null
      data_format: channels_last
      dilation_rate: *id001
      filters: 64
      kernel_constraint: null
      kernel_initializer:
        class_name: VarianceScaling
        config: {distribution: uniform, mode: fan_avg, scale: 1.0, seed: null}
      kernel_regularizer: null
      kernel_size: !!python/tuple [1, 1]
      name: conv2d_16
      padding: same
      strides: *id002
      trainable: true
      use_bias: false
    inbound_nodes:
    - - - mixed0
        - 0
        - 0
        - {}
    name: conv2d_16
  - class_name: BatchNormalization
    config:
      axis: 3
      beta_constraint: null
      beta_initializer:
        class_name: Zeros
        config: {}
      beta_regularizer: null
      center: true
      epsilon: 0.001
      gamma_constraint: null
      gamma_initializer:
        class_name: Ones
        config: {}
      gamma_regularizer: null
      momentum: 0.99
      moving_mean_initializer:
        class_name: Zeros
        config: {}
      moving_variance_initializer:
        class_name: Ones
        config: {}
      name: batch_normalization_16
      scale: false
      trainable: true
    inbound_nodes:
    - - - conv2d_16
        - 0
        - 0
        - {}
    name: batch_normalization_16
  - class_name: Activation
    config: {activation: relu, name: activation_16, trainable: true}
    inbound_nodes:
    - - - batch_normalization_16
        - 0
        - 0
        - {}
    name: activation_16
  - class_name: Conv2D
    config:
      activation: linear
      activity_regularizer: null
      bias_constraint: null
      bias_initializer:
        class_name: Zeros
        config: {}
      bias_regularizer: null
      data_format: channels_last
      dilation_rate: *id001
      filters: 48
      kernel_constraint: null
      kernel_initializer:
        class_name: VarianceScaling
        config: {distribution: uniform, mode: fan_avg, scale: 1.0, seed: null}
      kernel_regularizer: null
      kernel_size: !!python/tuple [1, 1]
      name: conv2d_14
      padding: same
      strides: *id002
      trainable: true
      use_bias: false
    inbound_nodes:
    - - - mixed0
        - 0
        - 0
        - {}
    name: conv2d_14
  - class_name: Conv2D
    config:
      activation: linear
      activity_regularizer: null
      bias_constraint: null
      bias_initializer:
        class_name: Zeros
        config: {}
      bias_regularizer: null
      data_format: channels_last
      dilation_rate: *id001
      filters: 96
      kernel_constraint: null
      kernel_initializer:
        class_name: VarianceScaling
        config: {distribution: uniform, mode: fan_avg, scale: 1.0, seed: null}
      kernel_regularizer: null
      kernel_size: !!python/tuple [3, 3]
      name: conv2d_17
      padding: same
      strides: *id002
      trainable: true
      use_bias: false
    inbound_nodes:
    - - - activation_16
        - 0
        - 0
        - {}
    name: conv2d_17
  - class_name: BatchNormalization
    config:
      axis: 3
      beta_constraint: null
      beta_initializer:
        class_name: Zeros
        config: {}
      beta_regularizer: null
      center: true
      epsilon: 0.001
      gamma_constraint: null
      gamma_initializer:
        class_name: Ones
        config: {}
      gamma_regularizer: null
      momentum: 0.99
      moving_mean_initializer:
        class_name: Zeros
        config: {}
      moving_variance_initializer:
        class_name: Ones
        config: {}
      name: batch_normalization_14
      scale: false
      trainable: true
    inbound_nodes:
    - - - conv2d_14
        - 0
        - 0
        - {}
    name: batch_normalization_14
  - class_name: BatchNormalization
    config:
      axis: 3
      beta_constraint: null
      beta_initializer:
        class_name: Zeros
        config: {}
      beta_regularizer: null
      center: true
      epsilon: 0.001
      gamma_constraint: null
      gamma_initializer:
        class_name: Ones
        config: {}
      gamma_regularizer: null
      momentum: 0.99
      moving_mean_initializer:
        class_name: Zeros
        config: {}
      moving_variance_initializer:
        class_name: Ones
        config: {}
      name: batch_normalization_17
      scale: false
      trainable: true
    inbound_nodes:
    - - - conv2d_17
        - 0
        - 0
        - {}
    name: batch_normalization_17
  - class_name: Activation
    config: {activation: relu, name: activation_14, trainable: true}
    inbound_nodes:
    - - - batch_normalization_14
        - 0
        - 0
        - {}
    name: activation_14
  - class_name: Activation
    config: {activation: relu, name: activation_17, trainable: true}
    inbound_nodes:
    - - - batch_normalization_17
        - 0
        - 0
        - {}
    name: activation_17
  - class_name: AveragePooling2D
    config:
      data_format: channels_last
      name: average_pooling2d_2
      padding: same
      pool_size: !!python/tuple [3, 3]
      strides: !!python/tuple [1, 1]
      trainable: true
    inbound_nodes:
    - - - mixed0
        - 0
        - 0
        - {}
    name: average_pooling2d_2
  - class_name: Conv2D
    config:
      activation: linear
      activity_regularizer: null
      bias_constraint: null
      bias_initializer:
        class_name: Zeros
        config: {}
      bias_regularizer: null
      data_format: channels_last
      dilation_rate: *id001
      filters: 64
      kernel_constraint: null
      kernel_initializer:
        class_name: VarianceScaling
        config: {distribution: uniform, mode: fan_avg, scale: 1.0, seed: null}
      kernel_regularizer: null
      kernel_size: !!python/tuple [1, 1]
      name: conv2d_13
      padding: same
      strides: *id002
      trainable: true
      use_bias: false
    inbound_nodes:
    - - - mixed0
        - 0
        - 0
        - {}
    name: conv2d_13
  - class_name: Conv2D
    config:
      activation: linear
      activity_regularizer: null
      bias_constraint: null
      bias_initializer:
        class_name: Zeros
        config: {}
      bias_regularizer: null
      data_format: channels_last
      dilation_rate: *id001
      filters: 64
      kernel_constraint: null
      kernel_initializer:
        class_name: VarianceScaling
        config: {distribution: uniform, mode: fan_avg, scale: 1.0, seed: null}
      kernel_regularizer: null
      kernel_size: !!python/tuple [5, 5]
      name: conv2d_15
      padding: same
      strides: *id002
      trainable: true
      use_bias: false
    inbound_nodes:
    - - - activation_14
        - 0
        - 0
        - {}
    name: conv2d_15
  - class_name: Conv2D
    config:
      activation: linear
      activity_regularizer: null
      bias_constraint: null
      bias_initializer:
        class_name: Zeros
        config: {}
      bias_regularizer: null
      data_format: channels_last
      dilation_rate: *id001
      filters: 96
      kernel_constraint: null
      kernel_initializer:
        class_name: VarianceScaling
        config: {distribution: uniform, mode: fan_avg, scale: 1.0, seed: null}
      kernel_regularizer: null
      kernel_size: !!python/tuple [3, 3]
      name: conv2d_18
      padding: same
      strides: *id002
      trainable: true
      use_bias: false
    inbound_nodes:
    - - - activation_17
        - 0
        - 0
        - {}
    name: conv2d_18
  - class_name: Conv2D
    config:
      activation: linear
      activity_regularizer: null
      bias_constraint: null
      bias_initializer:
        class_name: Zeros
        config: {}
      bias_regularizer: null
      data_format: channels_last
      dilation_rate: *id001
      filters: 64
      kernel_constraint: null
      kernel_initializer:
        class_name: VarianceScaling
        config: {distribution: uniform, mode: fan_avg, scale: 1.0, seed: null}
      kernel_regularizer: null
      kernel_size: !!python/tuple [1, 1]
      name: conv2d_19
      padding: same
      strides: *id002
      trainable: true
      use_bias: false
    inbound_nodes:
    - - - average_pooling2d_2
        - 0
        - 0
        - {}
    name: conv2d_19
  - class_name: BatchNormalization
    config:
      axis: 3
      beta_constraint: null
      beta_initializer:
        class_name: Zeros
        config: {}
      beta_regularizer: null
      center: true
      epsilon: 0.001
      gamma_constraint: null
      gamma_initializer:
        class_name: Ones
        config: {}
      gamma_regularizer: null
      momentum: 0.99
      moving_mean_initializer:
        class_name: Zeros
        config: {}
      moving_variance_initializer:
        class_name: Ones
        config: {}
      name: batch_normalization_13
      scale: false
      trainable: true
    inbound_nodes:
    - - - conv2d_13
        - 0
        - 0
        - {}
    name: batch_normalization_13
  - class_name: BatchNormalization
    config:
      axis: 3
      beta_constraint: null
      beta_initializer:
        class_name: Zeros
        config: {}
      beta_regularizer: null
      center: true
      epsilon: 0.001
      gamma_constraint: null
      gamma_initializer:
        class_name: Ones
        config: {}
      gamma_regularizer: null
      momentum: 0.99
      moving_mean_initializer:
        class_name: Zeros
        config: {}
      moving_variance_initializer:
        class_name: Ones
        config: {}
      name: batch_normalization_15
      scale: false
      trainable: true
    inbound_nodes:
    - - - conv2d_15
        - 0
        - 0
        - {}
    name: batch_normalization_15
  - class_name: BatchNormalization
    config:
      axis: 3
      beta_constraint: null
      beta_initializer:
        class_name: Zeros
        config: {}
      beta_regularizer: null
      center: true
      epsilon: 0.001
      gamma_constraint: null
      gamma_initializer:
        class_name: Ones
        config: {}
      gamma_regularizer: null
      momentum: 0.99
      moving_mean_initializer:
        class_name: Zeros
        config: {}
      moving_variance_initializer:
        class_name: Ones
        config: {}
      name: batch_normalization_18
      scale: false
      trainable: true
    inbound_nodes:
    - - - conv2d_18
        - 0
        - 0
        - {}
    name: batch_normalization_18
  - class_name: BatchNormalization
    config:
      axis: 3
      beta_constraint: null
      beta_initializer:
        class_name: Zeros
        config: {}
      beta_regularizer: null
      center: true
      epsilon: 0.001
      gamma_constraint: null
      gamma_initializer:
        class_name: Ones
        config: {}
      gamma_regularizer: null
      momentum: 0.99
      moving_mean_initializer:
        class_name: Zeros
        config: {}
      moving_variance_initializer:
        class_name: Ones
        config: {}
      name: batch_normalization_19
      scale: false
      trainable: true
    inbound_nodes:
    - - - conv2d_19
        - 0
        - 0
        - {}
    name: batch_normalization_19
  - class_name: Activation
    config: {activation: relu, name: activation_13, trainable: true}
    inbound_nodes:
    - - - batch_normalization_13
        - 0
        - 0
        - {}
    name: activation_13
  - class_name: Activation
    config: {activation: relu, name: activation_15, trainable: true}
    inbound_nodes:
    - - - batch_normalization_15
        - 0
        - 0
        - {}
    name: activation_15
  - class_name: Activation
    config: {activation: relu, name: activation_18, trainable: true}
    inbound_nodes:
    - - - batch_normalization_18
        - 0
        - 0
        - {}
    name: activation_18
  - class_name: Activation
    config: {activation: relu, name: activation_19, trainable: true}
    inbound_nodes:
    - - - batch_normalization_19
        - 0
        - 0
        - {}
    name: activation_19
  - class_name: Concatenate
    config: {axis: 3, name: mixed1, trainable: true}
    inbound_nodes:
    - - - activation_13
        - 0
        - 0
        - &id004 {}
      - - activation_15
        - 0
        - 0
        - *id004
      - - activation_18
        - 0
        - 0
        - *id004
      - - activation_19
        - 0
        - 0
        - *id004
    name: mixed1
  - class_name: Conv2D
    config:
      activation: linear
      activity_regularizer: null
      bias_constraint: null
      bias_initializer:
        class_name: Zeros
        config: {}
      bias_regularizer: null
      data_format: channels_last
      dilation_rate: *id001
      filters: 64
      kernel_constraint: null
      kernel_initializer:
        class_name: VarianceScaling
        config: {distribution: uniform, mode: fan_avg, scale: 1.0, seed: null}
      kernel_regularizer: null
      kernel_size: !!python/tuple [1, 1]
      name: conv2d_23
      padding: same
      strides: *id002
      trainable: true
      use_bias: false
    inbound_nodes:
    - - - mixed1
        - 0
        - 0
        - {}
    name: conv2d_23
  - class_name: BatchNormalization
    config:
      axis: 3
      beta_constraint: null
      beta_initializer:
        class_name: Zeros
        config: {}
      beta_regularizer: null
      center: true
      epsilon: 0.001
      gamma_constraint: null
      gamma_initializer:
        class_name: Ones
        config: {}
      gamma_regularizer: null
      momentum: 0.99
      moving_mean_initializer:
        class_name: Zeros
        config: {}
      moving_variance_initializer:
        class_name: Ones
        config: {}
      name: batch_normalization_23
      scale: false
      trainable: true
    inbound_nodes:
    - - - conv2d_23
        - 0
        - 0
        - {}
    name: batch_normalization_23
  - class_name: Activation
    config: {activation: relu, name: activation_23, trainable: true}
    inbound_nodes:
    - - - batch_normalization_23
        - 0
        - 0
        - {}
    name: activation_23
  - class_name: Conv2D
    config:
      activation: linear
      activity_regularizer: null
      bias_constraint: null
      bias_initializer:
        class_name: Zeros
        config: {}
      bias_regularizer: null
      data_format: channels_last
      dilation_rate: *id001
      filters: 48
      kernel_constraint: null
      kernel_initializer:
        class_name: VarianceScaling
        config: {distribution: uniform, mode: fan_avg, scale: 1.0, seed: null}
      kernel_regularizer: null
      kernel_size: !!python/tuple [1, 1]
      name: conv2d_21
      padding: same
      strides: *id002
      trainable: true
      use_bias: false
    inbound_nodes:
    - - - mixed1
        - 0
        - 0
        - {}
    name: conv2d_21
  - class_name: Conv2D
    config:
      activation: linear
      activity_regularizer: null
      bias_constraint: null
      bias_initializer:
        class_name: Zeros
        config: {}
      bias_regularizer: null
      data_format: channels_last
      dilation_rate: *id001
      filters: 96
      kernel_constraint: null
      kernel_initializer:
        class_name: VarianceScaling
        config: {distribution: uniform, mode: fan_avg, scale: 1.0, seed: null}
      kernel_regularizer: null
      kernel_size: !!python/tuple [3, 3]
      name: conv2d_24
      padding: same
      strides: *id002
      trainable: true
      use_bias: false
    inbound_nodes:
    - - - activation_23
        - 0
        - 0
        - {}
    name: conv2d_24
  - class_name: BatchNormalization
    config:
      axis: 3
      beta_constraint: null
      beta_initializer:
        class_name: Zeros
        config: {}
      beta_regularizer: null
      center: true
      epsilon: 0.001
      gamma_constraint: null
      gamma_initializer:
        class_name: Ones
        config: {}
      gamma_regularizer: null
      momentum: 0.99
      moving_mean_initializer:
        class_name: Zeros
        config: {}
      moving_variance_initializer:
        class_name: Ones
        config: {}
      name: batch_normalization_21
      scale: false
      trainable: true
    inbound_nodes:
    - - - conv2d_21
        - 0
        - 0
        - {}
    name: batch_normalization_21
  - class_name: BatchNormalization
    config:
      axis: 3
      beta_constraint: null
      beta_initializer:
        class_name: Zeros
        config: {}
      beta_regularizer: null
      center: true
      epsilon: 0.001
      gamma_constraint: null
      gamma_initializer:
        class_name: Ones
        config: {}
      gamma_regularizer: null
      momentum: 0.99
      moving_mean_initializer:
        class_name: Zeros
        config: {}
      moving_variance_initializer:
        class_name: Ones
        config: {}
      name: batch_normalization_24
      scale: false
      trainable: true
    inbound_nodes:
    - - - conv2d_24
        - 0
        - 0
        - {}
    name: batch_normalization_24
  - class_name: Activation
    config: {activation: relu, name: activation_21, trainable: true}
    inbound_nodes:
    - - - batch_normalization_21
        - 0
        - 0
        - {}
    name: activation_21
  - class_name: Activation
    config: {activation: relu, name: activation_24, trainable: true}
    inbound_nodes:
    - - - batch_normalization_24
        - 0
        - 0
        - {}
    name: activation_24
  - class_name: AveragePooling2D
    config:
      data_format: channels_last
      name: average_pooling2d_3
      padding: same
      pool_size: !!python/tuple [3, 3]
      strides: !!python/tuple [1, 1]
      trainable: true
    inbound_nodes:
    - - - mixed1
        - 0
        - 0
        - {}
    name: average_pooling2d_3
  - class_name: Conv2D
    config:
      activation: linear
      activity_regularizer: null
      bias_constraint: null
      bias_initializer:
        class_name: Zeros
        config: {}
      bias_regularizer: null
      data_format: channels_last
      dilation_rate: *id001
      filters: 64
      kernel_constraint: null
      kernel_initializer:
        class_name: VarianceScaling
        config: {distribution: uniform, mode: fan_avg, scale: 1.0, seed: null}
      kernel_regularizer: null
      kernel_size: !!python/tuple [1, 1]
      name: conv2d_20
      padding: same
      strides: *id002
      trainable: true
      use_bias: false
    inbound_nodes:
    - - - mixed1
        - 0
        - 0
        - {}
    name: conv2d_20
  - class_name: Conv2D
    config:
      activation: linear
      activity_regularizer: null
      bias_constraint: null
      bias_initializer:
        class_name: Zeros
        config: {}
      bias_regularizer: null
      data_format: channels_last
      dilation_rate: *id001
      filters: 64
      kernel_constraint: null
      kernel_initializer:
        class_name: VarianceScaling
        config: {distribution: uniform, mode: fan_avg, scale: 1.0, seed: null}
      kernel_regularizer: null
      kernel_size: !!python/tuple [5, 5]
      name: conv2d_22
      padding: same
      strides: *id002
      trainable: true
      use_bias: false
    inbound_nodes:
    - - - activation_21
        - 0
        - 0
        - {}
    name: conv2d_22
  - class_name: Conv2D
    config:
      activation: linear
      activity_regularizer: null
      bias_constraint: null
      bias_initializer:
        class_name: Zeros
        config: {}
      bias_regularizer: null
      data_format: channels_last
      dilation_rate: *id001
      filters: 96
      kernel_constraint: null
      kernel_initializer:
        class_name: VarianceScaling
        config: {distribution: uniform, mode: fan_avg, scale: 1.0, seed: null}
      kernel_regularizer: null
      kernel_size: !!python/tuple [3, 3]
      name: conv2d_25
      padding: same
      strides: *id002
      trainable: true
      use_bias: false
    inbound_nodes:
    - - - activation_24
        - 0
        - 0
        - {}
    name: conv2d_25
  - class_name: Conv2D
    config:
      activation: linear
      activity_regularizer: null
      bias_constraint: null
      bias_initializer:
        class_name: Zeros
        config: {}
      bias_regularizer: null
      data_format: channels_last
      dilation_rate: *id001
      filters: 64
      kernel_constraint: null
      kernel_initializer:
        class_name: VarianceScaling
        config: {distribution: uniform, mode: fan_avg, scale: 1.0, seed: null}
      kernel_regularizer: null
      kernel_size: !!python/tuple [1, 1]
      name: conv2d_26
      padding: same
      strides: *id002
      trainable: true
      use_bias: false
    inbound_nodes:
    - - - average_pooling2d_3
        - 0
        - 0
        - {}
    name: conv2d_26
  - class_name: BatchNormalization
    config:
      axis: 3
      beta_constraint: null
      beta_initializer:
        class_name: Zeros
        config: {}
      beta_regularizer: null
      center: true
      epsilon: 0.001
      gamma_constraint: null
      gamma_initializer:
        class_name: Ones
        config: {}
      gamma_regularizer: null
      momentum: 0.99
      moving_mean_initializer:
        class_name: Zeros
        config: {}
      moving_variance_initializer:
        class_name: Ones
        config: {}
      name: batch_normalization_20
      scale: false
      trainable: true
    inbound_nodes:
    - - - conv2d_20
        - 0
        - 0
        - {}
    name: batch_normalization_20
  - class_name: BatchNormalization
    config:
      axis: 3
      beta_constraint: null
      beta_initializer:
        class_name: Zeros
        config: {}
      beta_regularizer: null
      center: true
      epsilon: 0.001
      gamma_constraint: null
      gamma_initializer:
        class_name: Ones
        config: {}
      gamma_regularizer: null
      momentum: 0.99
      moving_mean_initializer:
        class_name: Zeros
        config: {}
      moving_variance_initializer:
        class_name: Ones
        config: {}
      name: batch_normalization_22
      scale: false
      trainable: true
    inbound_nodes:
    - - - conv2d_22
        - 0
        - 0
        - {}
    name: batch_normalization_22
  - class_name: BatchNormalization
    config:
      axis: 3
      beta_constraint: null
      beta_initializer:
        class_name: Zeros
        config: {}
      beta_regularizer: null
      center: true
      epsilon: 0.001
      gamma_constraint: null
      gamma_initializer:
        class_name: Ones
        config: {}
      gamma_regularizer: null
      momentum: 0.99
      moving_mean_initializer:
        class_name: Zeros
        config: {}
      moving_variance_initializer:
        class_name: Ones
        config: {}
      name: batch_normalization_25
      scale: false
      trainable: true
    inbound_nodes:
    - - - conv2d_25
        - 0
        - 0
        - {}
    name: batch_normalization_25
  - class_name: BatchNormalization
    config:
      axis: 3
      beta_constraint: null
      beta_initializer:
        class_name: Zeros
        config: {}
      beta_regularizer: null
      center: true
      epsilon: 0.001
      gamma_constraint: null
      gamma_initializer:
        class_name: Ones
        config: {}
      gamma_regularizer: null
      momentum: 0.99
      moving_mean_initializer:
        class_name: Zeros
        config: {}
      moving_variance_initializer:
        class_name: Ones
        config: {}
      name: batch_normalization_26
      scale: false
      trainable: true
    inbound_nodes:
    - - - conv2d_26
        - 0
        - 0
        - {}
    name: batch_normalization_26
  - class_name: Activation
    config: {activation: relu, name: activation_20, trainable: true}
    inbound_nodes:
    - - - batch_normalization_20
        - 0
        - 0
        - {}
    name: activation_20
  - class_name: Activation
    config: {activation: relu, name: activation_22, trainable: true}
    inbound_nodes:
    - - - batch_normalization_22
        - 0
        - 0
        - {}
    name: activation_22
  - class_name: Activation
    config: {activation: relu, name: activation_25, trainable: true}
    inbound_nodes:
    - - - batch_normalization_25
        - 0
        - 0
        - {}
    name: activation_25
  - class_name: Activation
    config: {activation: relu, name: activation_26, trainable: true}
    inbound_nodes:
    - - - batch_normalization_26
        - 0
        - 0
        - {}
    name: activation_26
  - class_name: Concatenate
    config: {axis: 3, name: mixed2, trainable: true}
    inbound_nodes:
    - - - activation_20
        - 0
        - 0
        - &id005 {}
      - - activation_22
        - 0
        - 0
        - *id005
      - - activation_25
        - 0
        - 0
        - *id005
      - - activation_26
        - 0
        - 0
        - *id005
    name: mixed2
  - class_name: Conv2D
    config:
      activation: linear
      activity_regularizer: null
      bias_constraint: null
      bias_initializer:
        class_name: Zeros
        config: {}
      bias_regularizer: null
      data_format: channels_last
      dilation_rate: *id001
      filters: 64
      kernel_constraint: null
      kernel_initializer:
        class_name: VarianceScaling
        config: {distribution: uniform, mode: fan_avg, scale: 1.0, seed: null}
      kernel_regularizer: null
      kernel_size: !!python/tuple [1, 1]
      name: conv2d_28
      padding: same
      strides: *id002
      trainable: true
      use_bias: false
    inbound_nodes:
    - - - mixed2
        - 0
        - 0
        - {}
    name: conv2d_28
  - class_name: BatchNormalization
    config:
      axis: 3
      beta_constraint: null
      beta_initializer:
        class_name: Zeros
        config: {}
      beta_regularizer: null
      center: true
      epsilon: 0.001
      gamma_constraint: null
      gamma_initializer:
        class_name: Ones
        config: {}
      gamma_regularizer: null
      momentum: 0.99
      moving_mean_initializer:
        class_name: Zeros
        config: {}
      moving_variance_initializer:
        class_name: Ones
        config: {}
      name: batch_normalization_28
      scale: false
      trainable: true
    inbound_nodes:
    - - - conv2d_28
        - 0
        - 0
        - {}
    name: batch_normalization_28
  - class_name: Activation
    config: {activation: relu, name: activation_28, trainable: true}
    inbound_nodes:
    - - - batch_normalization_28
        - 0
        - 0
        - {}
    name: activation_28
  - class_name: Conv2D
    config:
      activation: linear
      activity_regularizer: null
      bias_constraint: null
      bias_initializer:
        class_name: Zeros
        config: {}
      bias_regularizer: null
      data_format: channels_last
      dilation_rate: *id001
      filters: 96
      kernel_constraint: null
      kernel_initializer:
        class_name: VarianceScaling
        config: {distribution: uniform, mode: fan_avg, scale: 1.0, seed: null}
      kernel_regularizer: null
      kernel_size: !!python/tuple [3, 3]
      name: conv2d_29
      padding: same
      strides: *id002
      trainable: true
      use_bias: false
    inbound_nodes:
    - - - activation_28
        - 0
        - 0
        - {}
    name: conv2d_29
  - class_name: BatchNormalization
    config:
      axis: 3
      beta_constraint: null
      beta_initializer:
        class_name: Zeros
        config: {}
      beta_regularizer: null
      center: true
      epsilon: 0.001
      gamma_constraint: null
      gamma_initializer:
        class_name: Ones
        config: {}
      gamma_regularizer: null
      momentum: 0.99
      moving_mean_initializer:
        class_name: Zeros
        config: {}
      moving_variance_initializer:
        class_name: Ones
        config: {}
      name: batch_normalization_29
      scale: false
      trainable: true
    inbound_nodes:
    - - - conv2d_29
        - 0
        - 0
        - {}
    name: batch_normalization_29
  - class_name: Activation
    config: {activation: relu, name: activation_29, trainable: true}
    inbound_nodes:
    - - - batch_normalization_29
        - 0
        - 0
        - {}
    name: activation_29
  - class_name: Conv2D
    config:
      activation: linear
      activity_regularizer: null
      bias_constraint: null
      bias_initializer:
        class_name: Zeros
        config: {}
      bias_regularizer: null
      data_format: channels_last
      dilation_rate: *id001
      filters: 384
      kernel_constraint: null
      kernel_initializer:
        class_name: VarianceScaling
        config: {distribution: uniform, mode: fan_avg, scale: 1.0, seed: null}
      kernel_regularizer: null
      kernel_size: !!python/tuple [3, 3]
      name: conv2d_27
      padding: valid
      strides: !!python/tuple [2, 2]
      trainable: true
      use_bias: false
    inbound_nodes:
    - - - mixed2
        - 0
        - 0
        - {}
    name: conv2d_27
  - class_name: Conv2D
    config:
      activation: linear
      activity_regularizer: null
      bias_constraint: null
      bias_initializer:
        class_name: Zeros
        config: {}
      bias_regularizer: null
      data_format: channels_last
      dilation_rate: *id001
      filters: 96
      kernel_constraint: null
      kernel_initializer:
        class_name: VarianceScaling
        config: {distribution: uniform, mode: fan_avg, scale: 1.0, seed: null}
      kernel_regularizer: null
      kernel_size: !!python/tuple [3, 3]
      name: conv2d_30
      padding: valid
      strides: !!python/tuple [2, 2]
      trainable: true
      use_bias: false
    inbound_nodes:
    - - - activation_29
        - 0
        - 0
        - {}
    name: conv2d_30
  - class_name: BatchNormalization
    config:
      axis: 3
      beta_constraint: null
      beta_initializer:
        class_name: Zeros
        config: {}
      beta_regularizer: null
      center: true
      epsilon: 0.001
      gamma_constraint: null
      gamma_initializer:
        class_name: Ones
        config: {}
      gamma_regularizer: null
      momentum: 0.99
      moving_mean_initializer:
        class_name: Zeros
        config: {}
      moving_variance_initializer:
        class_name: Ones
        config: {}
      name: batch_normalization_27
      scale: false
      trainable: true
    inbound_nodes:
    - - - conv2d_27
        - 0
        - 0
        - {}
    name: batch_normalization_27
  - class_name: BatchNormalization
    config:
      axis: 3
      beta_constraint: null
      beta_initializer:
        class_name: Zeros
        config: {}
      beta_regularizer: null
      center: true
      epsilon: 0.001
      gamma_constraint: null
      gamma_initializer:
        class_name: Ones
        config: {}
      gamma_regularizer: null
      momentum: 0.99
      moving_mean_initializer:
        class_name: Zeros
        config: {}
      moving_variance_initializer:
        class_name: Ones
        config: {}
      name: batch_normalization_30
      scale: false
      trainable: true
    inbound_nodes:
    - - - conv2d_30
        - 0
        - 0
        - {}
    name: batch_normalization_30
  - class_name: Activation
    config: {activation: relu, name: activation_27, trainable: true}
    inbound_nodes:
    - - - batch_normalization_27
        - 0
        - 0
        - {}
    name: activation_27
  - class_name: Activation
    config: {activation: relu, name: activation_30, trainable: true}
    inbound_nodes:
    - - - batch_normalization_30
        - 0
        - 0
        - {}
    name: activation_30
  - class_name: MaxPooling2D
    config:
      data_format: channels_last
      name: max_pooling2d_3
      padding: valid
      pool_size: !!python/tuple [3, 3]
      strides: !!python/tuple [2, 2]
      trainable: true
    inbound_nodes:
    - - - mixed2
        - 0
        - 0
        - {}
    name: max_pooling2d_3
  - class_name: Concatenate
    config: {axis: 3, name: mixed3, trainable: true}
    inbound_nodes:
    - - - activation_27
        - 0
        - 0
        - &id006 {}
      - - activation_30
        - 0
        - 0
        - *id006
      - - max_pooling2d_3
        - 0
        - 0
        - *id006
    name: mixed3
  - class_name: Conv2D
    config:
      activation: linear
      activity_regularizer: null
      bias_constraint: null
      bias_initializer:
        class_name: Zeros
        config: {}
      bias_regularizer: null
      data_format: channels_last
      dilation_rate: *id001
      filters: 128
      kernel_constraint: null
      kernel_initializer:
        class_name: VarianceScaling
        config: {distribution: uniform, mode: fan_avg, scale: 1.0, seed: null}
      kernel_regularizer: null
      kernel_size: !!python/tuple [1, 1]
      name: conv2d_35
      padding: same
      strides: *id002
      trainable: true
      use_bias: false
    inbound_nodes:
    - - - mixed3
        - 0
        - 0
        - {}
    name: conv2d_35
  - class_name: BatchNormalization
    config:
      axis: 3
      beta_constraint: null
      beta_initializer:
        class_name: Zeros
        config: {}
      beta_regularizer: null
      center: true
      epsilon: 0.001
      gamma_constraint: null
      gamma_initializer:
        class_name: Ones
        config: {}
      gamma_regularizer: null
      momentum: 0.99
      moving_mean_initializer:
        class_name: Zeros
        config: {}
      moving_variance_initializer:
        class_name: Ones
        config: {}
      name: batch_normalization_35
      scale: false
      trainable: true
    inbound_nodes:
    - - - conv2d_35
        - 0
        - 0
        - {}
    name: batch_normalization_35
  - class_name: Activation
    config: {activation: relu, name: activation_35, trainable: true}
    inbound_nodes:
    - - - batch_normalization_35
        - 0
        - 0
        - {}
    name: activation_35
  - class_name: Conv2D
    config:
      activation: linear
      activity_regularizer: null
      bias_constraint: null
      bias_initializer:
        class_name: Zeros
        config: {}
      bias_regularizer: null
      data_format: channels_last
      dilation_rate: *id001
      filters: 128
      kernel_constraint: null
      kernel_initializer:
        class_name: VarianceScaling
        config: {distribution: uniform, mode: fan_avg, scale: 1.0, seed: null}
      kernel_regularizer: null
      kernel_size: !!python/tuple [7, 1]
      name: conv2d_36
      padding: same
      strides: *id002
      trainable: true
      use_bias: false
    inbound_nodes:
    - - - activation_35
        - 0
        - 0
        - {}
    name: conv2d_36
  - class_name: BatchNormalization
    config:
      axis: 3
      beta_constraint: null
      beta_initializer:
        class_name: Zeros
        config: {}
      beta_regularizer: null
      center: true
      epsilon: 0.001
      gamma_constraint: null
      gamma_initializer:
        class_name: Ones
        config: {}
      gamma_regularizer: null
      momentum: 0.99
      moving_mean_initializer:
        class_name: Zeros
        config: {}
      moving_variance_initializer:
        class_name: Ones
        config: {}
      name: batch_normalization_36
      scale: false
      trainable: true
    inbound_nodes:
    - - - conv2d_36
        - 0
        - 0
        - {}
    name: batch_normalization_36
  - class_name: Activation
    config: {activation: relu, name: activation_36, trainable: true}
    inbound_nodes:
    - - - batch_normalization_36
        - 0
        - 0
        - {}
    name: activation_36
  - class_name: Conv2D
    config:
      activation: linear
      activity_regularizer: null
      bias_constraint: null
      bias_initializer:
        class_name: Zeros
        config: {}
      bias_regularizer: null
      data_format: channels_last
      dilation_rate: *id001
      filters: 128
      kernel_constraint: null
      kernel_initializer:
        class_name: VarianceScaling
        config: {distribution: uniform, mode: fan_avg, scale: 1.0, seed: null}
      kernel_regularizer: null
      kernel_size: !!python/tuple [1, 1]
      name: conv2d_32
      padding: same
      strides: *id002
      trainable: true
      use_bias: false
    inbound_nodes:
    - - - mixed3
        - 0
        - 0
        - {}
    name: conv2d_32
  - class_name: Conv2D
    config:
      activation: linear
      activity_regularizer: null
      bias_constraint: null
      bias_initializer:
        class_name: Zeros
        config: {}
      bias_regularizer: null
      data_format: channels_last
      dilation_rate: *id001
      filters: 128
      kernel_constraint: null
      kernel_initializer:
        class_name: VarianceScaling
        config: {distribution: uniform, mode: fan_avg, scale: 1.0, seed: null}
      kernel_regularizer: null
      kernel_size: !!python/tuple [1, 7]
      name: conv2d_37
      padding: same
      strides: *id002
      trainable: true
      use_bias: false
    inbound_nodes:
    - - - activation_36
        - 0
        - 0
        - {}
    name: conv2d_37
  - class_name: BatchNormalization
    config:
      axis: 3
      beta_constraint: null
      beta_initializer:
        class_name: Zeros
        config: {}
      beta_regularizer: null
      center: true
      epsilon: 0.001
      gamma_constraint: null
      gamma_initializer:
        class_name: Ones
        config: {}
      gamma_regularizer: null
      momentum: 0.99
      moving_mean_initializer:
        class_name: Zeros
        config: {}
      moving_variance_initializer:
        class_name: Ones
        config: {}
      name: batch_normalization_32
      scale: false
      trainable: true
    inbound_nodes:
    - - - conv2d_32
        - 0
        - 0
        - {}
    name: batch_normalization_32
  - class_name: BatchNormalization
    config:
      axis: 3
      beta_constraint: null
      beta_initializer:
        class_name: Zeros
        config: {}
      beta_regularizer: null
      center: true
      epsilon: 0.001
      gamma_constraint: null
      gamma_initializer:
        class_name: Ones
        config: {}
      gamma_regularizer: null
      momentum: 0.99
      moving_mean_initializer:
        class_name: Zeros
        config: {}
      moving_variance_initializer:
        class_name: Ones
        config: {}
      name: batch_normalization_37
      scale: false
      trainable: true
    inbound_nodes:
    - - - conv2d_37
        - 0
        - 0
        - {}
    name: batch_normalization_37
  - class_name: Activation
    config: {activation: relu, name: activation_32, trainable: true}
    inbound_nodes:
    - - - batch_normalization_32
        - 0
        - 0
        - {}
    name: activation_32
  - class_name: Activation
    config: {activation: relu, name: activation_37, trainable: true}
    inbound_nodes:
    - - - batch_normalization_37
        - 0
        - 0
        - {}
    name: activation_37
  - class_name: Conv2D
    config:
      activation: linear
      activity_regularizer: null
      bias_constraint: null
      bias_initializer:
        class_name: Zeros
        config: {}
      bias_regularizer: null
      data_format: channels_last
      dilation_rate: *id001
      filters: 128
      kernel_constraint: null
      kernel_initializer:
        class_name: VarianceScaling
        config: {distribution: uniform, mode: fan_avg, scale: 1.0, seed: null}
      kernel_regularizer: null
      kernel_size: !!python/tuple [1, 7]
      name: conv2d_33
      padding: same
      strides: *id002
      trainable: true
      use_bias: false
    inbound_nodes:
    - - - activation_32
        - 0
        - 0
        - {}
    name: conv2d_33
  - class_name: Conv2D
    config:
      activation: linear
      activity_regularizer: null
      bias_constraint: null
      bias_initializer:
        class_name: Zeros
        config: {}
      bias_regularizer: null
      data_format: channels_last
      dilation_rate: *id001
      filters: 128
      kernel_constraint: null
      kernel_initializer:
        class_name: VarianceScaling
        config: {distribution: uniform, mode: fan_avg, scale: 1.0, seed: null}
      kernel_regularizer: null
      kernel_size: !!python/tuple [7, 1]
      name: conv2d_38
      padding: same
      strides: *id002
      trainable: true
      use_bias: false
    inbound_nodes:
    - - - activation_37
        - 0
        - 0
        - {}
    name: conv2d_38
  - class_name: BatchNormalization
    config:
      axis: 3
      beta_constraint: null
      beta_initializer:
        class_name: Zeros
        config: {}
      beta_regularizer: null
      center: true
      epsilon: 0.001
      gamma_constraint: null
      gamma_initializer:
        class_name: Ones
        config: {}
      gamma_regularizer: null
      momentum: 0.99
      moving_mean_initializer:
        class_name: Zeros
        config: {}
      moving_variance_initializer:
        class_name: Ones
        config: {}
      name: batch_normalization_33
      scale: false
      trainable: true
    inbound_nodes:
    - - - conv2d_33
        - 0
        - 0
        - {}
    name: batch_normalization_33
  - class_name: BatchNormalization
    config:
      axis: 3
      beta_constraint: null
      beta_initializer:
        class_name: Zeros
        config: {}
      beta_regularizer: null
      center: true
      epsilon: 0.001
      gamma_constraint: null
      gamma_initializer:
        class_name: Ones
        config: {}
      gamma_regularizer: null
      momentum: 0.99
      moving_mean_initializer:
        class_name: Zeros
        config: {}
      moving_variance_initializer:
        class_name: Ones
        config: {}
      name: batch_normalization_38
      scale: false
      trainable: true
    inbound_nodes:
    - - - conv2d_38
        - 0
        - 0
        - {}
    name: batch_normalization_38
  - class_name: Activation
    config: {activation: relu, name: activation_33, trainable: true}
    inbound_nodes:
    - - - batch_normalization_33
        - 0
        - 0
        - {}
    name: activation_33
  - class_name: Activation
    config: {activation: relu, name: activation_38, trainable: true}
    inbound_nodes:
    - - - batch_normalization_38
        - 0
        - 0
        - {}
    name: activation_38
  - class_name: AveragePooling2D
    config:
      data_format: channels_last
      name: average_pooling2d_4
      padding: same
      pool_size: !!python/tuple [3, 3]
      strides: !!python/tuple [1, 1]
      trainable: true
    inbound_nodes:
    - - - mixed3
        - 0
        - 0
        - {}
    name: average_pooling2d_4
  - class_name: Conv2D
    config:
      activation: linear
      activity_regularizer: null
      bias_constraint: null
      bias_initializer:
        class_name: Zeros
        config: {}
      bias_regularizer: null
      data_format: channels_last
      dilation_rate: *id001
      filters: 192
      kernel_constraint: null
      kernel_initializer:
        class_name: VarianceScaling
        config: {distribution: uniform, mode: fan_avg, scale: 1.0, seed: null}
      kernel_regularizer: null
      kernel_size: !!python/tuple [1, 1]
      name: conv2d_31
      padding: same
      strides: *id002
      trainable: true
      use_bias: false
    inbound_nodes:
    - - - mixed3
        - 0
        - 0
        - {}
    name: conv2d_31
  - class_name: Conv2D
    config:
      activation: linear
      activity_regularizer: null
      bias_constraint: null
      bias_initializer:
        class_name: Zeros
        config: {}
      bias_regularizer: null
      data_format: channels_last
      dilation_rate: *id001
      filters: 192
      kernel_constraint: null
      kernel_initializer:
        class_name: VarianceScaling
        config: {distribution: uniform, mode: fan_avg, scale: 1.0, seed: null}
      kernel_regularizer: null
      kernel_size: !!python/tuple [7, 1]
      name: conv2d_34
      padding: same
      strides: *id002
      trainable: true
      use_bias: false
    inbound_nodes:
    - - - activation_33
        - 0
        - 0
        - {}
    name: conv2d_34
  - class_name: Conv2D
    config:
      activation: linear
      activity_regularizer: null
      bias_constraint: null
      bias_initializer:
        class_name: Zeros
        config: {}
      bias_regularizer: null
      data_format: channels_last
      dilation_rate: *id001
      filters: 192
      kernel_constraint: null
      kernel_initializer:
        class_name: VarianceScaling
        config: {distribution: uniform, mode: fan_avg, scale: 1.0, seed: null}
      kernel_regularizer: null
      kernel_size: !!python/tuple [1, 7]
      name: conv2d_39
      padding: same
      strides: *id002
      trainable: true
      use_bias: false
    inbound_nodes:
    - - - activation_38
        - 0
        - 0
        - {}
    name: conv2d_39
  - class_name: Conv2D
    config:
      activation: linear
      activity_regularizer: null
      bias_constraint: null
      bias_initializer:
        class_name: Zeros
        config: {}
      bias_regularizer: null
      data_format: channels_last
      dilation_rate: *id001
      filters: 192
      kernel_constraint: null
      kernel_initializer:
        class_name: VarianceScaling
        config: {distribution: uniform, mode: fan_avg, scale: 1.0, seed: null}
      kernel_regularizer: null
      kernel_size: !!python/tuple [1, 1]
      name: conv2d_40
      padding: same
      strides: *id002
      trainable: true
      use_bias: false
    inbound_nodes:
    - - - average_pooling2d_4
        - 0
        - 0
        - {}
    name: conv2d_40
  - class_name: BatchNormalization
    config:
      axis: 3
      beta_constraint: null
      beta_initializer:
        class_name: Zeros
        config: {}
      beta_regularizer: null
      center: true
      epsilon: 0.001
      gamma_constraint: null
      gamma_initializer:
        class_name: Ones
        config: {}
      gamma_regularizer: null
      momentum: 0.99
      moving_mean_initializer:
        class_name: Zeros
        config: {}
      moving_variance_initializer:
        class_name: Ones
        config: {}
      name: batch_normalization_31
      scale: false
      trainable: true
    inbound_nodes:
    - - - conv2d_31
        - 0
        - 0
        - {}
    name: batch_normalization_31
  - class_name: BatchNormalization
    config:
      axis: 3
      beta_constraint: null
      beta_initializer:
        class_name: Zeros
        config: {}
      beta_regularizer: null
      center: true
      epsilon: 0.001
      gamma_constraint: null
      gamma_initializer:
        class_name: Ones
        config: {}
      gamma_regularizer: null
      momentum: 0.99
      moving_mean_initializer:
        class_name: Zeros
        config: {}
      moving_variance_initializer:
        class_name: Ones
        config: {}
      name: batch_normalization_34
      scale: false
      trainable: true
    inbound_nodes:
    - - - conv2d_34
        - 0
        - 0
        - {}
    name: batch_normalization_34
  - class_name: BatchNormalization
    config:
      axis: 3
      beta_constraint: null
      beta_initializer:
        class_name: Zeros
        config: {}
      beta_regularizer: null
      center: true
      epsilon: 0.001
      gamma_constraint: null
      gamma_initializer:
        class_name: Ones
        config: {}
      gamma_regularizer: null
      momentum: 0.99
      moving_mean_initializer:
        class_name: Zeros
        config: {}
      moving_variance_initializer:
        class_name: Ones
        config: {}
      name: batch_normalization_39
      scale: false
      trainable: true
    inbound_nodes:
    - - - conv2d_39
        - 0
        - 0
        - {}
    name: batch_normalization_39
  - class_name: BatchNormalization
    config:
      axis: 3
      beta_constraint: null
      beta_initializer:
        class_name: Zeros
        config: {}
      beta_regularizer: null
      center: true
      epsilon: 0.001
      gamma_constraint: null
      gamma_initializer:
        class_name: Ones
        config: {}
      gamma_regularizer: null
      momentum: 0.99
      moving_mean_initializer:
        class_name: Zeros
        config: {}
      moving_variance_initializer:
        class_name: Ones
        config: {}
      name: batch_normalization_40
      scale: false
      trainable: true
    inbound_nodes:
    - - - conv2d_40
        - 0
        - 0
        - {}
    name: batch_normalization_40
  - class_name: Activation
    config: {activation: relu, name: activation_31, trainable: true}
    inbound_nodes:
    - - - batch_normalization_31
        - 0
        - 0
        - {}
    name: activation_31
  - class_name: Activation
    config: {activation: relu, name: activation_34, trainable: true}
    inbound_nodes:
    - - - batch_normalization_34
        - 0
        - 0
        - {}
    name: activation_34
  - class_name: Activation
    config: {activation: relu, name: activation_39, trainable: true}
    inbound_nodes:
    - - - batch_normalization_39
        - 0
        - 0
        - {}
    name: activation_39
  - class_name: Activation
    config: {activation: relu, name: activation_40, trainable: true}
    inbound_nodes:
    - - - batch_normalization_40
        - 0
        - 0
        - {}
    name: activation_40
  - class_name: Concatenate
    config: {axis: 3, name: mixed4, trainable: true}
    inbound_nodes:
    - - - activation_31
        - 0
        - 0
        - &id007 {}
      - - activation_34
        - 0
        - 0
        - *id007
      - - activation_39
        - 0
        - 0
        - *id007
      - - activation_40
        - 0
        - 0
        - *id007
    name: mixed4
  - class_name: Conv2D
    config:
      activation: linear
      activity_regularizer: null
      bias_constraint: null
      bias_initializer:
        class_name: Zeros
        config: {}
      bias_regularizer: null
      data_format: channels_last
      dilation_rate: *id001
      filters: 160
      kernel_constraint: null
      kernel_initializer:
        class_name: VarianceScaling
        config: {distribution: uniform, mode: fan_avg, scale: 1.0, seed: null}
      kernel_regularizer: null
      kernel_size: !!python/tuple [1, 1]
      name: conv2d_45
      padding: same
      strides: *id002
      trainable: true
      use_bias: false
    inbound_nodes:
    - - - mixed4
        - 0
        - 0
        - {}
    name: conv2d_45
  - class_name: BatchNormalization
    config:
      axis: 3
      beta_constraint: null
      beta_initializer:
        class_name: Zeros
        config: {}
      beta_regularizer: null
      center: true
      epsilon: 0.001
      gamma_constraint: null
      gamma_initializer:
        class_name: Ones
        config: {}
      gamma_regularizer: null
      momentum: 0.99
      moving_mean_initializer:
        class_name: Zeros
        config: {}
      moving_variance_initializer:
        class_name: Ones
        config: {}
      name: batch_normalization_45
      scale: false
      trainable: true
    inbound_nodes:
    - - - conv2d_45
        - 0
        - 0
        - {}
    name: batch_normalization_45
  - class_name: Activation
    config: {activation: relu, name: activation_45, trainable: true}
    inbound_nodes:
    - - - batch_normalization_45
        - 0
        - 0
        - {}
    name: activation_45
  - class_name: Conv2D
    config:
      activation: linear
      activity_regularizer: null
      bias_constraint: null
      bias_initializer:
        class_name: Zeros
        config: {}
      bias_regularizer: null
      data_format: channels_last
      dilation_rate: *id001
      filters: 160
      kernel_constraint: null
      kernel_initializer:
        class_name: VarianceScaling
        config: {distribution: uniform, mode: fan_avg, scale: 1.0, seed: null}
      kernel_regularizer: null
      kernel_size: !!python/tuple [7, 1]
      name: conv2d_46
      padding: same
      strides: *id002
      trainable: true
      use_bias: false
    inbound_nodes:
    - - - activation_45
        - 0
        - 0
        - {}
    name: conv2d_46
  - class_name: BatchNormalization
    config:
      axis: 3
      beta_constraint: null
      beta_initializer:
        class_name: Zeros
        config: {}
      beta_regularizer: null
      center: true
      epsilon: 0.001
      gamma_constraint: null
      gamma_initializer:
        class_name: Ones
        config: {}
      gamma_regularizer: null
      momentum: 0.99
      moving_mean_initializer:
        class_name: Zeros
        config: {}
      moving_variance_initializer:
        class_name: Ones
        config: {}
      name: batch_normalization_46
      scale: false
      trainable: true
    inbound_nodes:
    - - - conv2d_46
        - 0
        - 0
        - {}
    name: batch_normalization_46
  - class_name: Activation
    config: {activation: relu, name: activation_46, trainable: true}
    inbound_nodes:
    - - - batch_normalization_46
        - 0
        - 0
        - {}
    name: activation_46
  - class_name: Conv2D
    config:
      activation: linear
      activity_regularizer: null
      bias_constraint: null
      bias_initializer:
        class_name: Zeros
        config: {}
      bias_regularizer: null
      data_format: channels_last
      dilation_rate: *id001
      filters: 160
      kernel_constraint: null
      kernel_initializer:
        class_name: VarianceScaling
        config: {distribution: uniform, mode: fan_avg, scale: 1.0, seed: null}
      kernel_regularizer: null
      kernel_size: !!python/tuple [1, 1]
      name: conv2d_42
      padding: same
      strides: *id002
      trainable: true
      use_bias: false
    inbound_nodes:
    - - - mixed4
        - 0
        - 0
        - {}
    name: conv2d_42
  - class_name: Conv2D
    config:
      activation: linear
      activity_regularizer: null
      bias_constraint: null
      bias_initializer:
        class_name: Zeros
        config: {}
      bias_regularizer: null
      data_format: channels_last
      dilation_rate: *id001
      filters: 160
      kernel_constraint: null
      kernel_initializer:
        class_name: VarianceScaling
        config: {distribution: uniform, mode: fan_avg, scale: 1.0, seed: null}
      kernel_regularizer: null
      kernel_size: !!python/tuple [1, 7]
      name: conv2d_47
      padding: same
      strides: *id002
      trainable: true
      use_bias: false
    inbound_nodes:
    - - - activation_46
        - 0
        - 0
        - {}
    name: conv2d_47
  - class_name: BatchNormalization
    config:
      axis: 3
      beta_constraint: null
      beta_initializer:
        class_name: Zeros
        config: {}
      beta_regularizer: null
      center: true
      epsilon: 0.001
      gamma_constraint: null
      gamma_initializer:
        class_name: Ones
        config: {}
      gamma_regularizer: null
      momentum: 0.99
      moving_mean_initializer:
        class_name: Zeros
        config: {}
      moving_variance_initializer:
        class_name: Ones
        config: {}
      name: batch_normalization_42
      scale: false
      trainable: true
    inbound_nodes:
    - - - conv2d_42
        - 0
        - 0
        - {}
    name: batch_normalization_42
  - class_name: BatchNormalization
    config:
      axis: 3
      beta_constraint: null
      beta_initializer:
        class_name: Zeros
        config: {}
      beta_regularizer: null
      center: true
      epsilon: 0.001
      gamma_constraint: null
      gamma_initializer:
        class_name: Ones
        config: {}
      gamma_regularizer: null
      momentum: 0.99
      moving_mean_initializer:
        class_name: Zeros
        config: {}
      moving_variance_initializer:
        class_name: Ones
        config: {}
      name: batch_normalization_47
      scale: false
      trainable: true
    inbound_nodes:
    - - - conv2d_47
        - 0
        - 0
        - {}
    name: batch_normalization_47
  - class_name: Activation
    config: {activation: relu, name: activation_42, trainable: true}
    inbound_nodes:
    - - - batch_normalization_42
        - 0
        - 0
        - {}
    name: activation_42
  - class_name: Activation
    config: {activation: relu, name: activation_47, trainable: true}
    inbound_nodes:
    - - - batch_normalization_47
        - 0
        - 0
        - {}
    name: activation_47
  - class_name: Conv2D
    config:
      activation: linear
      activity_regularizer: null
      bias_constraint: null
      bias_initializer:
        class_name: Zeros
        config: {}
      bias_regularizer: null
      data_format: channels_last
      dilation_rate: *id001
      filters: 160
      kernel_constraint: null
      kernel_initializer:
        class_name: VarianceScaling
        config: {distribution: uniform, mode: fan_avg, scale: 1.0, seed: null}
      kernel_regularizer: null
      kernel_size: !!python/tuple [1, 7]
      name: conv2d_43
      padding: same
      strides: *id002
      trainable: true
      use_bias: false
    inbound_nodes:
    - - - activation_42
        - 0
        - 0
        - {}
    name: conv2d_43
  - class_name: Conv2D
    config:
      activation: linear
      activity_regularizer: null
      bias_constraint: null
      bias_initializer:
        class_name: Zeros
        config: {}
      bias_regularizer: null
      data_format: channels_last
      dilation_rate: *id001
      filters: 160
      kernel_constraint: null
      kernel_initializer:
        class_name: VarianceScaling
        config: {distribution: uniform, mode: fan_avg, scale: 1.0, seed: null}
      kernel_regularizer: null
      kernel_size: !!python/tuple [7, 1]
      name: conv2d_48
      padding: same
      strides: *id002
      trainable: true
      use_bias: false
    inbound_nodes:
    - - - activation_47
        - 0
        - 0
        - {}
    name: conv2d_48
  - class_name: BatchNormalization
    config:
      axis: 3
      beta_constraint: null
      beta_initializer:
        class_name: Zeros
        config: {}
      beta_regularizer: null
      center: true
      epsilon: 0.001
      gamma_constraint: null
      gamma_initializer:
        class_name: Ones
        config: {}
      gamma_regularizer: null
      momentum: 0.99
      moving_mean_initializer:
        class_name: Zeros
        config: {}
      moving_variance_initializer:
        class_name: Ones
        config: {}
      name: batch_normalization_43
      scale: false
      trainable: true
    inbound_nodes:
    - - - conv2d_43
        - 0
        - 0
        - {}
    name: batch_normalization_43
  - class_name: BatchNormalization
    config:
      axis: 3
      beta_constraint: null
      beta_initializer:
        class_name: Zeros
        config: {}
      beta_regularizer: null
      center: true
      epsilon: 0.001
      gamma_constraint: null
      gamma_initializer:
        class_name: Ones
        config: {}
      gamma_regularizer: null
      momentum: 0.99
      moving_mean_initializer:
        class_name: Zeros
        config: {}
      moving_variance_initializer:
        class_name: Ones
        config: {}
      name: batch_normalization_48
      scale: false
      trainable: true
    inbound_nodes:
    - - - conv2d_48
        - 0
        - 0
        - {}
    name: batch_normalization_48
  - class_name: Activation
    config: {activation: relu, name: activation_43, trainable: true}
    inbound_nodes:
    - - - batch_normalization_43
        - 0
        - 0
        - {}
    name: activation_43
  - class_name: Activation
    config: {activation: relu, name: activation_48, trainable: true}
    inbound_nodes:
    - - - batch_normalization_48
        - 0
        - 0
        - {}
    name: activation_48
  - class_name: AveragePooling2D
    config:
      data_format: channels_last
      name: average_pooling2d_5
      padding: same
      pool_size: &id009 !!python/tuple [3, 3]
      strides: &id010 !!python/tuple [1, 1]
      trainable: true
    inbound_nodes:
    - - - mixed4
        - 0
        - 0
        - {}
    name: average_pooling2d_5
  - class_name: Conv2D
    config:
      activation: linear
      activity_regularizer: null
      bias_constraint: null
      bias_initializer:
        class_name: Zeros
        config: {}
      bias_regularizer: null
      data_format: channels_last
      dilation_rate: *id001
      filters: 192
      kernel_constraint: null
      kernel_initializer:
        class_name: VarianceScaling
        config: {distribution: uniform, mode: fan_avg, scale: 1.0, seed: null}
      kernel_regularizer: null
      kernel_size: !!python/tuple [1, 1]
      name: conv2d_41
      padding: same
      strides: *id002
      trainable: true
      use_bias: false
    inbound_nodes:
    - - - mixed4
        - 0
        - 0
        - {}
    name: conv2d_41
  - class_name: Conv2D
    config:
      activation: linear
      activity_regularizer: null
      bias_constraint: null
      bias_initializer:
        class_name: Zeros
        config: {}
      bias_regularizer: null
      data_format: channels_last
      dilation_rate: *id001
      filters: 192
      kernel_constraint: null
      kernel_initializer:
        class_name: VarianceScaling
        config: {distribution: uniform, mode: fan_avg, scale: 1.0, seed: null}
      kernel_regularizer: null
      kernel_size: !!python/tuple [7, 1]
      name: conv2d_44
      padding: same
      strides: *id002
      trainable: true
      use_bias: false
    inbound_nodes:
    - - - activation_43
        - 0
        - 0
        - {}
    name: conv2d_44
  - class_name: Conv2D
    config:
      activation: linear
      activity_regularizer: null
      bias_constraint: null
      bias_initializer:
        class_name: Zeros
        config: {}
      bias_regularizer: null
      data_format: channels_last
      dilation_rate: *id001
      filters: 192
      kernel_constraint: null
      kernel_initializer:
        class_name: VarianceScaling
        config: {distribution: uniform, mode: fan_avg, scale: 1.0, seed: null}
      kernel_regularizer: null
      kernel_size: !!python/tuple [1, 7]
      name: conv2d_49
      padding: same
      strides: *id002
      trainable: true
      use_bias: false
    inbound_nodes:
    - - - activation_48
        - 0
        - 0
        - {}
    name: conv2d_49
  - class_name: Conv2D
    config:
      activation: linear
      activity_regularizer: null
      bias_constraint: null
      bias_initializer:
        class_name: Zeros
        config: {}
      bias_regularizer: null
      data_format: channels_last
      dilation_rate: *id001
      filters: 192
      kernel_constraint: null
      kernel_initializer:
        class_name: VarianceScaling
        config: {distribution: uniform, mode: fan_avg, scale: 1.0, seed: null}
      kernel_regularizer: null
      kernel_size: !!python/tuple [1, 1]
      name: conv2d_50
      padding: same
      strides: *id002
      trainable: true
      use_bias: false
    inbound_nodes:
    - - - average_pooling2d_5
        - 0
        - 0
        - {}
    name: conv2d_50
  - class_name: BatchNormalization
    config:
      axis: 3
      beta_constraint: null
      beta_initializer:
        class_name: Zeros
        config: {}
      beta_regularizer: null
      center: true
      epsilon: 0.001
      gamma_constraint: null
      gamma_initializer:
        class_name: Ones
        config: {}
      gamma_regularizer: null
      momentum: 0.99
      moving_mean_initializer:
        class_name: Zeros
        config: {}
      moving_variance_initializer:
        class_name: Ones
        config: {}
      name: batch_normalization_41
      scale: false
      trainable: true
    inbound_nodes:
    - - - conv2d_41
        - 0
        - 0
        - {}
    name: batch_normalization_41
  - class_name: BatchNormalization
    config:
      axis: 3
      beta_constraint: null
      beta_initializer:
        class_name: Zeros
        config: {}
      beta_regularizer: null
      center: true
      epsilon: 0.001
      gamma_constraint: null
      gamma_initializer:
        class_name: Ones
        config: {}
      gamma_regularizer: null
      momentum: 0.99
      moving_mean_initializer:
        class_name: Zeros
        config: {}
      moving_variance_initializer:
        class_name: Ones
        config: {}
      name: batch_normalization_44
      scale: false
      trainable: true
    inbound_nodes:
    - - - conv2d_44
        - 0
        - 0
        - {}
    name: batch_normalization_44
  - class_name: BatchNormalization
    config:
      axis: 3
      beta_constraint: null
      beta_initializer:
        class_name: Zeros
        config: {}
      beta_regularizer: null
      center: true
      epsilon: 0.001
      gamma_constraint: null
      gamma_initializer:
        class_name: Ones
        config: {}
      gamma_regularizer: null
      momentum: 0.99
      moving_mean_initializer:
        class_name: Zeros
        config: {}
      moving_variance_initializer:
        class_name: Ones
        config: {}
      name: batch_normalization_49
      scale: false
      trainable: true
    inbound_nodes:
    - - - conv2d_49
        - 0
        - 0
        - {}
    name: batch_normalization_49
  - class_name: BatchNormalization
    config:
      axis: 3
      beta_constraint: null
      beta_initializer:
        class_name: Zeros
        config: {}
      beta_regularizer: null
      center: true
      epsilon: 0.001
      gamma_constraint: null
      gamma_initializer:
        class_name: Ones
        config: {}
      gamma_regularizer: null
      momentum: 0.99
      moving_mean_initializer:
        class_name: Zeros
        config: {}
      moving_variance_initializer:
        class_name: Ones
        config: {}
      name: batch_normalization_50
      scale: false
      trainable: true
    inbound_nodes:
    - - - conv2d_50
        - 0
        - 0
        - {}
    name: batch_normalization_50
  - class_name: Activation
    config: {activation: relu, name: activation_41, trainable: true}
    inbound_nodes:
    - - - batch_normalization_41
        - 0
        - 0
        - {}
    name: activation_41
  - class_name: Activation
    config: {activation: relu, name: activation_44, trainable: true}
    inbound_nodes:
    - - - batch_normalization_44
        - 0
        - 0
        - {}
    name: activation_44
  - class_name: Activation
    config: {activation: relu, name: activation_49, trainable: true}
    inbound_nodes:
    - - - batch_normalization_49
        - 0
        - 0
        - {}
    name: activation_49
  - class_name: Activation
    config: {activation: relu, name: activation_50, trainable: true}
    inbound_nodes:
    - - - batch_normalization_50
        - 0
        - 0
        - {}
    name: activation_50
  - class_name: Concatenate
    config: {axis: 3, name: mixed5, trainable: true}
    inbound_nodes:
    - - - activation_41
        - 0
        - 0
        - &id008 {}
      - - activation_44
        - 0
        - 0
        - *id008
      - - activation_49
        - 0
        - 0
        - *id008
      - - activation_50
        - 0
        - 0
        - *id008
    name: mixed5
  - class_name: Conv2D
    config:
      activation: linear
      activity_regularizer: null
      bias_constraint: null
      bias_initializer:
        class_name: Zeros
        config: {}
      bias_regularizer: null
      data_format: channels_last
      dilation_rate: *id001
      filters: 160
      kernel_constraint: null
      kernel_initializer:
        class_name: VarianceScaling
        config: {distribution: uniform, mode: fan_avg, scale: 1.0, seed: null}
      kernel_regularizer: null
      kernel_size: !!python/tuple [1, 1]
      name: conv2d_55
      padding: same
      strides: *id002
      trainable: true
      use_bias: false
    inbound_nodes:
    - - - mixed5
        - 0
        - 0
        - {}
    name: conv2d_55
  - class_name: BatchNormalization
    config:
      axis: 3
      beta_constraint: null
      beta_initializer:
        class_name: Zeros
        config: {}
      beta_regularizer: null
      center: true
      epsilon: 0.001
      gamma_constraint: null
      gamma_initializer:
        class_name: Ones
        config: {}
      gamma_regularizer: null
      momentum: 0.99
      moving_mean_initializer:
        class_name: Zeros
        config: {}
      moving_variance_initializer:
        class_name: Ones
        config: {}
      name: batch_normalization_55
      scale: false
      trainable: true
    inbound_nodes:
    - - - conv2d_55
        - 0
        - 0
        - {}
    name: batch_normalization_55
  - class_name: Activation
    config: {activation: relu, name: activation_55, trainable: true}
    inbound_nodes:
    - - - batch_normalization_55
        - 0
        - 0
        - {}
    name: activation_55
  - class_name: Conv2D
    config:
      activation: linear
      activity_regularizer: null
      bias_constraint: null
      bias_initializer:
        class_name: Zeros
        config: {}
      bias_regularizer: null
      data_format: channels_last
      dilation_rate: *id001
      filters: 160
      kernel_constraint: null
      kernel_initializer:
        class_name: VarianceScaling
        config: {distribution: uniform, mode: fan_avg, scale: 1.0, seed: null}
      kernel_regularizer: null
      kernel_size: !!python/tuple [7, 1]
      name: conv2d_56
      padding: same
      strides: *id002
      trainable: true
      use_bias: false
    inbound_nodes:
    - - - activation_55
        - 0
        - 0
        - {}
    name: conv2d_56
  - class_name: BatchNormalization
    config:
      axis: 3
      beta_constraint: null
      beta_initializer:
        class_name: Zeros
        config: {}
      beta_regularizer: null
      center: true
      epsilon: 0.001
      gamma_constraint: null
      gamma_initializer:
        class_name: Ones
        config: {}
      gamma_regularizer: null
      momentum: 0.99
      moving_mean_initializer:
        class_name: Zeros
        config: {}
      moving_variance_initializer:
        class_name: Ones
        config: {}
      name: batch_normalization_56
      scale: false
      trainable: true
    inbound_nodes:
    - - - conv2d_56
        - 0
        - 0
        - {}
    name: batch_normalization_56
  - class_name: Activation
    config: {activation: relu, name: activation_56, trainable: true}
    inbound_nodes:
    - - - batch_normalization_56
        - 0
        - 0
        - {}
    name: activation_56
  - class_name: Conv2D
    config:
      activation: linear
      activity_regularizer: null
      bias_constraint: null
      bias_initializer:
        class_name: Zeros
        config: {}
      bias_regularizer: null
      data_format: channels_last
      dilation_rate: *id001
      filters: 160
      kernel_constraint: null
      kernel_initializer:
        class_name: VarianceScaling
        config: {distribution: uniform, mode: fan_avg, scale: 1.0, seed: null}
      kernel_regularizer: null
      kernel_size: !!python/tuple [1, 1]
      name: conv2d_52
      padding: same
      strides: *id002
      trainable: true
      use_bias: false
    inbound_nodes:
    - - - mixed5
        - 0
        - 0
        - {}
    name: conv2d_52
  - class_name: Conv2D
    config:
      activation: linear
      activity_regularizer: null
      bias_constraint: null
      bias_initializer:
        class_name: Zeros
        config: {}
      bias_regularizer: null
      data_format: channels_last
      dilation_rate: *id001
      filters: 160
      kernel_constraint: null
      kernel_initializer:
        class_name: VarianceScaling
        config: {distribution: uniform, mode: fan_avg, scale: 1.0, seed: null}
      kernel_regularizer: null
      kernel_size: !!python/tuple [1, 7]
      name: conv2d_57
      padding: same
      strides: *id002
      trainable: true
      use_bias: false
    inbound_nodes:
    - - - activation_56
        - 0
        - 0
        - {}
    name: conv2d_57
  - class_name: BatchNormalization
    config:
      axis: 3
      beta_constraint: null
      beta_initializer:
        class_name: Zeros
        config: {}
      beta_regularizer: null
      center: true
      epsilon: 0.001
      gamma_constraint: null
      gamma_initializer:
        class_name: Ones
        config: {}
      gamma_regularizer: null
      momentum: 0.99
      moving_mean_initializer:
        class_name: Zeros
        config: {}
      moving_variance_initializer:
        class_name: Ones
        config: {}
      name: batch_normalization_52
      scale: false
      trainable: true
    inbound_nodes:
    - - - conv2d_52
        - 0
        - 0
        - {}
    name: batch_normalization_52
  - class_name: BatchNormalization
    config:
      axis: 3
      beta_constraint: null
      beta_initializer:
        class_name: Zeros
        config: {}
      beta_regularizer: null
      center: true
      epsilon: 0.001
      gamma_constraint: null
      gamma_initializer:
        class_name: Ones
        config: {}
      gamma_regularizer: null
      momentum: 0.99
      moving_mean_initializer:
        class_name: Zeros
        config: {}
      moving_variance_initializer:
        class_name: Ones
        config: {}
      name: batch_normalization_57
      scale: false
      trainable: true
    inbound_nodes:
    - - - conv2d_57
        - 0
        - 0
        - {}
    name: batch_normalization_57
  - class_name: Activation
    config: {activation: relu, name: activation_52, trainable: true}
    inbound_nodes:
    - - - batch_normalization_52
        - 0
        - 0
        - {}
    name: activation_52
  - class_name: Activation
    config: {activation: relu, name: activation_57, trainable: true}
    inbound_nodes:
    - - - batch_normalization_57
        - 0
        - 0
        - {}
    name: activation_57
  - class_name: Conv2D
    config:
      activation: linear
      activity_regularizer: null
      bias_constraint: null
      bias_initializer:
        class_name: Zeros
        config: {}
      bias_regularizer: null
      data_format: channels_last
      dilation_rate: *id001
      filters: 160
      kernel_constraint: null
      kernel_initializer:
        class_name: VarianceScaling
        config: {distribution: uniform, mode: fan_avg, scale: 1.0, seed: null}
      kernel_regularizer: null
      kernel_size: !!python/tuple [1, 7]
      name: conv2d_53
      padding: same
      strides: *id002
      trainable: true
      use_bias: false
    inbound_nodes:
    - - - activation_52
        - 0
        - 0
        - {}
    name: conv2d_53
  - class_name: Conv2D
    config:
      activation: linear
      activity_regularizer: null
      bias_constraint: null
      bias_initializer:
        class_name: Zeros
        config: {}
      bias_regularizer: null
      data_format: channels_last
      dilation_rate: *id001
      filters: 160
      kernel_constraint: null
      kernel_initializer:
        class_name: VarianceScaling
        config: {distribution: uniform, mode: fan_avg, scale: 1.0, seed: null}
      kernel_regularizer: null
      kernel_size: !!python/tuple [7, 1]
      name: conv2d_58
      padding: same
      strides: *id002
      trainable: true
      use_bias: false
    inbound_nodes:
    - - - activation_57
        - 0
        - 0
        - {}
    name: conv2d_58
  - class_name: BatchNormalization
    config:
      axis: 3
      beta_constraint: null
      beta_initializer:
        class_name: Zeros
        config: {}
      beta_regularizer: null
      center: true
      epsilon: 0.001
      gamma_constraint: null
      gamma_initializer:
        class_name: Ones
        config: {}
      gamma_regularizer: null
      momentum: 0.99
      moving_mean_initializer:
        class_name: Zeros
        config: {}
      moving_variance_initializer:
        class_name: Ones
        config: {}
      name: batch_normalization_53
      scale: false
      trainable: true
    inbound_nodes:
    - - - conv2d_53
        - 0
        - 0
        - {}
    name: batch_normalization_53
  - class_name: BatchNormalization
    config:
      axis: 3
      beta_constraint: null
      beta_initializer:
        class_name: Zeros
        config: {}
      beta_regularizer: null
      center: true
      epsilon: 0.001
      gamma_constraint: null
      gamma_initializer:
        class_name: Ones
        config: {}
      gamma_regularizer: null
      momentum: 0.99
      moving_mean_initializer:
        class_name: Zeros
        config: {}
      moving_variance_initializer:
        class_name: Ones
        config: {}
      name: batch_normalization_58
      scale: false
      trainable: true
    inbound_nodes:
    - - - conv2d_58
        - 0
        - 0
        - {}
    name: batch_normalization_58
  - class_name: Activation
    config: {activation: relu, name: activation_53, trainable: true}
    inbound_nodes:
    - - - batch_normalization_53
        - 0
        - 0
        - {}
    name: activation_53
  - class_name: Activation
    config: {activation: relu, name: activation_58, trainable: true}
    inbound_nodes:
    - - - batch_normalization_58
        - 0
        - 0
        - {}
    name: activation_58
  - class_name: AveragePooling2D
    config:
      data_format: channels_last
      name: average_pooling2d_6
      padding: same
      pool_size: *id009
      strides: *id010
      trainable: true
    inbound_nodes:
    - - - mixed5
        - 0
        - 0
        - {}
    name: average_pooling2d_6
  - class_name: Conv2D
    config:
      activation: linear
      activity_regularizer: null
      bias_constraint: null
      bias_initializer:
        class_name: Zeros
        config: {}
      bias_regularizer: null
      data_format: channels_last
      dilation_rate: *id001
      filters: 192
      kernel_constraint: null
      kernel_initializer:
        class_name: VarianceScaling
        config: {distribution: uniform, mode: fan_avg, scale: 1.0, seed: null}
      kernel_regularizer: null
      kernel_size: !!python/tuple [1, 1]
      name: conv2d_51
      padding: same
      strides: *id002
      trainable: true
      use_bias: false
    inbound_nodes:
    - - - mixed5
        - 0
        - 0
        - {}
    name: conv2d_51
  - class_name: Conv2D
    config:
      activation: linear
      activity_regularizer: null
      bias_constraint: null
      bias_initializer:
        class_name: Zeros
        config: {}
      bias_regularizer: null
      data_format: channels_last
      dilation_rate: *id001
      filters: 192
      kernel_constraint: null
      kernel_initializer:
        class_name: VarianceScaling
        config: {distribution: uniform, mode: fan_avg, scale: 1.0, seed: null}
      kernel_regularizer: null
      kernel_size: !!python/tuple [7, 1]
      name: conv2d_54
      padding: same
      strides: *id002
      trainable: true
      use_bias: false
    inbound_nodes:
    - - - activation_53
        - 0
        - 0
        - {}
    name: conv2d_54
  - class_name: Conv2D
    config:
      activation: linear
      activity_regularizer: null
      bias_constraint: null
      bias_initializer:
        class_name: Zeros
        config: {}
      bias_regularizer: null
      data_format: channels_last
      dilation_rate: *id001
      filters: 192
      kernel_constraint: null
      kernel_initializer:
        class_name: VarianceScaling
        config: {distribution: uniform, mode: fan_avg, scale: 1.0, seed: null}
      kernel_regularizer: null
      kernel_size: !!python/tuple [1, 7]
      name: conv2d_59
      padding: same
      strides: *id002
      trainable: true
      use_bias: false
    inbound_nodes:
    - - - activation_58
        - 0
        - 0
        - {}
    name: conv2d_59
  - class_name: Conv2D
    config:
      activation: linear
      activity_regularizer: null
      bias_constraint: null
      bias_initializer:
        class_name: Zeros
        config: {}
      bias_regularizer: null
      data_format: channels_last
      dilation_rate: *id001
      filters: 192
      kernel_constraint: null
      kernel_initializer:
        class_name: VarianceScaling
        config: {distribution: uniform, mode: fan_avg, scale: 1.0, seed: null}
      kernel_regularizer: null
      kernel_size: !!python/tuple [1, 1]
      name: conv2d_60
      padding: same
      strides: *id002
      trainable: true
      use_bias: false
    inbound_nodes:
    - - - average_pooling2d_6
        - 0
        - 0
        - {}
    name: conv2d_60
  - class_name: BatchNormalization
    config:
      axis: 3
      beta_constraint: null
      beta_initializer:
        class_name: Zeros
        config: {}
      beta_regularizer: null
      center: true
      epsilon: 0.001
      gamma_constraint: null
      gamma_initializer:
        class_name: Ones
        config: {}
      gamma_regularizer: null
      momentum: 0.99
      moving_mean_initializer:
        class_name: Zeros
        config: {}
      moving_variance_initializer:
        class_name: Ones
        config: {}
      name: batch_normalization_51
      scale: false
      trainable: true
    inbound_nodes:
    - - - conv2d_51
        - 0
        - 0
        - {}
    name: batch_normalization_51
  - class_name: BatchNormalization
    config:
      axis: 3
      beta_constraint: null
      beta_initializer:
        class_name: Zeros
        config: {}
      beta_regularizer: null
      center: true
      epsilon: 0.001
      gamma_constraint: null
      gamma_initializer:
        class_name: Ones
        config: {}
      gamma_regularizer: null
      momentum: 0.99
      moving_mean_initializer:
        class_name: Zeros
        config: {}
      moving_variance_initializer:
        class_name: Ones
        config: {}
      name: batch_normalization_54
      scale: false
      trainable: true
    inbound_nodes:
    - - - conv2d_54
        - 0
        - 0
        - {}
    name: batch_normalization_54
  - class_name: BatchNormalization
    config:
      axis: 3
      beta_constraint: null
      beta_initializer:
        class_name: Zeros
        config: {}
      beta_regularizer: null
      center: true
      epsilon: 0.001
      gamma_constraint: null
      gamma_initializer:
        class_name: Ones
        config: {}
      gamma_regularizer: null
      momentum: 0.99
      moving_mean_initializer:
        class_name: Zeros
        config: {}
      moving_variance_initializer:
        class_name: Ones
        config: {}
      name: batch_normalization_59
      scale: false
      trainable: true
    inbound_nodes:
    - - - conv2d_59
        - 0
        - 0
        - {}
    name: batch_normalization_59
  - class_name: BatchNormalization
    config:
      axis: 3
      beta_constraint: null
      beta_initializer:
        class_name: Zeros
        config: {}
      beta_regularizer: null
      center: true
      epsilon: 0.001
      gamma_constraint: null
      gamma_initializer:
        class_name: Ones
        config: {}
      gamma_regularizer: null
      momentum: 0.99
      moving_mean_initializer:
        class_name: Zeros
        config: {}
      moving_variance_initializer:
        class_name: Ones
        config: {}
      name: batch_normalization_60
      scale: false
      trainable: true
    inbound_nodes:
    - - - conv2d_60
        - 0
        - 0
        - {}
    name: batch_normalization_60
  - class_name: Activation
    config: {activation: relu, name: activation_51, trainable: true}
    inbound_nodes:
    - - - batch_normalization_51
        - 0
        - 0
        - {}
    name: activation_51
  - class_name: Activation
    config: {activation: relu, name: activation_54, trainable: true}
    inbound_nodes:
    - - - batch_normalization_54
        - 0
        - 0
        - {}
    name: activation_54
  - class_name: Activation
    config: {activation: relu, name: activation_59, trainable: true}
    inbound_nodes:
    - - - batch_normalization_59
        - 0
        - 0
        - {}
    name: activation_59
  - class_name: Activation
    config: {activation: relu, name: activation_60, trainable: true}
    inbound_nodes:
    - - - batch_normalization_60
        - 0
        - 0
        - {}
    name: activation_60
  - class_name: Concatenate
    config: {axis: 3, name: mixed6, trainable: true}
    inbound_nodes:
    - - - activation_51
        - 0
        - 0
        - &id011 {}
      - - activation_54
        - 0
        - 0
        - *id011
      - - activation_59
        - 0
        - 0
        - *id011
      - - activation_60
        - 0
        - 0
        - *id011
    name: mixed6
  - class_name: Conv2D
    config:
      activation: linear
      activity_regularizer: null
      bias_constraint: null
      bias_initializer:
        class_name: Zeros
        config: {}
      bias_regularizer: null
      data_format: channels_last
      dilation_rate: *id001
      filters: 192
      kernel_constraint: null
      kernel_initializer:
        class_name: VarianceScaling
        config: {distribution: uniform, mode: fan_avg, scale: 1.0, seed: null}
      kernel_regularizer: null
      kernel_size: !!python/tuple [1, 1]
      name: conv2d_65
      padding: same
      strides: *id002
      trainable: true
      use_bias: false
    inbound_nodes:
    - - - mixed6
        - 0
        - 0
        - {}
    name: conv2d_65
  - class_name: BatchNormalization
    config:
      axis: 3
      beta_constraint: null
      beta_initializer:
        class_name: Zeros
        config: {}
      beta_regularizer: null
      center: true
      epsilon: 0.001
      gamma_constraint: null
      gamma_initializer:
        class_name: Ones
        config: {}
      gamma_regularizer: null
      momentum: 0.99
      moving_mean_initializer:
        class_name: Zeros
        config: {}
      moving_variance_initializer:
        class_name: Ones
        config: {}
      name: batch_normalization_65
      scale: false
      trainable: true
    inbound_nodes:
    - - - conv2d_65
        - 0
        - 0
        - {}
    name: batch_normalization_65
  - class_name: Activation
    config: {activation: relu, name: activation_65, trainable: true}
    inbound_nodes:
    - - - batch_normalization_65
        - 0
        - 0
        - {}
    name: activation_65
  - class_name: Conv2D
    config:
      activation: linear
      activity_regularizer: null
      bias_constraint: null
      bias_initializer:
        class_name: Zeros
        config: {}
      bias_regularizer: null
      data_format: channels_last
      dilation_rate: *id001
      filters: 192
      kernel_constraint: null
      kernel_initializer:
        class_name: VarianceScaling
        config: {distribution: uniform, mode: fan_avg, scale: 1.0, seed: null}
      kernel_regularizer: null
      kernel_size: !!python/tuple [7, 1]
      name: conv2d_66
      padding: same
      strides: *id002
      trainable: true
      use_bias: false
    inbound_nodes:
    - - - activation_65
        - 0
        - 0
        - {}
    name: conv2d_66
  - class_name: BatchNormalization
    config:
      axis: 3
      beta_constraint: null
      beta_initializer:
        class_name: Zeros
        config: {}
      beta_regularizer: null
      center: true
      epsilon: 0.001
      gamma_constraint: null
      gamma_initializer:
        class_name: Ones
        config: {}
      gamma_regularizer: null
      momentum: 0.99
      moving_mean_initializer:
        class_name: Zeros
        config: {}
      moving_variance_initializer:
        class_name: Ones
        config: {}
      name: batch_normalization_66
      scale: false
      trainable: true
    inbound_nodes:
    - - - conv2d_66
        - 0
        - 0
        - {}
    name: batch_normalization_66
  - class_name: Activation
    config: {activation: relu, name: activation_66, trainable: true}
    inbound_nodes:
    - - - batch_normalization_66
        - 0
        - 0
        - {}
    name: activation_66
  - class_name: Conv2D
    config:
      activation: linear
      activity_regularizer: null
      bias_constraint: null
      bias_initializer:
        class_name: Zeros
        config: {}
      bias_regularizer: null
      data_format: channels_last
      dilation_rate: *id001
      filters: 192
      kernel_constraint: null
      kernel_initializer:
        class_name: VarianceScaling
        config: {distribution: uniform, mode: fan_avg, scale: 1.0, seed: null}
      kernel_regularizer: null
      kernel_size: !!python/tuple [1, 1]
      name: conv2d_62
      padding: same
      strides: *id002
      trainable: true
      use_bias: false
    inbound_nodes:
    - - - mixed6
        - 0
        - 0
        - {}
    name: conv2d_62
  - class_name: Conv2D
    config:
      activation: linear
      activity_regularizer: null
      bias_constraint: null
      bias_initializer:
        class_name: Zeros
        config: {}
      bias_regularizer: null
      data_format: channels_last
      dilation_rate: *id001
      filters: 192
      kernel_constraint: null
      kernel_initializer:
        class_name: VarianceScaling
        config: {distribution: uniform, mode: fan_avg, scale: 1.0, seed: null}
      kernel_regularizer: null
      kernel_size: !!python/tuple [1, 7]
      name: conv2d_67
      padding: same
      strides: *id002
      trainable: true
      use_bias: false
    inbound_nodes:
    - - - activation_66
        - 0
        - 0
        - {}
    name: conv2d_67
  - class_name: BatchNormalization
    config:
      axis: 3
      beta_constraint: null
      beta_initializer:
        class_name: Zeros
        config: {}
      beta_regularizer: null
      center: true
      epsilon: 0.001
      gamma_constraint: null
      gamma_initializer:
        class_name: Ones
        config: {}
      gamma_regularizer: null
      momentum: 0.99
      moving_mean_initializer:
        class_name: Zeros
        config: {}
      moving_variance_initializer:
        class_name: Ones
        config: {}
      name: batch_normalization_62
      scale: false
      trainable: true
    inbound_nodes:
    - - - conv2d_62
        - 0
        - 0
        - {}
    name: batch_normalization_62
  - class_name: BatchNormalization
    config:
      axis: 3
      beta_constraint: null
      beta_initializer:
        class_name: Zeros
        config: {}
      beta_regularizer: null
      center: true
      epsilon: 0.001
      gamma_constraint: null
      gamma_initializer:
        class_name: Ones
        config: {}
      gamma_regularizer: null
      momentum: 0.99
      moving_mean_initializer:
        class_name: Zeros
        config: {}
      moving_variance_initializer:
        class_name: Ones
        config: {}
      name: batch_normalization_67
      scale: false
      trainable: true
    inbound_nodes:
    - - - conv2d_67
        - 0
        - 0
        - {}
    name: batch_normalization_67
  - class_name: Activation
    config: {activation: relu, name: activation_62, trainable: true}
    inbound_nodes:
    - - - batch_normalization_62
        - 0
        - 0
        - {}
    name: activation_62
  - class_name: Activation
    config: {activation: relu, name: activation_67, trainable: true}
    inbound_nodes:
    - - - batch_normalization_67
        - 0
        - 0
        - {}
    name: activation_67
  - class_name: Conv2D
    config:
      activation: linear
      activity_regularizer: null
      bias_constraint: null
      bias_initializer:
        class_name: Zeros
        config: {}
      bias_regularizer: null
      data_format: channels_last
      dilation_rate: *id001
      filters: 192
      kernel_constraint: null
      kernel_initializer:
        class_name: VarianceScaling
        config: {distribution: uniform, mode: fan_avg, scale: 1.0, seed: null}
      kernel_regularizer: null
      kernel_size: !!python/tuple [1, 7]
      name: conv2d_63
      padding: same
      strides: *id002
      trainable: true
      use_bias: false
    inbound_nodes:
    - - - activation_62
        - 0
        - 0
        - {}
    name: conv2d_63
  - class_name: Conv2D
    config:
      activation: linear
      activity_regularizer: null
      bias_constraint: null
      bias_initializer:
        class_name: Zeros
        config: {}
      bias_regularizer: null
      data_format: channels_last
      dilation_rate: *id001
      filters: 192
      kernel_constraint: null
      kernel_initializer:
        class_name: VarianceScaling
        config: {distribution: uniform, mode: fan_avg, scale: 1.0, seed: null}
      kernel_regularizer: null
      kernel_size: !!python/tuple [7, 1]
      name: conv2d_68
      padding: same
      strides: *id002
      trainable: true
      use_bias: false
    inbound_nodes:
    - - - activation_67
        - 0
        - 0
        - {}
    name: conv2d_68
  - class_name: BatchNormalization
    config:
      axis: 3
      beta_constraint: null
      beta_initializer:
        class_name: Zeros
        config: {}
      beta_regularizer: null
      center: true
      epsilon: 0.001
      gamma_constraint: null
      gamma_initializer:
        class_name: Ones
        config: {}
      gamma_regularizer: null
      momentum: 0.99
      moving_mean_initializer:
        class_name: Zeros
        config: {}
      moving_variance_initializer:
        class_name: Ones
        config: {}
      name: batch_normalization_63
      scale: false
      trainable: true
    inbound_nodes:
    - - - conv2d_63
        - 0
        - 0
        - {}
    name: batch_normalization_63
  - class_name: BatchNormalization
    config:
      axis: 3
      beta_constraint: null
      beta_initializer:
        class_name: Zeros
        config: {}
      beta_regularizer: null
      center: true
      epsilon: 0.001
      gamma_constraint: null
      gamma_initializer:
        class_name: Ones
        config: {}
      gamma_regularizer: null
      momentum: 0.99
      moving_mean_initializer:
        class_name: Zeros
        config: {}
      moving_variance_initializer:
        class_name: Ones
        config: {}
      name: batch_normalization_68
      scale: false
      trainable: true
    inbound_nodes:
    - - - conv2d_68
        - 0
        - 0
        - {}
    name: batch_normalization_68
  - class_name: Activation
    config: {activation: relu, name: activation_63, trainable: true}
    inbound_nodes:
    - - - batch_normalization_63
        - 0
        - 0
        - {}
    name: activation_63
  - class_name: Activation
    config: {activation: relu, name: activation_68, trainable: true}
    inbound_nodes:
    - - - batch_normalization_68
        - 0
        - 0
        - {}
    name: activation_68
  - class_name: AveragePooling2D
    config:
      data_format: channels_last
      name: average_pooling2d_7
      padding: same
      pool_size: !!python/tuple [3, 3]
      strides: !!python/tuple [1, 1]
      trainable: true
    inbound_nodes:
    - - - mixed6
        - 0
        - 0
        - {}
    name: average_pooling2d_7
  - class_name: Conv2D
    config:
      activation: linear
      activity_regularizer: null
      bias_constraint: null
      bias_initializer:
        class_name: Zeros
        config: {}
      bias_regularizer: null
      data_format: channels_last
      dilation_rate: *id001
      filters: 192
      kernel_constraint: null
      kernel_initializer:
        class_name: VarianceScaling
        config: {distribution: uniform, mode: fan_avg, scale: 1.0, seed: null}
      kernel_regularizer: null
      kernel_size: !!python/tuple [1, 1]
      name: conv2d_61
      padding: same
      strides: *id002
      trainable: true
      use_bias: false
    inbound_nodes:
    - - - mixed6
        - 0
        - 0
        - {}
    name: conv2d_61
  - class_name: Conv2D
    config:
      activation: linear
      activity_regularizer: null
      bias_constraint: null
      bias_initializer:
        class_name: Zeros
        config: {}
      bias_regularizer: null
      data_format: channels_last
      dilation_rate: *id001
      filters: 192
      kernel_constraint: null
      kernel_initializer:
        class_name: VarianceScaling
        config: {distribution: uniform, mode: fan_avg, scale: 1.0, seed: null}
      kernel_regularizer: null
      kernel_size: !!python/tuple [7, 1]
      name: conv2d_64
      padding: same
      strides: *id002
      trainable: true
      use_bias: false
    inbound_nodes:
    - - - activation_63
        - 0
        - 0
        - {}
    name: conv2d_64
  - class_name: Conv2D
    config:
      activation: linear
      activity_regularizer: null
      bias_constraint: null
      bias_initializer:
        class_name: Zeros
        config: {}
      bias_regularizer: null
      data_format: channels_last
      dilation_rate: *id001
      filters: 192
      kernel_constraint: null
      kernel_initializer:
        class_name: VarianceScaling
        config: {distribution: uniform, mode: fan_avg, scale: 1.0, seed: null}
      kernel_regularizer: null
      kernel_size: !!python/tuple [1, 7]
      name: conv2d_69
      padding: same
      strides: *id002
      trainable: true
      use_bias: false
    inbound_nodes:
    - - - activation_68
        - 0
        - 0
        - {}
    name: conv2d_69
  - class_name: Conv2D
    config:
      activation: linear
      activity_regularizer: null
      bias_constraint: null
      bias_initializer:
        class_name: Zeros
        config: {}
      bias_regularizer: null
      data_format: channels_last
      dilation_rate: *id001
      filters: 192
      kernel_constraint: null
      kernel_initializer:
        class_name: VarianceScaling
        config: {distribution: uniform, mode: fan_avg, scale: 1.0, seed: null}
      kernel_regularizer: null
      kernel_size: !!python/tuple [1, 1]
      name: conv2d_70
      padding: same
      strides: *id002
      trainable: true
      use_bias: false
    inbound_nodes:
    - - - average_pooling2d_7
        - 0
        - 0
        - {}
    name: conv2d_70
  - class_name: BatchNormalization
    config:
      axis: 3
      beta_constraint: null
      beta_initializer:
        class_name: Zeros
        config: {}
      beta_regularizer: null
      center: true
      epsilon: 0.001
      gamma_constraint: null
      gamma_initializer:
        class_name: Ones
        config: {}
      gamma_regularizer: null
      momentum: 0.99
      moving_mean_initializer:
        class_name: Zeros
        config: {}
      moving_variance_initializer:
        class_name: Ones
        config: {}
      name: batch_normalization_61
      scale: false
      trainable: true
    inbound_nodes:
    - - - conv2d_61
        - 0
        - 0
        - {}
    name: batch_normalization_61
  - class_name: BatchNormalization
    config:
      axis: 3
      beta_constraint: null
      beta_initializer:
        class_name: Zeros
        config: {}
      beta_regularizer: null
      center: true
      epsilon: 0.001
      gamma_constraint: null
      gamma_initializer:
        class_name: Ones
        config: {}
      gamma_regularizer: null
      momentum: 0.99
      moving_mean_initializer:
        class_name: Zeros
        config: {}
      moving_variance_initializer:
        class_name: Ones
        config: {}
      name: batch_normalization_64
      scale: false
      trainable: true
    inbound_nodes:
    - - - conv2d_64
        - 0
        - 0
        - {}
    name: batch_normalization_64
  - class_name: BatchNormalization
    config:
      axis: 3
      beta_constraint: null
      beta_initializer:
        class_name: Zeros
        config: {}
      beta_regularizer: null
      center: true
      epsilon: 0.001
      gamma_constraint: null
      gamma_initializer:
        class_name: Ones
        config: {}
      gamma_regularizer: null
      momentum: 0.99
      moving_mean_initializer:
        class_name: Zeros
        config: {}
      moving_variance_initializer:
        class_name: Ones
        config: {}
      name: batch_normalization_69
      scale: false
      trainable: true
    inbound_nodes:
    - - - conv2d_69
        - 0
        - 0
        - {}
    name: batch_normalization_69
  - class_name: BatchNormalization
    config:
      axis: 3
      beta_constraint: null
      beta_initializer:
        class_name: Zeros
        config: {}
      beta_regularizer: null
      center: true
      epsilon: 0.001
      gamma_constraint: null
      gamma_initializer:
        class_name: Ones
        config: {}
      gamma_regularizer: null
      momentum: 0.99
      moving_mean_initializer:
        class_name: Zeros
        config: {}
      moving_variance_initializer:
        class_name: Ones
        config: {}
      name: batch_normalization_70
      scale: false
      trainable: true
    inbound_nodes:
    - - - conv2d_70
        - 0
        - 0
        - {}
    name: batch_normalization_70
  - class_name: Activation
    config: {activation: relu, name: activation_61, trainable: true}
    inbound_nodes:
    - - - batch_normalization_61
        - 0
        - 0
        - {}
    name: activation_61
  - class_name: Activation
    config: {activation: relu, name: activation_64, trainable: true}
    inbound_nodes:
    - - - batch_normalization_64
        - 0
        - 0
        - {}
    name: activation_64
  - class_name: Activation
    config: {activation: relu, name: activation_69, trainable: true}
    inbound_nodes:
    - - - batch_normalization_69
        - 0
        - 0
        - {}
    name: activation_69
  - class_name: Activation
    config: {activation: relu, name: activation_70, trainable: true}
    inbound_nodes:
    - - - batch_normalization_70
        - 0
        - 0
        - {}
    name: activation_70
  - class_name: Concatenate
    config: {axis: 3, name: mixed7, trainable: true}
    inbound_nodes:
    - - - activation_61
        - 0
        - 0
        - &id012 {}
      - - activation_64
        - 0
        - 0
        - *id012
      - - activation_69
        - 0
        - 0
        - *id012
      - - activation_70
        - 0
        - 0
        - *id012
    name: mixed7
  - class_name: Conv2D
    config:
      activation: linear
      activity_regularizer: null
      bias_constraint: null
      bias_initializer:
        class_name: Zeros
        config: {}
      bias_regularizer: null
      data_format: channels_last
      dilation_rate: *id001
      filters: 192
      kernel_constraint: null
      kernel_initializer:
        class_name: VarianceScaling
        config: {distribution: uniform, mode: fan_avg, scale: 1.0, seed: null}
      kernel_regularizer: null
      kernel_size: !!python/tuple [1, 1]
      name: conv2d_73
      padding: same
      strides: *id002
      trainable: true
      use_bias: false
    inbound_nodes:
    - - - mixed7
        - 0
        - 0
        - {}
    name: conv2d_73
  - class_name: BatchNormalization
    config:
      axis: 3
      beta_constraint: null
      beta_initializer:
        class_name: Zeros
        config: {}
      beta_regularizer: null
      center: true
      epsilon: 0.001
      gamma_constraint: null
      gamma_initializer:
        class_name: Ones
        config: {}
      gamma_regularizer: null
      momentum: 0.99
      moving_mean_initializer:
        class_name: Zeros
        config: {}
      moving_variance_initializer:
        class_name: Ones
        config: {}
      name: batch_normalization_73
      scale: false
      trainable: true
    inbound_nodes:
    - - - conv2d_73
        - 0
        - 0
        - {}
    name: batch_normalization_73
  - class_name: Activation
    config: {activation: relu, name: activation_73, trainable: true}
    inbound_nodes:
    - - - batch_normalization_73
        - 0
        - 0
        - {}
    name: activation_73
  - class_name: Conv2D
    config:
      activation: linear
      activity_regularizer: null
      bias_constraint: null
      bias_initializer:
        class_name: Zeros
        config: {}
      bias_regularizer: null
      data_format: channels_last
      dilation_rate: *id001
      filters: 192
      kernel_constraint: null
      kernel_initializer:
        class_name: VarianceScaling
        config: {distribution: uniform, mode: fan_avg, scale: 1.0, seed: null}
      kernel_regularizer: null
      kernel_size: !!python/tuple [1, 7]
      name: conv2d_74
      padding: same
      strides: *id002
      trainable: true
      use_bias: false
    inbound_nodes:
    - - - activation_73
        - 0
        - 0
        - {}
    name: conv2d_74
  - class_name: BatchNormalization
    config:
      axis: 3
      beta_constraint: null
      beta_initializer:
        class_name: Zeros
        config: {}
      beta_regularizer: null
      center: true
      epsilon: 0.001
      gamma_constraint: null
      gamma_initializer:
        class_name: Ones
        config: {}
      gamma_regularizer: null
      momentum: 0.99
      moving_mean_initializer:
        class_name: Zeros
        config: {}
      moving_variance_initializer:
        class_name: Ones
        config: {}
      name: batch_normalization_74
      scale: false
      trainable: true
    inbound_nodes:
    - - - conv2d_74
        - 0
        - 0
        - {}
    name: batch_normalization_74
  - class_name: Activation
    config: {activation: relu, name: activation_74, trainable: true}
    inbound_nodes:
    - - - batch_normalization_74
        - 0
        - 0
        - {}
    name: activation_74
  - class_name: Conv2D
    config:
      activation: linear
      activity_regularizer: null
      bias_constraint: null
      bias_initializer:
        class_name: Zeros
        config: {}
      bias_regularizer: null
      data_format: channels_last
      dilation_rate: *id001
      filters: 192
      kernel_constraint: null
      kernel_initializer:
        class_name: VarianceScaling
        config: {distribution: uniform, mode: fan_avg, scale: 1.0, seed: null}
      kernel_regularizer: null
      kernel_size: !!python/tuple [1, 1]
      name: conv2d_71
      padding: same
      strides: *id002
      trainable: true
      use_bias: false
    inbound_nodes:
    - - - mixed7
        - 0
        - 0
        - {}
    name: conv2d_71
  - class_name: Conv2D
    config:
      activation: linear
      activity_regularizer: null
      bias_constraint: null
      bias_initializer:
        class_name: Zeros
        config: {}
      bias_regularizer: null
      data_format: channels_last
      dilation_rate: *id001
      filters: 192
      kernel_constraint: null
      kernel_initializer:
        class_name: VarianceScaling
        config: {distribution: uniform, mode: fan_avg, scale: 1.0, seed: null}
      kernel_regularizer: null
      kernel_size: !!python/tuple [7, 1]
      name: conv2d_75
      padding: same
      strides: *id002
      trainable: true
      use_bias: false
    inbound_nodes:
    - - - activation_74
        - 0
        - 0
        - {}
    name: conv2d_75
  - class_name: BatchNormalization
    config:
      axis: 3
      beta_constraint: null
      beta_initializer:
        class_name: Zeros
        config: {}
      beta_regularizer: null
      center: true
      epsilon: 0.001
      gamma_constraint: null
      gamma_initializer:
        class_name: Ones
        config: {}
      gamma_regularizer: null
      momentum: 0.99
      moving_mean_initializer:
        class_name: Zeros
        config: {}
      moving_variance_initializer:
        class_name: Ones
        config: {}
      name: batch_normalization_71
      scale: false
      trainable: true
    inbound_nodes:
    - - - conv2d_71
        - 0
        - 0
        - {}
    name: batch_normalization_71
  - class_name: BatchNormalization
    config:
      axis: 3
      beta_constraint: null
      beta_initializer:
        class_name: Zeros
        config: {}
      beta_regularizer: null
      center: true
      epsilon: 0.001
      gamma_constraint: null
      gamma_initializer:
        class_name: Ones
        config: {}
      gamma_regularizer: null
      momentum: 0.99
      moving_mean_initializer:
        class_name: Zeros
        config: {}
      moving_variance_initializer:
        class_name: Ones
        config: {}
      name: batch_normalization_75
      scale: false
      trainable: true
    inbound_nodes:
    - - - conv2d_75
        - 0
        - 0
        - {}
    name: batch_normalization_75
  - class_name: Activation
    config: {activation: relu, name: activation_71, trainable: true}
    inbound_nodes:
    - - - batch_normalization_71
        - 0
        - 0
        - {}
    name: activation_71
  - class_name: Activation
    config: {activation: relu, name: activation_75, trainable: true}
    inbound_nodes:
    - - - batch_normalization_75
        - 0
        - 0
        - {}
    name: activation_75
  - class_name: Conv2D
    config:
      activation: linear
      activity_regularizer: null
      bias_constraint: null
      bias_initializer:
        class_name: Zeros
        config: {}
      bias_regularizer: null
      data_format: channels_last
      dilation_rate: *id001
      filters: 320
      kernel_constraint: null
      kernel_initializer:
        class_name: VarianceScaling
        config: {distribution: uniform, mode: fan_avg, scale: 1.0, seed: null}
      kernel_regularizer: null
      kernel_size: !!python/tuple [3, 3]
      name: conv2d_72
      padding: valid
      strides: !!python/tuple [2, 2]
      trainable: true
      use_bias: false
    inbound_nodes:
    - - - activation_71
        - 0
        - 0
        - {}
    name: conv2d_72
  - class_name: Conv2D
    config:
      activation: linear
      activity_regularizer: null
      bias_constraint: null
      bias_initializer:
        class_name: Zeros
        config: {}
      bias_regularizer: null
      data_format: channels_last
      dilation_rate: *id001
      filters: 192
      kernel_constraint: null
      kernel_initializer:
        class_name: VarianceScaling
        config: {distribution: uniform, mode: fan_avg, scale: 1.0, seed: null}
      kernel_regularizer: null
      kernel_size: !!python/tuple [3, 3]
      name: conv2d_76
      padding: valid
      strides: !!python/tuple [2, 2]
      trainable: true
      use_bias: false
    inbound_nodes:
    - - - activation_75
        - 0
        - 0
        - {}
    name: conv2d_76
  - class_name: BatchNormalization
    config:
      axis: 3
      beta_constraint: null
      beta_initializer:
        class_name: Zeros
        config: {}
      beta_regularizer: null
      center: true
      epsilon: 0.001
      gamma_constraint: null
      gamma_initializer:
        class_name: Ones
        config: {}
      gamma_regularizer: null
      momentum: 0.99
      moving_mean_initializer:
        class_name: Zeros
        config: {}
      moving_variance_initializer:
        class_name: Ones
        config: {}
      name: batch_normalization_72
      scale: false
      trainable: true
    inbound_nodes:
    - - - conv2d_72
        - 0
        - 0
        - {}
    name: batch_normalization_72
  - class_name: BatchNormalization
    config:
      axis: 3
      beta_constraint: null
      beta_initializer:
        class_name: Zeros
        config: {}
      beta_regularizer: null
      center: true
      epsilon: 0.001
      gamma_constraint: null
      gamma_initializer:
        class_name: Ones
        config: {}
      gamma_regularizer: null
      momentum: 0.99
      moving_mean_initializer:
        class_name: Zeros
        config: {}
      moving_variance_initializer:
        class_name: Ones
        config: {}
      name: batch_normalization_76
      scale: false
      trainable: true
    inbound_nodes:
    - - - conv2d_76
        - 0
        - 0
        - {}
    name: batch_normalization_76
  - class_name: Activation
    config: {activation: relu, name: activation_72, trainable: true}
    inbound_nodes:
    - - - batch_normalization_72
        - 0
        - 0
        - {}
    name: activation_72
  - class_name: Activation
    config: {activation: relu, name: activation_76, trainable: true}
    inbound_nodes:
    - - - batch_normalization_76
        - 0
        - 0
        - {}
    name: activation_76
  - class_name: MaxPooling2D
    config:
      data_format: channels_last
      name: max_pooling2d_4
      padding: valid
      pool_size: !!python/tuple [3, 3]
      strides: !!python/tuple [2, 2]
      trainable: true
    inbound_nodes:
    - - - mixed7
        - 0
        - 0
        - {}
    name: max_pooling2d_4
  - class_name: Concatenate
    config: {axis: 3, name: mixed8, trainable: true}
    inbound_nodes:
    - - - activation_72
        - 0
        - 0
        - &id013 {}
      - - activation_76
        - 0
        - 0
        - *id013
      - - max_pooling2d_4
        - 0
        - 0
        - *id013
    name: mixed8
  - class_name: Conv2D
    config:
      activation: linear
      activity_regularizer: null
      bias_constraint: null
      bias_initializer:
        class_name: Zeros
        config: {}
      bias_regularizer: null
      data_format: channels_last
      dilation_rate: *id001
      filters: 448
      kernel_constraint: null
      kernel_initializer:
        class_name: VarianceScaling
        config: {distribution: uniform, mode: fan_avg, scale: 1.0, seed: null}
      kernel_regularizer: null
      kernel_size: !!python/tuple [1, 1]
      name: conv2d_81
      padding: same
      strides: *id002
      trainable: true
      use_bias: false
    inbound_nodes:
    - - - mixed8
        - 0
        - 0
        - {}
    name: conv2d_81
  - class_name: BatchNormalization
    config:
      axis: 3
      beta_constraint: null
      beta_initializer:
        class_name: Zeros
        config: {}
      beta_regularizer: null
      center: true
      epsilon: 0.001
      gamma_constraint: null
      gamma_initializer:
        class_name: Ones
        config: {}
      gamma_regularizer: null
      momentum: 0.99
      moving_mean_initializer:
        class_name: Zeros
        config: {}
      moving_variance_initializer:
        class_name: Ones
        config: {}
      name: batch_normalization_81
      scale: false
      trainable: true
    inbound_nodes:
    - - - conv2d_81
        - 0
        - 0
        - {}
    name: batch_normalization_81
  - class_name: Activation
    config: {activation: relu, name: activation_81, trainable: true}
    inbound_nodes:
    - - - batch_normalization_81
        - 0
        - 0
        - {}
    name: activation_81
  - class_name: Conv2D
    config:
      activation: linear
      activity_regularizer: null
      bias_constraint: null
      bias_initializer:
        class_name: Zeros
        config: {}
      bias_regularizer: null
      data_format: channels_last
      dilation_rate: *id001
      filters: 384
      kernel_constraint: null
      kernel_initializer:
        class_name: VarianceScaling
        config: {distribution: uniform, mode: fan_avg, scale: 1.0, seed: null}
      kernel_regularizer: null
      kernel_size: !!python/tuple [1, 1]
      name: conv2d_78
      padding: same
      strides: *id002
      trainable: true
      use_bias: false
    inbound_nodes:
    - - - mixed8
        - 0
        - 0
        - {}
    name: conv2d_78
  - class_name: Conv2D
    config:
      activation: linear
      activity_regularizer: null
      bias_constraint: null
      bias_initializer:
        class_name: Zeros
        config: {}
      bias_regularizer: null
      data_format: channels_last
      dilation_rate: *id001
      filters: 384
      kernel_constraint: null
      kernel_initializer:
        class_name: VarianceScaling
        config: {distribution: uniform, mode: fan_avg, scale: 1.0, seed: null}
      kernel_regularizer: null
      kernel_size: !!python/tuple [3, 3]
      name: conv2d_82
      padding: same
      strides: *id002
      trainable: true
      use_bias: false
    inbound_nodes:
    - - - activation_81
        - 0
        - 0
        - {}
    name: conv2d_82
  - class_name: BatchNormalization
    config:
      axis: 3
      beta_constraint: null
      beta_initializer:
        class_name: Zeros
        config: {}
      beta_regularizer: null
      center: true
      epsilon: 0.001
      gamma_constraint: null
      gamma_initializer:
        class_name: Ones
        config: {}
      gamma_regularizer: null
      momentum: 0.99
      moving_mean_initializer:
        class_name: Zeros
        config: {}
      moving_variance_initializer:
        class_name: Ones
        config: {}
      name: batch_normalization_78
      scale: false
      trainable: true
    inbound_nodes:
    - - - conv2d_78
        - 0
        - 0
        - {}
    name: batch_normalization_78
  - class_name: BatchNormalization
    config:
      axis: 3
      beta_constraint: null
      beta_initializer:
        class_name: Zeros
        config: {}
      beta_regularizer: null
      center: true
      epsilon: 0.001
      gamma_constraint: null
      gamma_initializer:
        class_name: Ones
        config: {}
      gamma_regularizer: null
      momentum: 0.99
      moving_mean_initializer:
        class_name: Zeros
        config: {}
      moving_variance_initializer:
        class_name: Ones
        config: {}
      name: batch_normalization_82
      scale: false
      trainable: true
    inbound_nodes:
    - - - conv2d_82
        - 0
        - 0
        - {}
    name: batch_normalization_82
  - class_name: Activation
    config: {activation: relu, name: activation_78, trainable: true}
    inbound_nodes:
    - - - batch_normalization_78
        - 0
        - 0
        - {}
    name: activation_78
  - class_name: Activation
    config: {activation: relu, name: activation_82, trainable: true}
    inbound_nodes:
    - - - batch_normalization_82
        - 0
        - 0
        - {}
    name: activation_82
  - class_name: Conv2D
    config:
      activation: linear
      activity_regularizer: null
      bias_constraint: null
      bias_initializer:
        class_name: Zeros
        config: {}
      bias_regularizer: null
      data_format: channels_last
      dilation_rate: *id001
      filters: 384
      kernel_constraint: null
      kernel_initializer:
        class_name: VarianceScaling
        config: {distribution: uniform, mode: fan_avg, scale: 1.0, seed: null}
      kernel_regularizer: null
      kernel_size: !!python/tuple [1, 3]
      name: conv2d_79
      padding: same
      strides: *id002
      trainable: true
      use_bias: false
    inbound_nodes:
    - - - activation_78
        - 0
        - 0
        - {}
    name: conv2d_79
  - class_name: Conv2D
    config:
      activation: linear
      activity_regularizer: null
      bias_constraint: null
      bias_initializer:
        class_name: Zeros
        config: {}
      bias_regularizer: null
      data_format: channels_last
      dilation_rate: *id001
      filters: 384
      kernel_constraint: null
      kernel_initializer:
        class_name: VarianceScaling
        config: {distribution: uniform, mode: fan_avg, scale: 1.0, seed: null}
      kernel_regularizer: null
      kernel_size: !!python/tuple [3, 1]
      name: conv2d_80
      padding: same
      strides: *id002
      trainable: true
      use_bias: false
    inbound_nodes:
    - - - activation_78
        - 0
        - 0
        - {}
    name: conv2d_80
  - class_name: Conv2D
    config:
      activation: linear
      activity_regularizer: null
      bias_constraint: null
      bias_initializer:
        class_name: Zeros
        config: {}
      bias_regularizer: null
      data_format: channels_last
      dilation_rate: *id001
      filters: 384
      kernel_constraint: null
      kernel_initializer:
        class_name: VarianceScaling
        config: {distribution: uniform, mode: fan_avg, scale: 1.0, seed: null}
      kernel_regularizer: null
      kernel_size: !!python/tuple [1, 3]
      name: conv2d_83
      padding: same
      strides: *id002
      trainable: true
      use_bias: false
    inbound_nodes:
    - - - activation_82
        - 0
        - 0
        - {}
    name: conv2d_83
  - class_name: Conv2D
    config:
      activation: linear
      activity_regularizer: null
      bias_constraint: null
      bias_initializer:
        class_name: Zeros
        config: {}
      bias_regularizer: null
      data_format: channels_last
      dilation_rate: *id001
      filters: 384
      kernel_constraint: null
      kernel_initializer:
        class_name: VarianceScaling
        config: {distribution: uniform, mode: fan_avg, scale: 1.0, seed: null}
      kernel_regularizer: null
      kernel_size: !!python/tuple [3, 1]
      name: conv2d_84
      padding: same
      strides: *id002
      trainable: true
      use_bias: false
    inbound_nodes:
    - - - activation_82
        - 0
        - 0
        - {}
    name: conv2d_84
  - class_name: AveragePooling2D
    config:
      data_format: channels_last
      name: average_pooling2d_8
      padding: same
      pool_size: &id017 !!python/tuple [3, 3]
      strides: &id018 !!python/tuple [1, 1]
      trainable: true
    inbound_nodes:
    - - - mixed8
        - 0
        - 0
        - {}
    name: average_pooling2d_8
  - class_name: Conv2D
    config:
      activation: linear
      activity_regularizer: null
      bias_constraint: null
      bias_initializer:
        class_name: Zeros
        config: {}
      bias_regularizer: null
      data_format: channels_last
      dilation_rate: *id001
      filters: 320
      kernel_constraint: null
      kernel_initializer:
        class_name: VarianceScaling
        config: {distribution: uniform, mode: fan_avg, scale: 1.0, seed: null}
      kernel_regularizer: null
      kernel_size: !!python/tuple [1, 1]
      name: conv2d_77
      padding: same
      strides: *id002
      trainable: true
      use_bias: false
    inbound_nodes:
    - - - mixed8
        - 0
        - 0
        - {}
    name: conv2d_77
  - class_name: BatchNormalization
    config:
      axis: 3
      beta_constraint: null
      beta_initializer:
        class_name: Zeros
        config: {}
      beta_regularizer: null
      center: true
      epsilon: 0.001
      gamma_constraint: null
      gamma_initializer:
        class_name: Ones
        config: {}
      gamma_regularizer: null
      momentum: 0.99
      moving_mean_initializer:
        class_name: Zeros
        config: {}
      moving_variance_initializer:
        class_name: Ones
        config: {}
      name: batch_normalization_79
      scale: false
      trainable: true
    inbound_nodes:
    - - - conv2d_79
        - 0
        - 0
        - {}
    name: batch_normalization_79
  - class_name: BatchNormalization
    config:
      axis: 3
      beta_constraint: null
      beta_initializer:
        class_name: Zeros
        config: {}
      beta_regularizer: null
      center: true
      epsilon: 0.001
      gamma_constraint: null
      gamma_initializer:
        class_name: Ones
        config: {}
      gamma_regularizer: null
      momentum: 0.99
      moving_mean_initializer:
        class_name: Zeros
        config: {}
      moving_variance_initializer:
        class_name: Ones
        config: {}
      name: batch_normalization_80
      scale: false
      trainable: true
    inbound_nodes:
    - - - conv2d_80
        - 0
        - 0
        - {}
    name: batch_normalization_80
  - class_name: BatchNormalization
    config:
      axis: 3
      beta_constraint: null
      beta_initializer:
        class_name: Zeros
        config: {}
      beta_regularizer: null
      center: true
      epsilon: 0.001
      gamma_constraint: null
      gamma_initializer:
        class_name: Ones
        config: {}
      gamma_regularizer: null
      momentum: 0.99
      moving_mean_initializer:
        class_name: Zeros
        config: {}
      moving_variance_initializer:
        class_name: Ones
        config: {}
      name: batch_normalization_83
      scale: false
      trainable: true
    inbound_nodes:
    - - - conv2d_83
        - 0
        - 0
        - {}
    name: batch_normalization_83
  - class_name: BatchNormalization
    config:
      axis: 3
      beta_constraint: null
      beta_initializer:
        class_name: Zeros
        config: {}
      beta_regularizer: null
      center: true
      epsilon: 0.001
      gamma_constraint: null
      gamma_initializer:
        class_name: Ones
        config: {}
      gamma_regularizer: null
      momentum: 0.99
      moving_mean_initializer:
        class_name: Zeros
        config: {}
      moving_variance_initializer:
        class_name: Ones
        config: {}
      name: batch_normalization_84
      scale: false
      trainable: true
    inbound_nodes:
    - - - conv2d_84
        - 0
        - 0
        - {}
    name: batch_normalization_84
  - class_name: Conv2D
    config:
      activation: linear
      activity_regularizer: null
      bias_constraint: null
      bias_initializer:
        class_name: Zeros
        config: {}
      bias_regularizer: null
      data_format: channels_last
      dilation_rate: *id001
      filters: 192
      kernel_constraint: null
      kernel_initializer:
        class_name: VarianceScaling
        config: {distribution: uniform, mode: fan_avg, scale: 1.0, seed: null}
      kernel_regularizer: null
      kernel_size: !!python/tuple [1, 1]
      name: conv2d_85
      padding: same
      strides: *id002
      trainable: true
      use_bias: false
    inbound_nodes:
    - - - average_pooling2d_8
        - 0
        - 0
        - {}
    name: conv2d_85
  - class_name: BatchNormalization
    config:
      axis: 3
      beta_constraint: null
      beta_initializer:
        class_name: Zeros
        config: {}
      beta_regularizer: null
      center: true
      epsilon: 0.001
      gamma_constraint: null
      gamma_initializer:
        class_name: Ones
        config: {}
      gamma_regularizer: null
      momentum: 0.99
      moving_mean_initializer:
        class_name: Zeros
        config: {}
      moving_variance_initializer:
        class_name: Ones
        config: {}
      name: batch_normalization_77
      scale: false
      trainable: true
    inbound_nodes:
    - - - conv2d_77
        - 0
        - 0
        - {}
    name: batch_normalization_77
  - class_name: Activation
    config: {activation: relu, name: activation_79, trainable: true}
    inbound_nodes:
    - - - batch_normalization_79
        - 0
        - 0
        - {}
    name: activation_79
  - class_name: Activation
    config: {activation: relu, name: activation_80, trainable: true}
    inbound_nodes:
    - - - batch_normalization_80
        - 0
        - 0
        - {}
    name: activation_80
  - class_name: Activation
    config: {activation: relu, name: activation_83, trainable: true}
    inbound_nodes:
    - - - batch_normalization_83
        - 0
        - 0
        - {}
    name: activation_83
  - class_name: Activation
    config: {activation: relu, name: activation_84, trainable: true}
    inbound_nodes:
    - - - batch_normalization_84
        - 0
        - 0
        - {}
    name: activation_84
  - class_name: BatchNormalization
    config:
      axis: 3
      beta_constraint: null
      beta_initializer:
        class_name: Zeros
        config: {}
      beta_regularizer: null
      center: true
      epsilon: 0.001
      gamma_constraint: null
      gamma_initializer:
        class_name: Ones
        config: {}
      gamma_regularizer: null
      momentum: 0.99
      moving_mean_initializer:
        class_name: Zeros
        config: {}
      moving_variance_initializer:
        class_name: Ones
        config: {}
      name: batch_normalization_85
      scale: false
      trainable: true
    inbound_nodes:
    - - - conv2d_85
        - 0
        - 0
        - {}
    name: batch_normalization_85
  - class_name: Activation
    config: {activation: relu, name: activation_77, trainable: true}
    inbound_nodes:
    - - - batch_normalization_77
        - 0
        - 0
        - {}
    name: activation_77
  - class_name: Concatenate
    config: {axis: 3, name: mixed9_0, trainable: true}
    inbound_nodes:
    - - - activation_79
        - 0
        - 0
        - &id014 {}
      - - activation_80
        - 0
        - 0
        - *id014
    name: mixed9_0
  - class_name: Concatenate
    config: {axis: 3, name: concatenate_1, trainable: true}
    inbound_nodes:
    - - - activation_83
        - 0
        - 0
        - &id015 {}
      - - activation_84
        - 0
        - 0
        - *id015
    name: concatenate_1
  - class_name: Activation
    config: {activation: relu, name: activation_85, trainable: true}
    inbound_nodes:
    - - - batch_normalization_85
        - 0
        - 0
        - {}
    name: activation_85
  - class_name: Concatenate
    config: {axis: 3, name: mixed9, trainable: true}
    inbound_nodes:
    - - - activation_77
        - 0
        - 0
        - &id016 {}
      - - mixed9_0
        - 0
        - 0
        - *id016
      - - concatenate_1
        - 0
        - 0
        - *id016
      - - activation_85
        - 0
        - 0
        - *id016
    name: mixed9
  - class_name: Conv2D
    config:
      activation: linear
      activity_regularizer: null
      bias_constraint: null
      bias_initializer:
        class_name: Zeros
        config: {}
      bias_regularizer: null
      data_format: channels_last
      dilation_rate: *id001
      filters: 448
      kernel_constraint: null
      kernel_initializer:
        class_name: VarianceScaling
        config: {distribution: uniform, mode: fan_avg, scale: 1.0, seed: null}
      kernel_regularizer: null
      kernel_size: !!python/tuple [1, 1]
      name: conv2d_90
      padding: same
      strides: *id002
      trainable: true
      use_bias: false
    inbound_nodes:
    - - - mixed9
        - 0
        - 0
        - {}
    name: conv2d_90
  - class_name: BatchNormalization
    config:
      axis: 3
      beta_constraint: null
      beta_initializer:
        class_name: Zeros
        config: {}
      beta_regularizer: null
      center: true
      epsilon: 0.001
      gamma_constraint: null
      gamma_initializer:
        class_name: Ones
        config: {}
      gamma_regularizer: null
      momentum: 0.99
      moving_mean_initializer:
        class_name: Zeros
        config: {}
      moving_variance_initializer:
        class_name: Ones
        config: {}
      name: batch_normalization_90
      scale: false
      trainable: true
    inbound_nodes:
    - - - conv2d_90
        - 0
        - 0
        - {}
    name: batch_normalization_90
  - class_name: Activation
    config: {activation: relu, name: activation_90, trainable: true}
    inbound_nodes:
    - - - batch_normalization_90
        - 0
        - 0
        - {}
    name: activation_90
  - class_name: Conv2D
    config:
      activation: linear
      activity_regularizer: null
      bias_constraint: null
      bias_initializer:
        class_name: Zeros
        config: {}
      bias_regularizer: null
      data_format: channels_last
      dilation_rate: *id001
      filters: 384
      kernel_constraint: null
      kernel_initializer:
        class_name: VarianceScaling
        config: {distribution: uniform, mode: fan_avg, scale: 1.0, seed: null}
      kernel_regularizer: null
      kernel_size: !!python/tuple [1, 1]
      name: conv2d_87
      padding: same
      strides: *id002
      trainable: true
      use_bias: false
    inbound_nodes:
    - - - mixed9
        - 0
        - 0
        - {}
    name: conv2d_87
  - class_name: Conv2D
    config:
      activation: linear
      activity_regularizer: null
      bias_constraint: null
      bias_initializer:
        class_name: Zeros
        config: {}
      bias_regularizer: null
      data_format: channels_last
      dilation_rate: *id001
      filters: 384
      kernel_constraint: null
      kernel_initializer:
        class_name: VarianceScaling
        config: {distribution: uniform, mode: fan_avg, scale: 1.0, seed: null}
      kernel_regularizer: null
      kernel_size: !!python/tuple [3, 3]
      name: conv2d_91
      padding: same
      strides: *id002
      trainable: true
      use_bias: false
    inbound_nodes:
    - - - activation_90
        - 0
        - 0
        - {}
    name: conv2d_91
  - class_name: BatchNormalization
    config:
      axis: 3
      beta_constraint: null
      beta_initializer:
        class_name: Zeros
        config: {}
      beta_regularizer: null
      center: true
      epsilon: 0.001
      gamma_constraint: null
      gamma_initializer:
        class_name: Ones
        config: {}
      gamma_regularizer: null
      momentum: 0.99
      moving_mean_initializer:
        class_name: Zeros
        config: {}
      moving_variance_initializer:
        class_name: Ones
        config: {}
      name: batch_normalization_87
      scale: false
      trainable: true
    inbound_nodes:
    - - - conv2d_87
        - 0
        - 0
        - {}
    name: batch_normalization_87
  - class_name: BatchNormalization
    config:
      axis: 3
      beta_constraint: null
      beta_initializer:
        class_name: Zeros
        config: {}
      beta_regularizer: null
      center: true
      epsilon: 0.001
      gamma_constraint: null
      gamma_initializer:
        class_name: Ones
        config: {}
      gamma_regularizer: null
      momentum: 0.99
      moving_mean_initializer:
        class_name: Zeros
        config: {}
      moving_variance_initializer:
        class_name: Ones
        config: {}
      name: batch_normalization_91
      scale: false
      trainable: true
    inbound_nodes:
    - - - conv2d_91
        - 0
        - 0
        - {}
    name: batch_normalization_91
  - class_name: Activation
    config: {activation: relu, name: activation_87, trainable: true}
    inbound_nodes:
    - - - batch_normalization_87
        - 0
        - 0
        - {}
    name: activation_87
  - class_name: Activation
    config: {activation: relu, name: activation_91, trainable: true}
    inbound_nodes:
    - - - batch_normalization_91
        - 0
        - 0
        - {}
    name: activation_91
  - class_name: Conv2D
    config:
      activation: linear
      activity_regularizer: null
      bias_constraint: null
      bias_initializer:
        class_name: Zeros
        config: {}
      bias_regularizer: null
      data_format: channels_last
      dilation_rate: *id001
      filters: 384
      kernel_constraint: null
      kernel_initializer:
        class_name: VarianceScaling
        config: {distribution: uniform, mode: fan_avg, scale: 1.0, seed: null}
      kernel_regularizer: null
      kernel_size: !!python/tuple [1, 3]
      name: conv2d_88
      padding: same
      strides: *id002
      trainable: true
      use_bias: false
    inbound_nodes:
    - - - activation_87
        - 0
        - 0
        - {}
    name: conv2d_88
  - class_name: Conv2D
    config:
      activation: linear
      activity_regularizer: null
      bias_constraint: null
      bias_initializer:
        class_name: Zeros
        config: {}
      bias_regularizer: null
      data_format: channels_last
      dilation_rate: *id001
      filters: 384
      kernel_constraint: null
      kernel_initializer:
        class_name: VarianceScaling
        config: {distribution: uniform, mode: fan_avg, scale: 1.0, seed: null}
      kernel_regularizer: null
      kernel_size: !!python/tuple [3, 1]
      name: conv2d_89
      padding: same
      strides: *id002
      trainable: true
      use_bias: false
    inbound_nodes:
    - - - activation_87
        - 0
        - 0
        - {}
    name: conv2d_89
  - class_name: Conv2D
    config:
      activation: linear
      activity_regularizer: null
      bias_constraint: null
      bias_initializer:
        class_name: Zeros
        config: {}
      bias_regularizer: null
      data_format: channels_last
      dilation_rate: *id001
      filters: 384
      kernel_constraint: null
      kernel_initializer:
        class_name: VarianceScaling
        config: {distribution: uniform, mode: fan_avg, scale: 1.0, seed: null}
      kernel_regularizer: null
      kernel_size: !!python/tuple [1, 3]
      name: conv2d_92
      padding: same
      strides: *id002
      trainable: true
      use_bias: false
    inbound_nodes:
    - - - activation_91
        - 0
        - 0
        - {}
    name: conv2d_92
  - class_name: Conv2D
    config:
      activation: linear
      activity_regularizer: null
      bias_constraint: null
      bias_initializer:
        class_name: Zeros
        config: {}
      bias_regularizer: null
      data_format: channels_last
      dilation_rate: *id001
      filters: 384
      kernel_constraint: null
      kernel_initializer:
        class_name: VarianceScaling
        config: {distribution: uniform, mode: fan_avg, scale: 1.0, seed: null}
      kernel_regularizer: null
      kernel_size: !!python/tuple [3, 1]
      name: conv2d_93
      padding: same
      strides: *id002
      trainable: true
      use_bias: false
    inbound_nodes:
    - - - activation_91
        - 0
        - 0
        - {}
    name: conv2d_93
  - class_name: AveragePooling2D
    config:
      data_format: channels_last
      name: average_pooling2d_9
      padding: same
      pool_size: *id017
      strides: *id018
      trainable: true
    inbound_nodes:
    - - - mixed9
        - 0
        - 0
        - {}
    name: average_pooling2d_9
  - class_name: Conv2D
    config:
      activation: linear
      activity_regularizer: null
      bias_constraint: null
      bias_initializer:
        class_name: Zeros
        config: {}
      bias_regularizer: null
      data_format: channels_last
      dilation_rate: *id001
      filters: 320
      kernel_constraint: null
      kernel_initializer:
        class_name: VarianceScaling
        config: {distribution: uniform, mode: fan_avg, scale: 1.0, seed: null}
      kernel_regularizer: null
      kernel_size: !!python/tuple [1, 1]
      name: conv2d_86
      padding: same
      strides: *id002
      trainable: true
      use_bias: false
    inbound_nodes:
    - - - mixed9
        - 0
        - 0
        - {}
    name: conv2d_86
  - class_name: BatchNormalization
    config:
      axis: 3
      beta_constraint: null
      beta_initializer:
        class_name: Zeros
        config: {}
      beta_regularizer: null
      center: true
      epsilon: 0.001
      gamma_constraint: null
      gamma_initializer:
        class_name: Ones
        config: {}
      gamma_regularizer: null
      momentum: 0.99
      moving_mean_initializer:
        class_name: Zeros
        config: {}
      moving_variance_initializer:
        class_name: Ones
        config: {}
      name: batch_normalization_88
      scale: false
      trainable: true
    inbound_nodes:
    - - - conv2d_88
        - 0
        - 0
        - {}
    name: batch_normalization_88
  - class_name: BatchNormalization
    config:
      axis: 3
      beta_constraint: null
      beta_initializer:
        class_name: Zeros
        config: {}
      beta_regularizer: null
      center: true
      epsilon: 0.001
      gamma_constraint: null
      gamma_initializer:
        class_name: Ones
        config: {}
      gamma_regularizer: null
      momentum: 0.99
      moving_mean_initializer:
        class_name: Zeros
        config: {}
      moving_variance_initializer:
        class_name: Ones
        config: {}
      name: batch_normalization_89
      scale: false
      trainable: true
    inbound_nodes:
    - - - conv2d_89
        - 0
        - 0
        - {}
    name: batch_normalization_89
  - class_name: BatchNormalization
    config:
      axis: 3
      beta_constraint: null
      beta_initializer:
        class_name: Zeros
        config: {}
      beta_regularizer: null
      center: true
      epsilon: 0.001
      gamma_constraint: null
      gamma_initializer:
        class_name: Ones
        config: {}
      gamma_regularizer: null
      momentum: 0.99
      moving_mean_initializer:
        class_name: Zeros
        config: {}
      moving_variance_initializer:
        class_name: Ones
        config: {}
      name: batch_normalization_92
      scale: false
      trainable: true
    inbound_nodes:
    - - - conv2d_92
        - 0
        - 0
        - {}
    name: batch_normalization_92
  - class_name: BatchNormalization
    config:
      axis: 3
      beta_constraint: null
      beta_initializer:
        class_name: Zeros
        config: {}
      beta_regularizer: null
      center: true
      epsilon: 0.001
      gamma_constraint: null
      gamma_initializer:
        class_name: Ones
        config: {}
      gamma_regularizer: null
      momentum: 0.99
      moving_mean_initializer:
        class_name: Zeros
        config: {}
      moving_variance_initializer:
        class_name: Ones
        config: {}
      name: batch_normalization_93
      scale: false
      trainable: true
    inbound_nodes:
    - - - conv2d_93
        - 0
        - 0
        - {}
    name: batch_normalization_93
  - class_name: Conv2D
    config:
      activation: linear
      activity_regularizer: null
      bias_constraint: null
      bias_initializer:
        class_name: Zeros
        config: {}
      bias_regularizer: null
      data_format: channels_last
      dilation_rate: *id001
      filters: 192
      kernel_constraint: null
      kernel_initializer:
        class_name: VarianceScaling
        config: {distribution: uniform, mode: fan_avg, scale: 1.0, seed: null}
      kernel_regularizer: null
      kernel_size: !!python/tuple [1, 1]
      name: conv2d_94
      padding: same
      strides: *id002
      trainable: true
      use_bias: false
    inbound_nodes:
    - - - average_pooling2d_9
        - 0
        - 0
        - {}
    name: conv2d_94
  - class_name: BatchNormalization
    config:
      axis: 3
      beta_constraint: null
      beta_initializer:
        class_name: Zeros
        config: {}
      beta_regularizer: null
      center: true
      epsilon: 0.001
      gamma_constraint: null
      gamma_initializer:
        class_name: Ones
        config: {}
      gamma_regularizer: null
      momentum: 0.99
      moving_mean_initializer:
        class_name: Zeros
        config: {}
      moving_variance_initializer:
        class_name: Ones
        config: {}
      name: batch_normalization_86
      scale: false
      trainable: true
    inbound_nodes:
    - - - conv2d_86
        - 0
        - 0
        - {}
    name: batch_normalization_86
  - class_name: Activation
    config: {activation: relu, name: activation_88, trainable: true}
    inbound_nodes:
    - - - batch_normalization_88
        - 0
        - 0
        - {}
    name: activation_88
  - class_name: Activation
    config: {activation: relu, name: activation_89, trainable: true}
    inbound_nodes:
    - - - batch_normalization_89
        - 0
        - 0
        - {}
    name: activation_89
  - class_name: Activation
    config: {activation: relu, name: activation_92, trainable: true}
    inbound_nodes:
    - - - batch_normalization_92
        - 0
        - 0
        - {}
    name: activation_92
  - class_name: Activation
    config: {activation: relu, name: activation_93, trainable: true}
    inbound_nodes:
    - - - batch_normalization_93
        - 0
        - 0
        - {}
    name: activation_93
  - class_name: BatchNormalization
    config:
      axis: 3
      beta_constraint: null
      beta_initializer:
        class_name: Zeros
        config: {}
      beta_regularizer: null
      center: true
      epsilon: 0.001
      gamma_constraint: null
      gamma_initializer:
        class_name: Ones
        config: {}
      gamma_regularizer: null
      momentum: 0.99
      moving_mean_initializer:
        class_name: Zeros
        config: {}
      moving_variance_initializer:
        class_name: Ones
        config: {}
      name: batch_normalization_94
      scale: false
      trainable: true
    inbound_nodes:
    - - - conv2d_94
        - 0
        - 0
        - {}
    name: batch_normalization_94
  - class_name: Activation
    config: {activation: relu, name: activation_86, trainable: true}
    inbound_nodes:
    - - - batch_normalization_86
        - 0
        - 0
        - {}
    name: activation_86
  - class_name: Concatenate
    config: {axis: 3, name: mixed9_1, trainable: true}
    inbound_nodes:
    - - - activation_88
        - 0
        - 0
        - &id019 {}
      - - activation_89
        - 0
        - 0
        - *id019
    name: mixed9_1
  - class_name: Concatenate
    config: {axis: 3, name: concatenate_2, trainable: true}
    inbound_nodes:
    - - - activation_92
        - 0
        - 0
        - &id020 {}
      - - activation_93
        - 0
        - 0
        - *id020
    name: concatenate_2
  - class_name: Activation
    config: {activation: relu, name: activation_94, trainable: true}
    inbound_nodes:
    - - - batch_normalization_94
        - 0
        - 0
        - {}
    name: activation_94
  - class_name: Concatenate
    config: {axis: 3, name: mixed10, trainable: true}
    inbound_nodes:
    - - - activation_86
        - 0
        - 0
        - &id021 {}
      - - mixed9_1
        - 0
        - 0
        - *id021
      - - concatenate_2
        - 0
        - 0
        - *id021
      - - activation_94
        - 0
        - 0
        - *id021
    name: mixed10
  name: inception_v3
  output_layers:
  - [mixed10, 0, 0]
keras_version: 2.2.4
