backend: tensorflow
class_name: Model
config:
  input_layers:
  - [input_12, 0, 0]
  layers:
  - class_name: InputLayer
    config:
      batch_input_shape: !!python/tuple [null, null, null, 3]
      dtype: float32
      name: input_12
      sparse: false
    inbound_nodes: []
    name: input_12
  - class_name: Conv2D
    config:
      activation: linear
      activity_regularizer: null
      bias_constraint: null
      bias_initializer:
        class_name: Zeros
        config: {}
      bias_regularizer: null
      data_format: channels_last
      dilation_rate: &id001 !!python/tuple [1, 1]
      filters: 32
      kernel_constraint: null
      kernel_initializer:
        class_name: VarianceScaling
        config: {distribution: uniform, mode: fan_avg, scale: 1.0, seed: null}
      kernel_regularizer: null
      kernel_size: !!python/tuple [3, 3]
      name: conv2d_298
      padding: valid
      strides: !!python/tuple [2, 2]
      trainable: true
      use_bias: false
    inbound_nodes:
    - - - input_12
        - 0
        - 0
        - {}
    name: conv2d_298
  - class_name: BatchNormalization
    config:
      axis: 3
      beta_constraint: null
      beta_initializer:
        class_name: Zeros
        config: {}
      beta_regularizer: null
      center: true
      epsilon: 0.001
      gamma_constraint: null
      gamma_initializer:
        class_name: Ones
        config: {}
      gamma_regularizer: null
      momentum: 0.99
      moving_mean_initializer:
        class_name: Zeros
        config: {}
      moving_variance_initializer:
        class_name: Ones
        config: {}
      name: batch_normalization_298
      scale: false
      trainable: true
    inbound_nodes:
    - - - conv2d_298
        - 0
        - 0
        - {}
    name: batch_normalization_298
  - class_name: Activation
    config: {activation: relu, name: activation_485, trainable: true}
    inbound_nodes:
    - - - batch_normalization_298
        - 0
        - 0
        - {}
    name: activation_485
  - class_name: Conv2D
    config:
      activation: linear
      activity_regularizer: null
      bias_constraint: null
      bias_initializer:
        class_name: Zeros
        config: {}
      bias_regularizer: null
      data_format: channels_last
      dilation_rate: *id001
      filters: 32
      kernel_constraint: null
      kernel_initializer:
        class_name: VarianceScaling
        config: {distribution: uniform, mode: fan_avg, scale: 1.0, seed: null}
      kernel_regularizer: null
      kernel_size: !!python/tuple [3, 3]
      name: conv2d_299
      padding: valid
      strides: !!python/tuple [1, 1]
      trainable: true
      use_bias: false
    inbound_nodes:
    - - - activation_485
        - 0
        - 0
        - {}
    name: conv2d_299
  - class_name: BatchNormalization
    config:
      axis: 3
      beta_constraint: null
      beta_initializer:
        class_name: Zeros
        config: {}
      beta_regularizer: null
      center: true
      epsilon: 0.001
      gamma_constraint: null
      gamma_initializer:
        class_name: Ones
        config: {}
      gamma_regularizer: null
      momentum: 0.99
      moving_mean_initializer:
        class_name: Zeros
        config: {}
      moving_variance_initializer:
        class_name: Ones
        config: {}
      name: batch_normalization_299
      scale: false
      trainable: true
    inbound_nodes:
    - - - conv2d_299
        - 0
        - 0
        - {}
    name: batch_normalization_299
  - class_name: Activation
    config: {activation: relu, name: activation_486, trainable: true}
    inbound_nodes:
    - - - batch_normalization_299
        - 0
        - 0
        - {}
    name: activation_486
  - class_name: Conv2D
    config:
      activation: linear
      activity_regularizer: null
      bias_constraint: null
      bias_initializer:
        class_name: Zeros
        config: {}
      bias_regularizer: null
      data_format: channels_last
      dilation_rate: *id001
      filters: 64
      kernel_constraint: null
      kernel_initializer:
        class_name: VarianceScaling
        config: {distribution: uniform, mode: fan_avg, scale: 1.0, seed: null}
      kernel_regularizer: null
      kernel_size: !!python/tuple [3, 3]
      name: conv2d_300
      padding: same
      strides: !!python/tuple [1, 1]
      trainable: true
      use_bias: false
    inbound_nodes:
    - - - activation_486
        - 0
        - 0
        - {}
    name: conv2d_300
  - class_name: BatchNormalization
    config:
      axis: 3
      beta_constraint: null
      beta_initializer:
        class_name: Zeros
        config: {}
      beta_regularizer: null
      center: true
      epsilon: 0.001
      gamma_constraint: null
      gamma_initializer:
        class_name: Ones
        config: {}
      gamma_regularizer: null
      momentum: 0.99
      moving_mean_initializer:
        class_name: Zeros
        config: {}
      moving_variance_initializer:
        class_name: Ones
        config: {}
      name: batch_normalization_300
      scale: false
      trainable: true
    inbound_nodes:
    - - - conv2d_300
        - 0
        - 0
        - {}
    name: batch_normalization_300
  - class_name: Activation
    config: {activation: relu, name: activation_487, trainable: true}
    inbound_nodes:
    - - - batch_normalization_300
        - 0
        - 0
        - {}
    name: activation_487
  - class_name: MaxPooling2D
    config:
      data_format: channels_last
      name: max_pooling2d_9
      padding: valid
      pool_size: !!python/tuple [3, 3]
      strides: !!python/tuple [2, 2]
      trainable: true
    inbound_nodes:
    - - - activation_487
        - 0
        - 0
        - {}
    name: max_pooling2d_9
  - class_name: Conv2D
    config:
      activation: linear
      activity_regularizer: null
      bias_constraint: null
      bias_initializer:
        class_name: Zeros
        config: {}
      bias_regularizer: null
      data_format: channels_last
      dilation_rate: *id001
      filters: 80
      kernel_constraint: null
      kernel_initializer:
        class_name: VarianceScaling
        config: {distribution: uniform, mode: fan_avg, scale: 1.0, seed: null}
      kernel_regularizer: null
      kernel_size: !!python/tuple [1, 1]
      name: conv2d_301
      padding: valid
      strides: !!python/tuple [1, 1]
      trainable: true
      use_bias: false
    inbound_nodes:
    - - - max_pooling2d_9
        - 0
        - 0
        - {}
    name: conv2d_301
  - class_name: BatchNormalization
    config:
      axis: 3
      beta_constraint: null
      beta_initializer:
        class_name: Zeros
        config: {}
      beta_regularizer: null
      center: true
      epsilon: 0.001
      gamma_constraint: null
      gamma_initializer:
        class_name: Ones
        config: {}
      gamma_regularizer: null
      momentum: 0.99
      moving_mean_initializer:
        class_name: Zeros
        config: {}
      moving_variance_initializer:
        class_name: Ones
        config: {}
      name: batch_normalization_301
      scale: false
      trainable: true
    inbound_nodes:
    - - - conv2d_301
        - 0
        - 0
        - {}
    name: batch_normalization_301
  - class_name: Activation
    config: {activation: relu, name: activation_488, trainable: true}
    inbound_nodes:
    - - - batch_normalization_301
        - 0
        - 0
        - {}
    name: activation_488
  - class_name: Conv2D
    config:
      activation: linear
      activity_regularizer: null
      bias_constraint: null
      bias_initializer:
        class_name: Zeros
        config: {}
      bias_regularizer: null
      data_format: channels_last
      dilation_rate: *id001
      filters: 192
      kernel_constraint: null
      kernel_initializer:
        class_name: VarianceScaling
        config: {distribution: uniform, mode: fan_avg, scale: 1.0, seed: null}
      kernel_regularizer: null
      kernel_size: !!python/tuple [3, 3]
      name: conv2d_302
      padding: valid
      strides: !!python/tuple [1, 1]
      trainable: true
      use_bias: false
    inbound_nodes:
    - - - activation_488
        - 0
        - 0
        - {}
    name: conv2d_302
  - class_name: BatchNormalization
    config:
      axis: 3
      beta_constraint: null
      beta_initializer:
        class_name: Zeros
        config: {}
      beta_regularizer: null
      center: true
      epsilon: 0.001
      gamma_constraint: null
      gamma_initializer:
        class_name: Ones
        config: {}
      gamma_regularizer: null
      momentum: 0.99
      moving_mean_initializer:
        class_name: Zeros
        config: {}
      moving_variance_initializer:
        class_name: Ones
        config: {}
      name: batch_normalization_302
      scale: false
      trainable: true
    inbound_nodes:
    - - - conv2d_302
        - 0
        - 0
        - {}
    name: batch_normalization_302
  - class_name: Activation
    config: {activation: relu, name: activation_489, trainable: true}
    inbound_nodes:
    - - - batch_normalization_302
        - 0
        - 0
        - {}
    name: activation_489
  - class_name: MaxPooling2D
    config:
      data_format: channels_last
      name: max_pooling2d_10
      padding: valid
      pool_size: !!python/tuple [3, 3]
      strides: !!python/tuple [2, 2]
      trainable: true
    inbound_nodes:
    - - - activation_489
        - 0
        - 0
        - {}
    name: max_pooling2d_10
  - class_name: Conv2D
    config:
      activation: linear
      activity_regularizer: null
      bias_constraint: null
      bias_initializer:
        class_name: Zeros
        config: {}
      bias_regularizer: null
      data_format: channels_last
      dilation_rate: *id001
      filters: 64
      kernel_constraint: null
      kernel_initializer:
        class_name: VarianceScaling
        config: {distribution: uniform, mode: fan_avg, scale: 1.0, seed: null}
      kernel_regularizer: null
      kernel_size: !!python/tuple [1, 1]
      name: conv2d_306
      padding: same
      strides: !!python/tuple [1, 1]
      trainable: true
      use_bias: false
    inbound_nodes:
    - - - max_pooling2d_10
        - 0
        - 0
        - {}
    name: conv2d_306
  - class_name: BatchNormalization
    config:
      axis: 3
      beta_constraint: null
      beta_initializer:
        class_name: Zeros
        config: {}
      beta_regularizer: null
      center: true
      epsilon: 0.001
      gamma_constraint: null
      gamma_initializer:
        class_name: Ones
        config: {}
      gamma_regularizer: null
      momentum: 0.99
      moving_mean_initializer:
        class_name: Zeros
        config: {}
      moving_variance_initializer:
        class_name: Ones
        config: {}
      name: batch_normalization_306
      scale: false
      trainable: true
    inbound_nodes:
    - - - conv2d_306
        - 0
        - 0
        - {}
    name: batch_normalization_306
  - class_name: Activation
    config: {activation: relu, name: activation_493, trainable: true}
    inbound_nodes:
    - - - batch_normalization_306
        - 0
        - 0
        - {}
    name: activation_493
  - class_name: Conv2D
    config:
      activation: linear
      activity_regularizer: null
      bias_constraint: null
      bias_initializer:
        class_name: Zeros
        config: {}
      bias_regularizer: null
      data_format: channels_last
      dilation_rate: *id001
      filters: 48
      kernel_constraint: null
      kernel_initializer:
        class_name: VarianceScaling
        config: {distribution: uniform, mode: fan_avg, scale: 1.0, seed: null}
      kernel_regularizer: null
      kernel_size: !!python/tuple [1, 1]
      name: conv2d_304
      padding: same
      strides: !!python/tuple [1, 1]
      trainable: true
      use_bias: false
    inbound_nodes:
    - - - max_pooling2d_10
        - 0
        - 0
        - {}
    name: conv2d_304
  - class_name: Conv2D
    config:
      activation: linear
      activity_regularizer: null
      bias_constraint: null
      bias_initializer:
        class_name: Zeros
        config: {}
      bias_regularizer: null
      data_format: channels_last
      dilation_rate: *id001
      filters: 96
      kernel_constraint: null
      kernel_initializer:
        class_name: VarianceScaling
        config: {distribution: uniform, mode: fan_avg, scale: 1.0, seed: null}
      kernel_regularizer: null
      kernel_size: !!python/tuple [3, 3]
      name: conv2d_307
      padding: same
      strides: !!python/tuple [1, 1]
      trainable: true
      use_bias: false
    inbound_nodes:
    - - - activation_493
        - 0
        - 0
        - {}
    name: conv2d_307
  - class_name: BatchNormalization
    config:
      axis: 3
      beta_constraint: null
      beta_initializer:
        class_name: Zeros
        config: {}
      beta_regularizer: null
      center: true
      epsilon: 0.001
      gamma_constraint: null
      gamma_initializer:
        class_name: Ones
        config: {}
      gamma_regularizer: null
      momentum: 0.99
      moving_mean_initializer:
        class_name: Zeros
        config: {}
      moving_variance_initializer:
        class_name: Ones
        config: {}
      name: batch_normalization_304
      scale: false
      trainable: true
    inbound_nodes:
    - - - conv2d_304
        - 0
        - 0
        - {}
    name: batch_normalization_304
  - class_name: BatchNormalization
    config:
      axis: 3
      beta_constraint: null
      beta_initializer:
        class_name: Zeros
        config: {}
      beta_regularizer: null
      center: true
      epsilon: 0.001
      gamma_constraint: null
      gamma_initializer:
        class_name: Ones
        config: {}
      gamma_regularizer: null
      momentum: 0.99
      moving_mean_initializer:
        class_name: Zeros
        config: {}
      moving_variance_initializer:
        class_name: Ones
        config: {}
      name: batch_normalization_307
      scale: false
      trainable: true
    inbound_nodes:
    - - - conv2d_307
        - 0
        - 0
        - {}
    name: batch_normalization_307
  - class_name: Activation
    config: {activation: relu, name: activation_491, trainable: true}
    inbound_nodes:
    - - - batch_normalization_304
        - 0
        - 0
        - {}
    name: activation_491
  - class_name: Activation
    config: {activation: relu, name: activation_494, trainable: true}
    inbound_nodes:
    - - - batch_normalization_307
        - 0
        - 0
        - {}
    name: activation_494
  - class_name: AveragePooling2D
    config:
      data_format: channels_last
      name: average_pooling2d_11
      padding: same
      pool_size: !!python/tuple [3, 3]
      strides: !!python/tuple [1, 1]
      trainable: true
    inbound_nodes:
    - - - max_pooling2d_10
        - 0
        - 0
        - {}
    name: average_pooling2d_11
  - class_name: Conv2D
    config:
      activation: linear
      activity_regularizer: null
      bias_constraint: null
      bias_initializer:
        class_name: Zeros
        config: {}
      bias_regularizer: null
      data_format: channels_last
      dilation_rate: *id001
      filters: 96
      kernel_constraint: null
      kernel_initializer:
        class_name: VarianceScaling
        config: {distribution: uniform, mode: fan_avg, scale: 1.0, seed: null}
      kernel_regularizer: null
      kernel_size: !!python/tuple [1, 1]
      name: conv2d_303
      padding: same
      strides: !!python/tuple [1, 1]
      trainable: true
      use_bias: false
    inbound_nodes:
    - - - max_pooling2d_10
        - 0
        - 0
        - {}
    name: conv2d_303
  - class_name: Conv2D
    config:
      activation: linear
      activity_regularizer: null
      bias_constraint: null
      bias_initializer:
        class_name: Zeros
        config: {}
      bias_regularizer: null
      data_format: channels_last
      dilation_rate: *id001
      filters: 64
      kernel_constraint: null
      kernel_initializer:
        class_name: VarianceScaling
        config: {distribution: uniform, mode: fan_avg, scale: 1.0, seed: null}
      kernel_regularizer: null
      kernel_size: !!python/tuple [5, 5]
      name: conv2d_305
      padding: same
      strides: !!python/tuple [1, 1]
      trainable: true
      use_bias: false
    inbound_nodes:
    - - - activation_491
        - 0
        - 0
        - {}
    name: conv2d_305
  - class_name: Conv2D
    config:
      activation: linear
      activity_regularizer: null
      bias_constraint: null
      bias_initializer:
        class_name: Zeros
        config: {}
      bias_regularizer: null
      data_format: channels_last
      dilation_rate: *id001
      filters: 96
      kernel_constraint: null
      kernel_initializer:
        class_name: VarianceScaling
        config: {distribution: uniform, mode: fan_avg, scale: 1.0, seed: null}
      kernel_regularizer: null
      kernel_size: !!python/tuple [3, 3]
      name: conv2d_308
      padding: same
      strides: !!python/tuple [1, 1]
      trainable: true
      use_bias: false
    inbound_nodes:
    - - - activation_494
        - 0
        - 0
        - {}
    name: conv2d_308
  - class_name: Conv2D
    config:
      activation: linear
      activity_regularizer: null
      bias_constraint: null
      bias_initializer:
        class_name: Zeros
        config: {}
      bias_regularizer: null
      data_format: channels_last
      dilation_rate: *id001
      filters: 64
      kernel_constraint: null
      kernel_initializer:
        class_name: VarianceScaling
        config: {distribution: uniform, mode: fan_avg, scale: 1.0, seed: null}
      kernel_regularizer: null
      kernel_size: !!python/tuple [1, 1]
      name: conv2d_309
      padding: same
      strides: !!python/tuple [1, 1]
      trainable: true
      use_bias: false
    inbound_nodes:
    - - - average_pooling2d_11
        - 0
        - 0
        - {}
    name: conv2d_309
  - class_name: BatchNormalization
    config:
      axis: 3
      beta_constraint: null
      beta_initializer:
        class_name: Zeros
        config: {}
      beta_regularizer: null
      center: true
      epsilon: 0.001
      gamma_constraint: null
      gamma_initializer:
        class_name: Ones
        config: {}
      gamma_regularizer: null
      momentum: 0.99
      moving_mean_initializer:
        class_name: Zeros
        config: {}
      moving_variance_initializer:
        class_name: Ones
        config: {}
      name: batch_normalization_303
      scale: false
      trainable: true
    inbound_nodes:
    - - - conv2d_303
        - 0
        - 0
        - {}
    name: batch_normalization_303
  - class_name: BatchNormalization
    config:
      axis: 3
      beta_constraint: null
      beta_initializer:
        class_name: Zeros
        config: {}
      beta_regularizer: null
      center: true
      epsilon: 0.001
      gamma_constraint: null
      gamma_initializer:
        class_name: Ones
        config: {}
      gamma_regularizer: null
      momentum: 0.99
      moving_mean_initializer:
        class_name: Zeros
        config: {}
      moving_variance_initializer:
        class_name: Ones
        config: {}
      name: batch_normalization_305
      scale: false
      trainable: true
    inbound_nodes:
    - - - conv2d_305
        - 0
        - 0
        - {}
    name: batch_normalization_305
  - class_name: BatchNormalization
    config:
      axis: 3
      beta_constraint: null
      beta_initializer:
        class_name: Zeros
        config: {}
      beta_regularizer: null
      center: true
      epsilon: 0.001
      gamma_constraint: null
      gamma_initializer:
        class_name: Ones
        config: {}
      gamma_regularizer: null
      momentum: 0.99
      moving_mean_initializer:
        class_name: Zeros
        config: {}
      moving_variance_initializer:
        class_name: Ones
        config: {}
      name: batch_normalization_308
      scale: false
      trainable: true
    inbound_nodes:
    - - - conv2d_308
        - 0
        - 0
        - {}
    name: batch_normalization_308
  - class_name: BatchNormalization
    config:
      axis: 3
      beta_constraint: null
      beta_initializer:
        class_name: Zeros
        config: {}
      beta_regularizer: null
      center: true
      epsilon: 0.001
      gamma_constraint: null
      gamma_initializer:
        class_name: Ones
        config: {}
      gamma_regularizer: null
      momentum: 0.99
      moving_mean_initializer:
        class_name: Zeros
        config: {}
      moving_variance_initializer:
        class_name: Ones
        config: {}
      name: batch_normalization_309
      scale: false
      trainable: true
    inbound_nodes:
    - - - conv2d_309
        - 0
        - 0
        - {}
    name: batch_normalization_309
  - class_name: Activation
    config: {activation: relu, name: activation_490, trainable: true}
    inbound_nodes:
    - - - batch_normalization_303
        - 0
        - 0
        - {}
    name: activation_490
  - class_name: Activation
    config: {activation: relu, name: activation_492, trainable: true}
    inbound_nodes:
    - - - batch_normalization_305
        - 0
        - 0
        - {}
    name: activation_492
  - class_name: Activation
    config: {activation: relu, name: activation_495, trainable: true}
    inbound_nodes:
    - - - batch_normalization_308
        - 0
        - 0
        - {}
    name: activation_495
  - class_name: Activation
    config: {activation: relu, name: activation_496, trainable: true}
    inbound_nodes:
    - - - batch_normalization_309
        - 0
        - 0
        - {}
    name: activation_496
  - class_name: Concatenate
    config: {axis: 3, name: mixed_5b, trainable: true}
    inbound_nodes:
    - - - activation_490
        - 0
        - 0
        - &id002 {}
      - - activation_492
        - 0
        - 0
        - *id002
      - - activation_495
        - 0
        - 0
        - *id002
      - - activation_496
        - 0
        - 0
        - *id002
    name: mixed_5b
  - class_name: Conv2D
    config:
      activation: linear
      activity_regularizer: null
      bias_constraint: null
      bias_initializer:
        class_name: Zeros
        config: {}
      bias_regularizer: null
      data_format: channels_last
      dilation_rate: *id001
      filters: 32
      kernel_constraint: null
      kernel_initializer:
        class_name: VarianceScaling
        config: {distribution: uniform, mode: fan_avg, scale: 1.0, seed: null}
      kernel_regularizer: null
      kernel_size: !!python/tuple [1, 1]
      name: conv2d_313
      padding: same
      strides: !!python/tuple [1, 1]
      trainable: true
      use_bias: false
    inbound_nodes:
    - - - mixed_5b
        - 0
        - 0
        - {}
    name: conv2d_313
  - class_name: BatchNormalization
    config:
      axis: 3
      beta_constraint: null
      beta_initializer:
        class_name: Zeros
        config: {}
      beta_regularizer: null
      center: true
      epsilon: 0.001
      gamma_constraint: null
      gamma_initializer:
        class_name: Ones
        config: {}
      gamma_regularizer: null
      momentum: 0.99
      moving_mean_initializer:
        class_name: Zeros
        config: {}
      moving_variance_initializer:
        class_name: Ones
        config: {}
      name: batch_normalization_313
      scale: false
      trainable: true
    inbound_nodes:
    - - - conv2d_313
        - 0
        - 0
        - {}
    name: batch_normalization_313
  - class_name: Activation
    config: {activation: relu, name: activation_500, trainable: true}
    inbound_nodes:
    - - - batch_normalization_313
        - 0
        - 0
        - {}
    name: activation_500
  - class_name: Conv2D
    config:
      activation: linear
      activity_regularizer: null
      bias_constraint: null
      bias_initializer:
        class_name: Zeros
        config: {}
      bias_regularizer: null
      data_format: channels_last
      dilation_rate: *id001
      filters: 32
      kernel_constraint: null
      kernel_initializer:
        class_name: VarianceScaling
        config: {distribution: uniform, mode: fan_avg, scale: 1.0, seed: null}
      kernel_regularizer: null
      kernel_size: !!python/tuple [1, 1]
      name: conv2d_311
      padding: same
      strides: !!python/tuple [1, 1]
      trainable: true
      use_bias: false
    inbound_nodes:
    - - - mixed_5b
        - 0
        - 0
        - {}
    name: conv2d_311
  - class_name: Conv2D
    config:
      activation: linear
      activity_regularizer: null
      bias_constraint: null
      bias_initializer:
        class_name: Zeros
        config: {}
      bias_regularizer: null
      data_format: channels_last
      dilation_rate: *id001
      filters: 48
      kernel_constraint: null
      kernel_initializer:
        class_name: VarianceScaling
        config: {distribution: uniform, mode: fan_avg, scale: 1.0, seed: null}
      kernel_regularizer: null
      kernel_size: !!python/tuple [3, 3]
      name: conv2d_314
      padding: same
      strides: !!python/tuple [1, 1]
      trainable: true
      use_bias: false
    inbound_nodes:
    - - - activation_500
        - 0
        - 0
        - {}
    name: conv2d_314
  - class_name: BatchNormalization
    config:
      axis: 3
      beta_constraint: null
      beta_initializer:
        class_name: Zeros
        config: {}
      beta_regularizer: null
      center: true
      epsilon: 0.001
      gamma_constraint: null
      gamma_initializer:
        class_name: Ones
        config: {}
      gamma_regularizer: null
      momentum: 0.99
      moving_mean_initializer:
        class_name: Zeros
        config: {}
      moving_variance_initializer:
        class_name: Ones
        config: {}
      name: batch_normalization_311
      scale: false
      trainable: true
    inbound_nodes:
    - - - conv2d_311
        - 0
        - 0
        - {}
    name: batch_normalization_311
  - class_name: BatchNormalization
    config:
      axis: 3
      beta_constraint: null
      beta_initializer:
        class_name: Zeros
        config: {}
      beta_regularizer: null
      center: true
      epsilon: 0.001
      gamma_constraint: null
      gamma_initializer:
        class_name: Ones
        config: {}
      gamma_regularizer: null
      momentum: 0.99
      moving_mean_initializer:
        class_name: Zeros
        config: {}
      moving_variance_initializer:
        class_name: Ones
        config: {}
      name: batch_normalization_314
      scale: false
      trainable: true
    inbound_nodes:
    - - - conv2d_314
        - 0
        - 0
        - {}
    name: batch_normalization_314
  - class_name: Activation
    config: {activation: relu, name: activation_498, trainable: true}
    inbound_nodes:
    - - - batch_normalization_311
        - 0
        - 0
        - {}
    name: activation_498
  - class_name: Activation
    config: {activation: relu, name: activation_501, trainable: true}
    inbound_nodes:
    - - - batch_normalization_314
        - 0
        - 0
        - {}
    name: activation_501
  - class_name: Conv2D
    config:
      activation: linear
      activity_regularizer: null
      bias_constraint: null
      bias_initializer:
        class_name: Zeros
        config: {}
      bias_regularizer: null
      data_format: channels_last
      dilation_rate: *id001
      filters: 32
      kernel_constraint: null
      kernel_initializer:
        class_name: VarianceScaling
        config: {distribution: uniform, mode: fan_avg, scale: 1.0, seed: null}
      kernel_regularizer: null
      kernel_size: !!python/tuple [1, 1]
      name: conv2d_310
      padding: same
      strides: !!python/tuple [1, 1]
      trainable: true
      use_bias: false
    inbound_nodes:
    - - - mixed_5b
        - 0
        - 0
        - {}
    name: conv2d_310
  - class_name: Conv2D
    config:
      activation: linear
      activity_regularizer: null
      bias_constraint: null
      bias_initializer:
        class_name: Zeros
        config: {}
      bias_regularizer: null
      data_format: channels_last
      dilation_rate: *id001
      filters: 32
      kernel_constraint: null
      kernel_initializer:
        class_name: VarianceScaling
        config: {distribution: uniform, mode: fan_avg, scale: 1.0, seed: null}
      kernel_regularizer: null
      kernel_size: !!python/tuple [3, 3]
      name: conv2d_312
      padding: same
      strides: !!python/tuple [1, 1]
      trainable: true
      use_bias: false
    inbound_nodes:
    - - - activation_498
        - 0
        - 0
        - {}
    name: conv2d_312
  - class_name: Conv2D
    config:
      activation: linear
      activity_regularizer: null
      bias_constraint: null
      bias_initializer:
        class_name: Zeros
        config: {}
      bias_regularizer: null
      data_format: channels_last
      dilation_rate: *id001
      filters: 64
      kernel_constraint: null
      kernel_initializer:
        class_name: VarianceScaling
        config: {distribution: uniform, mode: fan_avg, scale: 1.0, seed: null}
      kernel_regularizer: null
      kernel_size: !!python/tuple [3, 3]
      name: conv2d_315
      padding: same
      strides: !!python/tuple [1, 1]
      trainable: true
      use_bias: false
    inbound_nodes:
    - - - activation_501
        - 0
        - 0
        - {}
    name: conv2d_315
  - class_name: BatchNormalization
    config:
      axis: 3
      beta_constraint: null
      beta_initializer:
        class_name: Zeros
        config: {}
      beta_regularizer: null
      center: true
      epsilon: 0.001
      gamma_constraint: null
      gamma_initializer:
        class_name: Ones
        config: {}
      gamma_regularizer: null
      momentum: 0.99
      moving_mean_initializer:
        class_name: Zeros
        config: {}
      moving_variance_initializer:
        class_name: Ones
        config: {}
      name: batch_normalization_310
      scale: false
      trainable: true
    inbound_nodes:
    - - - conv2d_310
        - 0
        - 0
        - {}
    name: batch_normalization_310
  - class_name: BatchNormalization
    config:
      axis: 3
      beta_constraint: null
      beta_initializer:
        class_name: Zeros
        config: {}
      beta_regularizer: null
      center: true
      epsilon: 0.001
      gamma_constraint: null
      gamma_initializer:
        class_name: Ones
        config: {}
      gamma_regularizer: null
      momentum: 0.99
      moving_mean_initializer:
        class_name: Zeros
        config: {}
      moving_variance_initializer:
        class_name: Ones
        config: {}
      name: batch_normalization_312
      scale: false
      trainable: true
    inbound_nodes:
    - - - conv2d_312
        - 0
        - 0
        - {}
    name: batch_normalization_312
  - class_name: BatchNormalization
    config:
      axis: 3
      beta_constraint: null
      beta_initializer:
        class_name: Zeros
        config: {}
      beta_regularizer: null
      center: true
      epsilon: 0.001
      gamma_constraint: null
      gamma_initializer:
        class_name: Ones
        config: {}
      gamma_regularizer: null
      momentum: 0.99
      moving_mean_initializer:
        class_name: Zeros
        config: {}
      moving_variance_initializer:
        class_name: Ones
        config: {}
      name: batch_normalization_315
      scale: false
      trainable: true
    inbound_nodes:
    - - - conv2d_315
        - 0
        - 0
        - {}
    name: batch_normalization_315
  - class_name: Activation
    config: {activation: relu, name: activation_497, trainable: true}
    inbound_nodes:
    - - - batch_normalization_310
        - 0
        - 0
        - {}
    name: activation_497
  - class_name: Activation
    config: {activation: relu, name: activation_499, trainable: true}
    inbound_nodes:
    - - - batch_normalization_312
        - 0
        - 0
        - {}
    name: activation_499
  - class_name: Activation
    config: {activation: relu, name: activation_502, trainable: true}
    inbound_nodes:
    - - - batch_normalization_315
        - 0
        - 0
        - {}
    name: activation_502
  - class_name: Concatenate
    config: {axis: 3, name: block35_1_mixed, trainable: true}
    inbound_nodes:
    - - - activation_497
        - 0
        - 0
        - &id003 {}
      - - activation_499
        - 0
        - 0
        - *id003
      - - activation_502
        - 0
        - 0
        - *id003
    name: block35_1_mixed
  - class_name: Conv2D
    config:
      activation: linear
      activity_regularizer: null
      bias_constraint: null
      bias_initializer:
        class_name: Zeros
        config: {}
      bias_regularizer: null
      data_format: channels_last
      dilation_rate: *id001
      filters: 320
      kernel_constraint: null
      kernel_initializer:
        class_name: VarianceScaling
        config: {distribution: uniform, mode: fan_avg, scale: 1.0, seed: null}
      kernel_regularizer: null
      kernel_size: !!python/tuple [1, 1]
      name: block35_1_conv
      padding: same
      strides: !!python/tuple [1, 1]
      trainable: true
      use_bias: true
    inbound_nodes:
    - - - block35_1_mixed
        - 0
        - 0
        - {}
    name: block35_1_conv
  - class_name: Lambda
    config:
      arguments: {scale: 0.17}
      function: !!python/tuple ['4wIAAAAAAAAAAgAAAAMAAABTAAAAcxQAAAB8AGQBGQB8AGQCGQB8ARQAFwBTACkDTukAAAAA6QEA

          AACpACkC2gZpbnB1dHPaBXNjYWxlcgMAAAByAwAAAPqAL2hvbWUvamFpZGV2ZC9hbmFjb25kYTMv

          bGliL3B5dGhvbjMuNi9zaXRlLXBhY2thZ2VzL0tlcmFzX0FwcGxpY2F0aW9ucy0xLjAuNC1weTMu

          Ni5lZ2cva2VyYXNfYXBwbGljYXRpb25zL2luY2VwdGlvbl9yZXNuZXRfdjIucHnaCDxsYW1iZGE+

          qgAAAPMAAAAA

          ', null, null]
      function_type: lambda
      name: block35_1
      output_shape: !!python/tuple [null, null, 320]
      output_shape_type: raw
      trainable: true
    inbound_nodes:
    - - - mixed_5b
        - 0
        - 0
        - &id004 {}
      - - block35_1_conv
        - 0
        - 0
        - *id004
    name: block35_1
  - class_name: Activation
    config: {activation: relu, name: block35_1_ac, trainable: true}
    inbound_nodes:
    - - - block35_1
        - 0
        - 0
        - {}
    name: block35_1_ac
  - class_name: Conv2D
    config:
      activation: linear
      activity_regularizer: null
      bias_constraint: null
      bias_initializer:
        class_name: Zeros
        config: {}
      bias_regularizer: null
      data_format: channels_last
      dilation_rate: *id001
      filters: 32
      kernel_constraint: null
      kernel_initializer:
        class_name: VarianceScaling
        config: {distribution: uniform, mode: fan_avg, scale: 1.0, seed: null}
      kernel_regularizer: null
      kernel_size: !!python/tuple [1, 1]
      name: conv2d_319
      padding: same
      strides: !!python/tuple [1, 1]
      trainable: true
      use_bias: false
    inbound_nodes:
    - - - block35_1_ac
        - 0
        - 0
        - {}
    name: conv2d_319
  - class_name: BatchNormalization
    config:
      axis: 3
      beta_constraint: null
      beta_initializer:
        class_name: Zeros
        config: {}
      beta_regularizer: null
      center: true
      epsilon: 0.001
      gamma_constraint: null
      gamma_initializer:
        class_name: Ones
        config: {}
      gamma_regularizer: null
      momentum: 0.99
      moving_mean_initializer:
        class_name: Zeros
        config: {}
      moving_variance_initializer:
        class_name: Ones
        config: {}
      name: batch_normalization_319
      scale: false
      trainable: true
    inbound_nodes:
    - - - conv2d_319
        - 0
        - 0
        - {}
    name: batch_normalization_319
  - class_name: Activation
    config: {activation: relu, name: activation_506, trainable: true}
    inbound_nodes:
    - - - batch_normalization_319
        - 0
        - 0
        - {}
    name: activation_506
  - class_name: Conv2D
    config:
      activation: linear
      activity_regularizer: null
      bias_constraint: null
      bias_initializer:
        class_name: Zeros
        config: {}
      bias_regularizer: null
      data_format: channels_last
      dilation_rate: *id001
      filters: 32
      kernel_constraint: null
      kernel_initializer:
        class_name: VarianceScaling
        config: {distribution: uniform, mode: fan_avg, scale: 1.0, seed: null}
      kernel_regularizer: null
      kernel_size: !!python/tuple [1, 1]
      name: conv2d_317
      padding: same
      strides: !!python/tuple [1, 1]
      trainable: true
      use_bias: false
    inbound_nodes:
    - - - block35_1_ac
        - 0
        - 0
        - {}
    name: conv2d_317
  - class_name: Conv2D
    config:
      activation: linear
      activity_regularizer: null
      bias_constraint: null
      bias_initializer:
        class_name: Zeros
        config: {}
      bias_regularizer: null
      data_format: channels_last
      dilation_rate: *id001
      filters: 48
      kernel_constraint: null
      kernel_initializer:
        class_name: VarianceScaling
        config: {distribution: uniform, mode: fan_avg, scale: 1.0, seed: null}
      kernel_regularizer: null
      kernel_size: !!python/tuple [3, 3]
      name: conv2d_320
      padding: same
      strides: !!python/tuple [1, 1]
      trainable: true
      use_bias: false
    inbound_nodes:
    - - - activation_506
        - 0
        - 0
        - {}
    name: conv2d_320
  - class_name: BatchNormalization
    config:
      axis: 3
      beta_constraint: null
      beta_initializer:
        class_name: Zeros
        config: {}
      beta_regularizer: null
      center: true
      epsilon: 0.001
      gamma_constraint: null
      gamma_initializer:
        class_name: Ones
        config: {}
      gamma_regularizer: null
      momentum: 0.99
      moving_mean_initializer:
        class_name: Zeros
        config: {}
      moving_variance_initializer:
        class_name: Ones
        config: {}
      name: batch_normalization_317
      scale: false
      trainable: true
    inbound_nodes:
    - - - conv2d_317
        - 0
        - 0
        - {}
    name: batch_normalization_317
  - class_name: BatchNormalization
    config:
      axis: 3
      beta_constraint: null
      beta_initializer:
        class_name: Zeros
        config: {}
      beta_regularizer: null
      center: true
      epsilon: 0.001
      gamma_constraint: null
      gamma_initializer:
        class_name: Ones
        config: {}
      gamma_regularizer: null
      momentum: 0.99
      moving_mean_initializer:
        class_name: Zeros
        config: {}
      moving_variance_initializer:
        class_name: Ones
        config: {}
      name: batch_normalization_320
      scale: false
      trainable: true
    inbound_nodes:
    - - - conv2d_320
        - 0
        - 0
        - {}
    name: batch_normalization_320
  - class_name: Activation
    config: {activation: relu, name: activation_504, trainable: true}
    inbound_nodes:
    - - - batch_normalization_317
        - 0
        - 0
        - {}
    name: activation_504
  - class_name: Activation
    config: {activation: relu, name: activation_507, trainable: true}
    inbound_nodes:
    - - - batch_normalization_320
        - 0
        - 0
        - {}
    name: activation_507
  - class_name: Conv2D
    config:
      activation: linear
      activity_regularizer: null
      bias_constraint: null
      bias_initializer:
        class_name: Zeros
        config: {}
      bias_regularizer: null
      data_format: channels_last
      dilation_rate: *id001
      filters: 32
      kernel_constraint: null
      kernel_initializer:
        class_name: VarianceScaling
        config: {distribution: uniform, mode: fan_avg, scale: 1.0, seed: null}
      kernel_regularizer: null
      kernel_size: !!python/tuple [1, 1]
      name: conv2d_316
      padding: same
      strides: !!python/tuple [1, 1]
      trainable: true
      use_bias: false
    inbound_nodes:
    - - - block35_1_ac
        - 0
        - 0
        - {}
    name: conv2d_316
  - class_name: Conv2D
    config:
      activation: linear
      activity_regularizer: null
      bias_constraint: null
      bias_initializer:
        class_name: Zeros
        config: {}
      bias_regularizer: null
      data_format: channels_last
      dilation_rate: *id001
      filters: 32
      kernel_constraint: null
      kernel_initializer:
        class_name: VarianceScaling
        config: {distribution: uniform, mode: fan_avg, scale: 1.0, seed: null}
      kernel_regularizer: null
      kernel_size: !!python/tuple [3, 3]
      name: conv2d_318
      padding: same
      strides: !!python/tuple [1, 1]
      trainable: true
      use_bias: false
    inbound_nodes:
    - - - activation_504
        - 0
        - 0
        - {}
    name: conv2d_318
  - class_name: Conv2D
    config:
      activation: linear
      activity_regularizer: null
      bias_constraint: null
      bias_initializer:
        class_name: Zeros
        config: {}
      bias_regularizer: null
      data_format: channels_last
      dilation_rate: *id001
      filters: 64
      kernel_constraint: null
      kernel_initializer:
        class_name: VarianceScaling
        config: {distribution: uniform, mode: fan_avg, scale: 1.0, seed: null}
      kernel_regularizer: null
      kernel_size: !!python/tuple [3, 3]
      name: conv2d_321
      padding: same
      strides: !!python/tuple [1, 1]
      trainable: true
      use_bias: false
    inbound_nodes:
    - - - activation_507
        - 0
        - 0
        - {}
    name: conv2d_321
  - class_name: BatchNormalization
    config:
      axis: 3
      beta_constraint: null
      beta_initializer:
        class_name: Zeros
        config: {}
      beta_regularizer: null
      center: true
      epsilon: 0.001
      gamma_constraint: null
      gamma_initializer:
        class_name: Ones
        config: {}
      gamma_regularizer: null
      momentum: 0.99
      moving_mean_initializer:
        class_name: Zeros
        config: {}
      moving_variance_initializer:
        class_name: Ones
        config: {}
      name: batch_normalization_316
      scale: false
      trainable: true
    inbound_nodes:
    - - - conv2d_316
        - 0
        - 0
        - {}
    name: batch_normalization_316
  - class_name: BatchNormalization
    config:
      axis: 3
      beta_constraint: null
      beta_initializer:
        class_name: Zeros
        config: {}
      beta_regularizer: null
      center: true
      epsilon: 0.001
      gamma_constraint: null
      gamma_initializer:
        class_name: Ones
        config: {}
      gamma_regularizer: null
      momentum: 0.99
      moving_mean_initializer:
        class_name: Zeros
        config: {}
      moving_variance_initializer:
        class_name: Ones
        config: {}
      name: batch_normalization_318
      scale: false
      trainable: true
    inbound_nodes:
    - - - conv2d_318
        - 0
        - 0
        - {}
    name: batch_normalization_318
  - class_name: BatchNormalization
    config:
      axis: 3
      beta_constraint: null
      beta_initializer:
        class_name: Zeros
        config: {}
      beta_regularizer: null
      center: true
      epsilon: 0.001
      gamma_constraint: null
      gamma_initializer:
        class_name: Ones
        config: {}
      gamma_regularizer: null
      momentum: 0.99
      moving_mean_initializer:
        class_name: Zeros
        config: {}
      moving_variance_initializer:
        class_name: Ones
        config: {}
      name: batch_normalization_321
      scale: false
      trainable: true
    inbound_nodes:
    - - - conv2d_321
        - 0
        - 0
        - {}
    name: batch_normalization_321
  - class_name: Activation
    config: {activation: relu, name: activation_503, trainable: true}
    inbound_nodes:
    - - - batch_normalization_316
        - 0
        - 0
        - {}
    name: activation_503
  - class_name: Activation
    config: {activation: relu, name: activation_505, trainable: true}
    inbound_nodes:
    - - - batch_normalization_318
        - 0
        - 0
        - {}
    name: activation_505
  - class_name: Activation
    config: {activation: relu, name: activation_508, trainable: true}
    inbound_nodes:
    - - - batch_normalization_321
        - 0
        - 0
        - {}
    name: activation_508
  - class_name: Concatenate
    config: {axis: 3, name: block35_2_mixed, trainable: true}
    inbound_nodes:
    - - - activation_503
        - 0
        - 0
        - &id005 {}
      - - activation_505
        - 0
        - 0
        - *id005
      - - activation_508
        - 0
        - 0
        - *id005
    name: block35_2_mixed
  - class_name: Conv2D
    config:
      activation: linear
      activity_regularizer: null
      bias_constraint: null
      bias_initializer:
        class_name: Zeros
        config: {}
      bias_regularizer: null
      data_format: channels_last
      dilation_rate: *id001
      filters: 320
      kernel_constraint: null
      kernel_initializer:
        class_name: VarianceScaling
        config: {distribution: uniform, mode: fan_avg, scale: 1.0, seed: null}
      kernel_regularizer: null
      kernel_size: !!python/tuple [1, 1]
      name: block35_2_conv
      padding: same
      strides: !!python/tuple [1, 1]
      trainable: true
      use_bias: true
    inbound_nodes:
    - - - block35_2_mixed
        - 0
        - 0
        - {}
    name: block35_2_conv
  - class_name: Lambda
    config:
      arguments: {scale: 0.17}
      function: !!python/tuple ['4wIAAAAAAAAAAgAAAAMAAABTAAAAcxQAAAB8AGQBGQB8AGQCGQB8ARQAFwBTACkDTukAAAAA6QEA

          AACpACkC2gZpbnB1dHPaBXNjYWxlcgMAAAByAwAAAPqAL2hvbWUvamFpZGV2ZC9hbmFjb25kYTMv

          bGliL3B5dGhvbjMuNi9zaXRlLXBhY2thZ2VzL0tlcmFzX0FwcGxpY2F0aW9ucy0xLjAuNC1weTMu

          Ni5lZ2cva2VyYXNfYXBwbGljYXRpb25zL2luY2VwdGlvbl9yZXNuZXRfdjIucHnaCDxsYW1iZGE+

          qgAAAPMAAAAA

          ', null, null]
      function_type: lambda
      name: block35_2
      output_shape: !!python/tuple [null, null, 320]
      output_shape_type: raw
      trainable: true
    inbound_nodes:
    - - - block35_1_ac
        - 0
        - 0
        - &id006 {}
      - - block35_2_conv
        - 0
        - 0
        - *id006
    name: block35_2
  - class_name: Activation
    config: {activation: relu, name: block35_2_ac, trainable: true}
    inbound_nodes:
    - - - block35_2
        - 0
        - 0
        - {}
    name: block35_2_ac
  - class_name: Conv2D
    config:
      activation: linear
      activity_regularizer: null
      bias_constraint: null
      bias_initializer:
        class_name: Zeros
        config: {}
      bias_regularizer: null
      data_format: channels_last
      dilation_rate: *id001
      filters: 32
      kernel_constraint: null
      kernel_initializer:
        class_name: VarianceScaling
        config: {distribution: uniform, mode: fan_avg, scale: 1.0, seed: null}
      kernel_regularizer: null
      kernel_size: !!python/tuple [1, 1]
      name: conv2d_325
      padding: same
      strides: !!python/tuple [1, 1]
      trainable: true
      use_bias: false
    inbound_nodes:
    - - - block35_2_ac
        - 0
        - 0
        - {}
    name: conv2d_325
  - class_name: BatchNormalization
    config:
      axis: 3
      beta_constraint: null
      beta_initializer:
        class_name: Zeros
        config: {}
      beta_regularizer: null
      center: true
      epsilon: 0.001
      gamma_constraint: null
      gamma_initializer:
        class_name: Ones
        config: {}
      gamma_regularizer: null
      momentum: 0.99
      moving_mean_initializer:
        class_name: Zeros
        config: {}
      moving_variance_initializer:
        class_name: Ones
        config: {}
      name: batch_normalization_325
      scale: false
      trainable: true
    inbound_nodes:
    - - - conv2d_325
        - 0
        - 0
        - {}
    name: batch_normalization_325
  - class_name: Activation
    config: {activation: relu, name: activation_512, trainable: true}
    inbound_nodes:
    - - - batch_normalization_325
        - 0
        - 0
        - {}
    name: activation_512
  - class_name: Conv2D
    config:
      activation: linear
      activity_regularizer: null
      bias_constraint: null
      bias_initializer:
        class_name: Zeros
        config: {}
      bias_regularizer: null
      data_format: channels_last
      dilation_rate: *id001
      filters: 32
      kernel_constraint: null
      kernel_initializer:
        class_name: VarianceScaling
        config: {distribution: uniform, mode: fan_avg, scale: 1.0, seed: null}
      kernel_regularizer: null
      kernel_size: !!python/tuple [1, 1]
      name: conv2d_323
      padding: same
      strides: !!python/tuple [1, 1]
      trainable: true
      use_bias: false
    inbound_nodes:
    - - - block35_2_ac
        - 0
        - 0
        - {}
    name: conv2d_323
  - class_name: Conv2D
    config:
      activation: linear
      activity_regularizer: null
      bias_constraint: null
      bias_initializer:
        class_name: Zeros
        config: {}
      bias_regularizer: null
      data_format: channels_last
      dilation_rate: *id001
      filters: 48
      kernel_constraint: null
      kernel_initializer:
        class_name: VarianceScaling
        config: {distribution: uniform, mode: fan_avg, scale: 1.0, seed: null}
      kernel_regularizer: null
      kernel_size: !!python/tuple [3, 3]
      name: conv2d_326
      padding: same
      strides: !!python/tuple [1, 1]
      trainable: true
      use_bias: false
    inbound_nodes:
    - - - activation_512
        - 0
        - 0
        - {}
    name: conv2d_326
  - class_name: BatchNormalization
    config:
      axis: 3
      beta_constraint: null
      beta_initializer:
        class_name: Zeros
        config: {}
      beta_regularizer: null
      center: true
      epsilon: 0.001
      gamma_constraint: null
      gamma_initializer:
        class_name: Ones
        config: {}
      gamma_regularizer: null
      momentum: 0.99
      moving_mean_initializer:
        class_name: Zeros
        config: {}
      moving_variance_initializer:
        class_name: Ones
        config: {}
      name: batch_normalization_323
      scale: false
      trainable: true
    inbound_nodes:
    - - - conv2d_323
        - 0
        - 0
        - {}
    name: batch_normalization_323
  - class_name: BatchNormalization
    config:
      axis: 3
      beta_constraint: null
      beta_initializer:
        class_name: Zeros
        config: {}
      beta_regularizer: null
      center: true
      epsilon: 0.001
      gamma_constraint: null
      gamma_initializer:
        class_name: Ones
        config: {}
      gamma_regularizer: null
      momentum: 0.99
      moving_mean_initializer:
        class_name: Zeros
        config: {}
      moving_variance_initializer:
        class_name: Ones
        config: {}
      name: batch_normalization_326
      scale: false
      trainable: true
    inbound_nodes:
    - - - conv2d_326
        - 0
        - 0
        - {}
    name: batch_normalization_326
  - class_name: Activation
    config: {activation: relu, name: activation_510, trainable: true}
    inbound_nodes:
    - - - batch_normalization_323
        - 0
        - 0
        - {}
    name: activation_510
  - class_name: Activation
    config: {activation: relu, name: activation_513, trainable: true}
    inbound_nodes:
    - - - batch_normalization_326
        - 0
        - 0
        - {}
    name: activation_513
  - class_name: Conv2D
    config:
      activation: linear
      activity_regularizer: null
      bias_constraint: null
      bias_initializer:
        class_name: Zeros
        config: {}
      bias_regularizer: null
      data_format: channels_last
      dilation_rate: *id001
      filters: 32
      kernel_constraint: null
      kernel_initializer:
        class_name: VarianceScaling
        config: {distribution: uniform, mode: fan_avg, scale: 1.0, seed: null}
      kernel_regularizer: null
      kernel_size: !!python/tuple [1, 1]
      name: conv2d_322
      padding: same
      strides: !!python/tuple [1, 1]
      trainable: true
      use_bias: false
    inbound_nodes:
    - - - block35_2_ac
        - 0
        - 0
        - {}
    name: conv2d_322
  - class_name: Conv2D
    config:
      activation: linear
      activity_regularizer: null
      bias_constraint: null
      bias_initializer:
        class_name: Zeros
        config: {}
      bias_regularizer: null
      data_format: channels_last
      dilation_rate: *id001
      filters: 32
      kernel_constraint: null
      kernel_initializer:
        class_name: VarianceScaling
        config: {distribution: uniform, mode: fan_avg, scale: 1.0, seed: null}
      kernel_regularizer: null
      kernel_size: !!python/tuple [3, 3]
      name: conv2d_324
      padding: same
      strides: !!python/tuple [1, 1]
      trainable: true
      use_bias: false
    inbound_nodes:
    - - - activation_510
        - 0
        - 0
        - {}
    name: conv2d_324
  - class_name: Conv2D
    config:
      activation: linear
      activity_regularizer: null
      bias_constraint: null
      bias_initializer:
        class_name: Zeros
        config: {}
      bias_regularizer: null
      data_format: channels_last
      dilation_rate: *id001
      filters: 64
      kernel_constraint: null
      kernel_initializer:
        class_name: VarianceScaling
        config: {distribution: uniform, mode: fan_avg, scale: 1.0, seed: null}
      kernel_regularizer: null
      kernel_size: !!python/tuple [3, 3]
      name: conv2d_327
      padding: same
      strides: !!python/tuple [1, 1]
      trainable: true
      use_bias: false
    inbound_nodes:
    - - - activation_513
        - 0
        - 0
        - {}
    name: conv2d_327
  - class_name: BatchNormalization
    config:
      axis: 3
      beta_constraint: null
      beta_initializer:
        class_name: Zeros
        config: {}
      beta_regularizer: null
      center: true
      epsilon: 0.001
      gamma_constraint: null
      gamma_initializer:
        class_name: Ones
        config: {}
      gamma_regularizer: null
      momentum: 0.99
      moving_mean_initializer:
        class_name: Zeros
        config: {}
      moving_variance_initializer:
        class_name: Ones
        config: {}
      name: batch_normalization_322
      scale: false
      trainable: true
    inbound_nodes:
    - - - conv2d_322
        - 0
        - 0
        - {}
    name: batch_normalization_322
  - class_name: BatchNormalization
    config:
      axis: 3
      beta_constraint: null
      beta_initializer:
        class_name: Zeros
        config: {}
      beta_regularizer: null
      center: true
      epsilon: 0.001
      gamma_constraint: null
      gamma_initializer:
        class_name: Ones
        config: {}
      gamma_regularizer: null
      momentum: 0.99
      moving_mean_initializer:
        class_name: Zeros
        config: {}
      moving_variance_initializer:
        class_name: Ones
        config: {}
      name: batch_normalization_324
      scale: false
      trainable: true
    inbound_nodes:
    - - - conv2d_324
        - 0
        - 0
        - {}
    name: batch_normalization_324
  - class_name: BatchNormalization
    config:
      axis: 3
      beta_constraint: null
      beta_initializer:
        class_name: Zeros
        config: {}
      beta_regularizer: null
      center: true
      epsilon: 0.001
      gamma_constraint: null
      gamma_initializer:
        class_name: Ones
        config: {}
      gamma_regularizer: null
      momentum: 0.99
      moving_mean_initializer:
        class_name: Zeros
        config: {}
      moving_variance_initializer:
        class_name: Ones
        config: {}
      name: batch_normalization_327
      scale: false
      trainable: true
    inbound_nodes:
    - - - conv2d_327
        - 0
        - 0
        - {}
    name: batch_normalization_327
  - class_name: Activation
    config: {activation: relu, name: activation_509, trainable: true}
    inbound_nodes:
    - - - batch_normalization_322
        - 0
        - 0
        - {}
    name: activation_509
  - class_name: Activation
    config: {activation: relu, name: activation_511, trainable: true}
    inbound_nodes:
    - - - batch_normalization_324
        - 0
        - 0
        - {}
    name: activation_511
  - class_name: Activation
    config: {activation: relu, name: activation_514, trainable: true}
    inbound_nodes:
    - - - batch_normalization_327
        - 0
        - 0
        - {}
    name: activation_514
  - class_name: Concatenate
    config: {axis: 3, name: block35_3_mixed, trainable: true}
    inbound_nodes:
    - - - activation_509
        - 0
        - 0
        - &id007 {}
      - - activation_511
        - 0
        - 0
        - *id007
      - - activation_514
        - 0
        - 0
        - *id007
    name: block35_3_mixed
  - class_name: Conv2D
    config:
      activation: linear
      activity_regularizer: null
      bias_constraint: null
      bias_initializer:
        class_name: Zeros
        config: {}
      bias_regularizer: null
      data_format: channels_last
      dilation_rate: *id001
      filters: 320
      kernel_constraint: null
      kernel_initializer:
        class_name: VarianceScaling
        config: {distribution: uniform, mode: fan_avg, scale: 1.0, seed: null}
      kernel_regularizer: null
      kernel_size: !!python/tuple [1, 1]
      name: block35_3_conv
      padding: same
      strides: !!python/tuple [1, 1]
      trainable: true
      use_bias: true
    inbound_nodes:
    - - - block35_3_mixed
        - 0
        - 0
        - {}
    name: block35_3_conv
  - class_name: Lambda
    config:
      arguments: {scale: 0.17}
      function: !!python/tuple ['4wIAAAAAAAAAAgAAAAMAAABTAAAAcxQAAAB8AGQBGQB8AGQCGQB8ARQAFwBTACkDTukAAAAA6QEA

          AACpACkC2gZpbnB1dHPaBXNjYWxlcgMAAAByAwAAAPqAL2hvbWUvamFpZGV2ZC9hbmFjb25kYTMv

          bGliL3B5dGhvbjMuNi9zaXRlLXBhY2thZ2VzL0tlcmFzX0FwcGxpY2F0aW9ucy0xLjAuNC1weTMu

          Ni5lZ2cva2VyYXNfYXBwbGljYXRpb25zL2luY2VwdGlvbl9yZXNuZXRfdjIucHnaCDxsYW1iZGE+

          qgAAAPMAAAAA

          ', null, null]
      function_type: lambda
      name: block35_3
      output_shape: !!python/tuple [null, null, 320]
      output_shape_type: raw
      trainable: true
    inbound_nodes:
    - - - block35_2_ac
        - 0
        - 0
        - &id008 {}
      - - block35_3_conv
        - 0
        - 0
        - *id008
    name: block35_3
  - class_name: Activation
    config: {activation: relu, name: block35_3_ac, trainable: true}
    inbound_nodes:
    - - - block35_3
        - 0
        - 0
        - {}
    name: block35_3_ac
  - class_name: Conv2D
    config:
      activation: linear
      activity_regularizer: null
      bias_constraint: null
      bias_initializer:
        class_name: Zeros
        config: {}
      bias_regularizer: null
      data_format: channels_last
      dilation_rate: *id001
      filters: 32
      kernel_constraint: null
      kernel_initializer:
        class_name: VarianceScaling
        config: {distribution: uniform, mode: fan_avg, scale: 1.0, seed: null}
      kernel_regularizer: null
      kernel_size: !!python/tuple [1, 1]
      name: conv2d_331
      padding: same
      strides: !!python/tuple [1, 1]
      trainable: true
      use_bias: false
    inbound_nodes:
    - - - block35_3_ac
        - 0
        - 0
        - {}
    name: conv2d_331
  - class_name: BatchNormalization
    config:
      axis: 3
      beta_constraint: null
      beta_initializer:
        class_name: Zeros
        config: {}
      beta_regularizer: null
      center: true
      epsilon: 0.001
      gamma_constraint: null
      gamma_initializer:
        class_name: Ones
        config: {}
      gamma_regularizer: null
      momentum: 0.99
      moving_mean_initializer:
        class_name: Zeros
        config: {}
      moving_variance_initializer:
        class_name: Ones
        config: {}
      name: batch_normalization_331
      scale: false
      trainable: true
    inbound_nodes:
    - - - conv2d_331
        - 0
        - 0
        - {}
    name: batch_normalization_331
  - class_name: Activation
    config: {activation: relu, name: activation_518, trainable: true}
    inbound_nodes:
    - - - batch_normalization_331
        - 0
        - 0
        - {}
    name: activation_518
  - class_name: Conv2D
    config:
      activation: linear
      activity_regularizer: null
      bias_constraint: null
      bias_initializer:
        class_name: Zeros
        config: {}
      bias_regularizer: null
      data_format: channels_last
      dilation_rate: *id001
      filters: 32
      kernel_constraint: null
      kernel_initializer:
        class_name: VarianceScaling
        config: {distribution: uniform, mode: fan_avg, scale: 1.0, seed: null}
      kernel_regularizer: null
      kernel_size: !!python/tuple [1, 1]
      name: conv2d_329
      padding: same
      strides: !!python/tuple [1, 1]
      trainable: true
      use_bias: false
    inbound_nodes:
    - - - block35_3_ac
        - 0
        - 0
        - {}
    name: conv2d_329
  - class_name: Conv2D
    config:
      activation: linear
      activity_regularizer: null
      bias_constraint: null
      bias_initializer:
        class_name: Zeros
        config: {}
      bias_regularizer: null
      data_format: channels_last
      dilation_rate: *id001
      filters: 48
      kernel_constraint: null
      kernel_initializer:
        class_name: VarianceScaling
        config: {distribution: uniform, mode: fan_avg, scale: 1.0, seed: null}
      kernel_regularizer: null
      kernel_size: !!python/tuple [3, 3]
      name: conv2d_332
      padding: same
      strides: !!python/tuple [1, 1]
      trainable: true
      use_bias: false
    inbound_nodes:
    - - - activation_518
        - 0
        - 0
        - {}
    name: conv2d_332
  - class_name: BatchNormalization
    config:
      axis: 3
      beta_constraint: null
      beta_initializer:
        class_name: Zeros
        config: {}
      beta_regularizer: null
      center: true
      epsilon: 0.001
      gamma_constraint: null
      gamma_initializer:
        class_name: Ones
        config: {}
      gamma_regularizer: null
      momentum: 0.99
      moving_mean_initializer:
        class_name: Zeros
        config: {}
      moving_variance_initializer:
        class_name: Ones
        config: {}
      name: batch_normalization_329
      scale: false
      trainable: true
    inbound_nodes:
    - - - conv2d_329
        - 0
        - 0
        - {}
    name: batch_normalization_329
  - class_name: BatchNormalization
    config:
      axis: 3
      beta_constraint: null
      beta_initializer:
        class_name: Zeros
        config: {}
      beta_regularizer: null
      center: true
      epsilon: 0.001
      gamma_constraint: null
      gamma_initializer:
        class_name: Ones
        config: {}
      gamma_regularizer: null
      momentum: 0.99
      moving_mean_initializer:
        class_name: Zeros
        config: {}
      moving_variance_initializer:
        class_name: Ones
        config: {}
      name: batch_normalization_332
      scale: false
      trainable: true
    inbound_nodes:
    - - - conv2d_332
        - 0
        - 0
        - {}
    name: batch_normalization_332
  - class_name: Activation
    config: {activation: relu, name: activation_516, trainable: true}
    inbound_nodes:
    - - - batch_normalization_329
        - 0
        - 0
        - {}
    name: activation_516
  - class_name: Activation
    config: {activation: relu, name: activation_519, trainable: true}
    inbound_nodes:
    - - - batch_normalization_332
        - 0
        - 0
        - {}
    name: activation_519
  - class_name: Conv2D
    config:
      activation: linear
      activity_regularizer: null
      bias_constraint: null
      bias_initializer:
        class_name: Zeros
        config: {}
      bias_regularizer: null
      data_format: channels_last
      dilation_rate: *id001
      filters: 32
      kernel_constraint: null
      kernel_initializer:
        class_name: VarianceScaling
        config: {distribution: uniform, mode: fan_avg, scale: 1.0, seed: null}
      kernel_regularizer: null
      kernel_size: !!python/tuple [1, 1]
      name: conv2d_328
      padding: same
      strides: !!python/tuple [1, 1]
      trainable: true
      use_bias: false
    inbound_nodes:
    - - - block35_3_ac
        - 0
        - 0
        - {}
    name: conv2d_328
  - class_name: Conv2D
    config:
      activation: linear
      activity_regularizer: null
      bias_constraint: null
      bias_initializer:
        class_name: Zeros
        config: {}
      bias_regularizer: null
      data_format: channels_last
      dilation_rate: *id001
      filters: 32
      kernel_constraint: null
      kernel_initializer:
        class_name: VarianceScaling
        config: {distribution: uniform, mode: fan_avg, scale: 1.0, seed: null}
      kernel_regularizer: null
      kernel_size: !!python/tuple [3, 3]
      name: conv2d_330
      padding: same
      strides: !!python/tuple [1, 1]
      trainable: true
      use_bias: false
    inbound_nodes:
    - - - activation_516
        - 0
        - 0
        - {}
    name: conv2d_330
  - class_name: Conv2D
    config:
      activation: linear
      activity_regularizer: null
      bias_constraint: null
      bias_initializer:
        class_name: Zeros
        config: {}
      bias_regularizer: null
      data_format: channels_last
      dilation_rate: *id001
      filters: 64
      kernel_constraint: null
      kernel_initializer:
        class_name: VarianceScaling
        config: {distribution: uniform, mode: fan_avg, scale: 1.0, seed: null}
      kernel_regularizer: null
      kernel_size: !!python/tuple [3, 3]
      name: conv2d_333
      padding: same
      strides: !!python/tuple [1, 1]
      trainable: true
      use_bias: false
    inbound_nodes:
    - - - activation_519
        - 0
        - 0
        - {}
    name: conv2d_333
  - class_name: BatchNormalization
    config:
      axis: 3
      beta_constraint: null
      beta_initializer:
        class_name: Zeros
        config: {}
      beta_regularizer: null
      center: true
      epsilon: 0.001
      gamma_constraint: null
      gamma_initializer:
        class_name: Ones
        config: {}
      gamma_regularizer: null
      momentum: 0.99
      moving_mean_initializer:
        class_name: Zeros
        config: {}
      moving_variance_initializer:
        class_name: Ones
        config: {}
      name: batch_normalization_328
      scale: false
      trainable: true
    inbound_nodes:
    - - - conv2d_328
        - 0
        - 0
        - {}
    name: batch_normalization_328
  - class_name: BatchNormalization
    config:
      axis: 3
      beta_constraint: null
      beta_initializer:
        class_name: Zeros
        config: {}
      beta_regularizer: null
      center: true
      epsilon: 0.001
      gamma_constraint: null
      gamma_initializer:
        class_name: Ones
        config: {}
      gamma_regularizer: null
      momentum: 0.99
      moving_mean_initializer:
        class_name: Zeros
        config: {}
      moving_variance_initializer:
        class_name: Ones
        config: {}
      name: batch_normalization_330
      scale: false
      trainable: true
    inbound_nodes:
    - - - conv2d_330
        - 0
        - 0
        - {}
    name: batch_normalization_330
  - class_name: BatchNormalization
    config:
      axis: 3
      beta_constraint: null
      beta_initializer:
        class_name: Zeros
        config: {}
      beta_regularizer: null
      center: true
      epsilon: 0.001
      gamma_constraint: null
      gamma_initializer:
        class_name: Ones
        config: {}
      gamma_regularizer: null
      momentum: 0.99
      moving_mean_initializer:
        class_name: Zeros
        config: {}
      moving_variance_initializer:
        class_name: Ones
        config: {}
      name: batch_normalization_333
      scale: false
      trainable: true
    inbound_nodes:
    - - - conv2d_333
        - 0
        - 0
        - {}
    name: batch_normalization_333
  - class_name: Activation
    config: {activation: relu, name: activation_515, trainable: true}
    inbound_nodes:
    - - - batch_normalization_328
        - 0
        - 0
        - {}
    name: activation_515
  - class_name: Activation
    config: {activation: relu, name: activation_517, trainable: true}
    inbound_nodes:
    - - - batch_normalization_330
        - 0
        - 0
        - {}
    name: activation_517
  - class_name: Activation
    config: {activation: relu, name: activation_520, trainable: true}
    inbound_nodes:
    - - - batch_normalization_333
        - 0
        - 0
        - {}
    name: activation_520
  - class_name: Concatenate
    config: {axis: 3, name: block35_4_mixed, trainable: true}
    inbound_nodes:
    - - - activation_515
        - 0
        - 0
        - &id009 {}
      - - activation_517
        - 0
        - 0
        - *id009
      - - activation_520
        - 0
        - 0
        - *id009
    name: block35_4_mixed
  - class_name: Conv2D
    config:
      activation: linear
      activity_regularizer: null
      bias_constraint: null
      bias_initializer:
        class_name: Zeros
        config: {}
      bias_regularizer: null
      data_format: channels_last
      dilation_rate: *id001
      filters: 320
      kernel_constraint: null
      kernel_initializer:
        class_name: VarianceScaling
        config: {distribution: uniform, mode: fan_avg, scale: 1.0, seed: null}
      kernel_regularizer: null
      kernel_size: !!python/tuple [1, 1]
      name: block35_4_conv
      padding: same
      strides: !!python/tuple [1, 1]
      trainable: true
      use_bias: true
    inbound_nodes:
    - - - block35_4_mixed
        - 0
        - 0
        - {}
    name: block35_4_conv
  - class_name: Lambda
    config:
      arguments: {scale: 0.17}
      function: !!python/tuple ['4wIAAAAAAAAAAgAAAAMAAABTAAAAcxQAAAB8AGQBGQB8AGQCGQB8ARQAFwBTACkDTukAAAAA6QEA

          AACpACkC2gZpbnB1dHPaBXNjYWxlcgMAAAByAwAAAPqAL2hvbWUvamFpZGV2ZC9hbmFjb25kYTMv

          bGliL3B5dGhvbjMuNi9zaXRlLXBhY2thZ2VzL0tlcmFzX0FwcGxpY2F0aW9ucy0xLjAuNC1weTMu

          Ni5lZ2cva2VyYXNfYXBwbGljYXRpb25zL2luY2VwdGlvbl9yZXNuZXRfdjIucHnaCDxsYW1iZGE+

          qgAAAPMAAAAA

          ', null, null]
      function_type: lambda
      name: block35_4
      output_shape: !!python/tuple [null, null, 320]
      output_shape_type: raw
      trainable: true
    inbound_nodes:
    - - - block35_3_ac
        - 0
        - 0
        - &id010 {}
      - - block35_4_conv
        - 0
        - 0
        - *id010
    name: block35_4
  - class_name: Activation
    config: {activation: relu, name: block35_4_ac, trainable: true}
    inbound_nodes:
    - - - block35_4
        - 0
        - 0
        - {}
    name: block35_4_ac
  - class_name: Conv2D
    config:
      activation: linear
      activity_regularizer: null
      bias_constraint: null
      bias_initializer:
        class_name: Zeros
        config: {}
      bias_regularizer: null
      data_format: channels_last
      dilation_rate: *id001
      filters: 32
      kernel_constraint: null
      kernel_initializer:
        class_name: VarianceScaling
        config: {distribution: uniform, mode: fan_avg, scale: 1.0, seed: null}
      kernel_regularizer: null
      kernel_size: !!python/tuple [1, 1]
      name: conv2d_337
      padding: same
      strides: !!python/tuple [1, 1]
      trainable: true
      use_bias: false
    inbound_nodes:
    - - - block35_4_ac
        - 0
        - 0
        - {}
    name: conv2d_337
  - class_name: BatchNormalization
    config:
      axis: 3
      beta_constraint: null
      beta_initializer:
        class_name: Zeros
        config: {}
      beta_regularizer: null
      center: true
      epsilon: 0.001
      gamma_constraint: null
      gamma_initializer:
        class_name: Ones
        config: {}
      gamma_regularizer: null
      momentum: 0.99
      moving_mean_initializer:
        class_name: Zeros
        config: {}
      moving_variance_initializer:
        class_name: Ones
        config: {}
      name: batch_normalization_337
      scale: false
      trainable: true
    inbound_nodes:
    - - - conv2d_337
        - 0
        - 0
        - {}
    name: batch_normalization_337
  - class_name: Activation
    config: {activation: relu, name: activation_524, trainable: true}
    inbound_nodes:
    - - - batch_normalization_337
        - 0
        - 0
        - {}
    name: activation_524
  - class_name: Conv2D
    config:
      activation: linear
      activity_regularizer: null
      bias_constraint: null
      bias_initializer:
        class_name: Zeros
        config: {}
      bias_regularizer: null
      data_format: channels_last
      dilation_rate: *id001
      filters: 32
      kernel_constraint: null
      kernel_initializer:
        class_name: VarianceScaling
        config: {distribution: uniform, mode: fan_avg, scale: 1.0, seed: null}
      kernel_regularizer: null
      kernel_size: !!python/tuple [1, 1]
      name: conv2d_335
      padding: same
      strides: !!python/tuple [1, 1]
      trainable: true
      use_bias: false
    inbound_nodes:
    - - - block35_4_ac
        - 0
        - 0
        - {}
    name: conv2d_335
  - class_name: Conv2D
    config:
      activation: linear
      activity_regularizer: null
      bias_constraint: null
      bias_initializer:
        class_name: Zeros
        config: {}
      bias_regularizer: null
      data_format: channels_last
      dilation_rate: *id001
      filters: 48
      kernel_constraint: null
      kernel_initializer:
        class_name: VarianceScaling
        config: {distribution: uniform, mode: fan_avg, scale: 1.0, seed: null}
      kernel_regularizer: null
      kernel_size: !!python/tuple [3, 3]
      name: conv2d_338
      padding: same
      strides: !!python/tuple [1, 1]
      trainable: true
      use_bias: false
    inbound_nodes:
    - - - activation_524
        - 0
        - 0
        - {}
    name: conv2d_338
  - class_name: BatchNormalization
    config:
      axis: 3
      beta_constraint: null
      beta_initializer:
        class_name: Zeros
        config: {}
      beta_regularizer: null
      center: true
      epsilon: 0.001
      gamma_constraint: null
      gamma_initializer:
        class_name: Ones
        config: {}
      gamma_regularizer: null
      momentum: 0.99
      moving_mean_initializer:
        class_name: Zeros
        config: {}
      moving_variance_initializer:
        class_name: Ones
        config: {}
      name: batch_normalization_335
      scale: false
      trainable: true
    inbound_nodes:
    - - - conv2d_335
        - 0
        - 0
        - {}
    name: batch_normalization_335
  - class_name: BatchNormalization
    config:
      axis: 3
      beta_constraint: null
      beta_initializer:
        class_name: Zeros
        config: {}
      beta_regularizer: null
      center: true
      epsilon: 0.001
      gamma_constraint: null
      gamma_initializer:
        class_name: Ones
        config: {}
      gamma_regularizer: null
      momentum: 0.99
      moving_mean_initializer:
        class_name: Zeros
        config: {}
      moving_variance_initializer:
        class_name: Ones
        config: {}
      name: batch_normalization_338
      scale: false
      trainable: true
    inbound_nodes:
    - - - conv2d_338
        - 0
        - 0
        - {}
    name: batch_normalization_338
  - class_name: Activation
    config: {activation: relu, name: activation_522, trainable: true}
    inbound_nodes:
    - - - batch_normalization_335
        - 0
        - 0
        - {}
    name: activation_522
  - class_name: Activation
    config: {activation: relu, name: activation_525, trainable: true}
    inbound_nodes:
    - - - batch_normalization_338
        - 0
        - 0
        - {}
    name: activation_525
  - class_name: Conv2D
    config:
      activation: linear
      activity_regularizer: null
      bias_constraint: null
      bias_initializer:
        class_name: Zeros
        config: {}
      bias_regularizer: null
      data_format: channels_last
      dilation_rate: *id001
      filters: 32
      kernel_constraint: null
      kernel_initializer:
        class_name: VarianceScaling
        config: {distribution: uniform, mode: fan_avg, scale: 1.0, seed: null}
      kernel_regularizer: null
      kernel_size: !!python/tuple [1, 1]
      name: conv2d_334
      padding: same
      strides: !!python/tuple [1, 1]
      trainable: true
      use_bias: false
    inbound_nodes:
    - - - block35_4_ac
        - 0
        - 0
        - {}
    name: conv2d_334
  - class_name: Conv2D
    config:
      activation: linear
      activity_regularizer: null
      bias_constraint: null
      bias_initializer:
        class_name: Zeros
        config: {}
      bias_regularizer: null
      data_format: channels_last
      dilation_rate: *id001
      filters: 32
      kernel_constraint: null
      kernel_initializer:
        class_name: VarianceScaling
        config: {distribution: uniform, mode: fan_avg, scale: 1.0, seed: null}
      kernel_regularizer: null
      kernel_size: !!python/tuple [3, 3]
      name: conv2d_336
      padding: same
      strides: !!python/tuple [1, 1]
      trainable: true
      use_bias: false
    inbound_nodes:
    - - - activation_522
        - 0
        - 0
        - {}
    name: conv2d_336
  - class_name: Conv2D
    config:
      activation: linear
      activity_regularizer: null
      bias_constraint: null
      bias_initializer:
        class_name: Zeros
        config: {}
      bias_regularizer: null
      data_format: channels_last
      dilation_rate: *id001
      filters: 64
      kernel_constraint: null
      kernel_initializer:
        class_name: VarianceScaling
        config: {distribution: uniform, mode: fan_avg, scale: 1.0, seed: null}
      kernel_regularizer: null
      kernel_size: !!python/tuple [3, 3]
      name: conv2d_339
      padding: same
      strides: !!python/tuple [1, 1]
      trainable: true
      use_bias: false
    inbound_nodes:
    - - - activation_525
        - 0
        - 0
        - {}
    name: conv2d_339
  - class_name: BatchNormalization
    config:
      axis: 3
      beta_constraint: null
      beta_initializer:
        class_name: Zeros
        config: {}
      beta_regularizer: null
      center: true
      epsilon: 0.001
      gamma_constraint: null
      gamma_initializer:
        class_name: Ones
        config: {}
      gamma_regularizer: null
      momentum: 0.99
      moving_mean_initializer:
        class_name: Zeros
        config: {}
      moving_variance_initializer:
        class_name: Ones
        config: {}
      name: batch_normalization_334
      scale: false
      trainable: true
    inbound_nodes:
    - - - conv2d_334
        - 0
        - 0
        - {}
    name: batch_normalization_334
  - class_name: BatchNormalization
    config:
      axis: 3
      beta_constraint: null
      beta_initializer:
        class_name: Zeros
        config: {}
      beta_regularizer: null
      center: true
      epsilon: 0.001
      gamma_constraint: null
      gamma_initializer:
        class_name: Ones
        config: {}
      gamma_regularizer: null
      momentum: 0.99
      moving_mean_initializer:
        class_name: Zeros
        config: {}
      moving_variance_initializer:
        class_name: Ones
        config: {}
      name: batch_normalization_336
      scale: false
      trainable: true
    inbound_nodes:
    - - - conv2d_336
        - 0
        - 0
        - {}
    name: batch_normalization_336
  - class_name: BatchNormalization
    config:
      axis: 3
      beta_constraint: null
      beta_initializer:
        class_name: Zeros
        config: {}
      beta_regularizer: null
      center: true
      epsilon: 0.001
      gamma_constraint: null
      gamma_initializer:
        class_name: Ones
        config: {}
      gamma_regularizer: null
      momentum: 0.99
      moving_mean_initializer:
        class_name: Zeros
        config: {}
      moving_variance_initializer:
        class_name: Ones
        config: {}
      name: batch_normalization_339
      scale: false
      trainable: true
    inbound_nodes:
    - - - conv2d_339
        - 0
        - 0
        - {}
    name: batch_normalization_339
  - class_name: Activation
    config: {activation: relu, name: activation_521, trainable: true}
    inbound_nodes:
    - - - batch_normalization_334
        - 0
        - 0
        - {}
    name: activation_521
  - class_name: Activation
    config: {activation: relu, name: activation_523, trainable: true}
    inbound_nodes:
    - - - batch_normalization_336
        - 0
        - 0
        - {}
    name: activation_523
  - class_name: Activation
    config: {activation: relu, name: activation_526, trainable: true}
    inbound_nodes:
    - - - batch_normalization_339
        - 0
        - 0
        - {}
    name: activation_526
  - class_name: Concatenate
    config: {axis: 3, name: block35_5_mixed, trainable: true}
    inbound_nodes:
    - - - activation_521
        - 0
        - 0
        - &id011 {}
      - - activation_523
        - 0
        - 0
        - *id011
      - - activation_526
        - 0
        - 0
        - *id011
    name: block35_5_mixed
  - class_name: Conv2D
    config:
      activation: linear
      activity_regularizer: null
      bias_constraint: null
      bias_initializer:
        class_name: Zeros
        config: {}
      bias_regularizer: null
      data_format: channels_last
      dilation_rate: *id001
      filters: 320
      kernel_constraint: null
      kernel_initializer:
        class_name: VarianceScaling
        config: {distribution: uniform, mode: fan_avg, scale: 1.0, seed: null}
      kernel_regularizer: null
      kernel_size: !!python/tuple [1, 1]
      name: block35_5_conv
      padding: same
      strides: !!python/tuple [1, 1]
      trainable: true
      use_bias: true
    inbound_nodes:
    - - - block35_5_mixed
        - 0
        - 0
        - {}
    name: block35_5_conv
  - class_name: Lambda
    config:
      arguments: {scale: 0.17}
      function: !!python/tuple ['4wIAAAAAAAAAAgAAAAMAAABTAAAAcxQAAAB8AGQBGQB8AGQCGQB8ARQAFwBTACkDTukAAAAA6QEA

          AACpACkC2gZpbnB1dHPaBXNjYWxlcgMAAAByAwAAAPqAL2hvbWUvamFpZGV2ZC9hbmFjb25kYTMv

          bGliL3B5dGhvbjMuNi9zaXRlLXBhY2thZ2VzL0tlcmFzX0FwcGxpY2F0aW9ucy0xLjAuNC1weTMu

          Ni5lZ2cva2VyYXNfYXBwbGljYXRpb25zL2luY2VwdGlvbl9yZXNuZXRfdjIucHnaCDxsYW1iZGE+

          qgAAAPMAAAAA

          ', null, null]
      function_type: lambda
      name: block35_5
      output_shape: !!python/tuple [null, null, 320]
      output_shape_type: raw
      trainable: true
    inbound_nodes:
    - - - block35_4_ac
        - 0
        - 0
        - &id012 {}
      - - block35_5_conv
        - 0
        - 0
        - *id012
    name: block35_5
  - class_name: Activation
    config: {activation: relu, name: block35_5_ac, trainable: true}
    inbound_nodes:
    - - - block35_5
        - 0
        - 0
        - {}
    name: block35_5_ac
  - class_name: Conv2D
    config:
      activation: linear
      activity_regularizer: null
      bias_constraint: null
      bias_initializer:
        class_name: Zeros
        config: {}
      bias_regularizer: null
      data_format: channels_last
      dilation_rate: *id001
      filters: 32
      kernel_constraint: null
      kernel_initializer:
        class_name: VarianceScaling
        config: {distribution: uniform, mode: fan_avg, scale: 1.0, seed: null}
      kernel_regularizer: null
      kernel_size: !!python/tuple [1, 1]
      name: conv2d_343
      padding: same
      strides: !!python/tuple [1, 1]
      trainable: true
      use_bias: false
    inbound_nodes:
    - - - block35_5_ac
        - 0
        - 0
        - {}
    name: conv2d_343
  - class_name: BatchNormalization
    config:
      axis: 3
      beta_constraint: null
      beta_initializer:
        class_name: Zeros
        config: {}
      beta_regularizer: null
      center: true
      epsilon: 0.001
      gamma_constraint: null
      gamma_initializer:
        class_name: Ones
        config: {}
      gamma_regularizer: null
      momentum: 0.99
      moving_mean_initializer:
        class_name: Zeros
        config: {}
      moving_variance_initializer:
        class_name: Ones
        config: {}
      name: batch_normalization_343
      scale: false
      trainable: true
    inbound_nodes:
    - - - conv2d_343
        - 0
        - 0
        - {}
    name: batch_normalization_343
  - class_name: Activation
    config: {activation: relu, name: activation_530, trainable: true}
    inbound_nodes:
    - - - batch_normalization_343
        - 0
        - 0
        - {}
    name: activation_530
  - class_name: Conv2D
    config:
      activation: linear
      activity_regularizer: null
      bias_constraint: null
      bias_initializer:
        class_name: Zeros
        config: {}
      bias_regularizer: null
      data_format: channels_last
      dilation_rate: *id001
      filters: 32
      kernel_constraint: null
      kernel_initializer:
        class_name: VarianceScaling
        config: {distribution: uniform, mode: fan_avg, scale: 1.0, seed: null}
      kernel_regularizer: null
      kernel_size: !!python/tuple [1, 1]
      name: conv2d_341
      padding: same
      strides: !!python/tuple [1, 1]
      trainable: true
      use_bias: false
    inbound_nodes:
    - - - block35_5_ac
        - 0
        - 0
        - {}
    name: conv2d_341
  - class_name: Conv2D
    config:
      activation: linear
      activity_regularizer: null
      bias_constraint: null
      bias_initializer:
        class_name: Zeros
        config: {}
      bias_regularizer: null
      data_format: channels_last
      dilation_rate: *id001
      filters: 48
      kernel_constraint: null
      kernel_initializer:
        class_name: VarianceScaling
        config: {distribution: uniform, mode: fan_avg, scale: 1.0, seed: null}
      kernel_regularizer: null
      kernel_size: !!python/tuple [3, 3]
      name: conv2d_344
      padding: same
      strides: !!python/tuple [1, 1]
      trainable: true
      use_bias: false
    inbound_nodes:
    - - - activation_530
        - 0
        - 0
        - {}
    name: conv2d_344
  - class_name: BatchNormalization
    config:
      axis: 3
      beta_constraint: null
      beta_initializer:
        class_name: Zeros
        config: {}
      beta_regularizer: null
      center: true
      epsilon: 0.001
      gamma_constraint: null
      gamma_initializer:
        class_name: Ones
        config: {}
      gamma_regularizer: null
      momentum: 0.99
      moving_mean_initializer:
        class_name: Zeros
        config: {}
      moving_variance_initializer:
        class_name: Ones
        config: {}
      name: batch_normalization_341
      scale: false
      trainable: true
    inbound_nodes:
    - - - conv2d_341
        - 0
        - 0
        - {}
    name: batch_normalization_341
  - class_name: BatchNormalization
    config:
      axis: 3
      beta_constraint: null
      beta_initializer:
        class_name: Zeros
        config: {}
      beta_regularizer: null
      center: true
      epsilon: 0.001
      gamma_constraint: null
      gamma_initializer:
        class_name: Ones
        config: {}
      gamma_regularizer: null
      momentum: 0.99
      moving_mean_initializer:
        class_name: Zeros
        config: {}
      moving_variance_initializer:
        class_name: Ones
        config: {}
      name: batch_normalization_344
      scale: false
      trainable: true
    inbound_nodes:
    - - - conv2d_344
        - 0
        - 0
        - {}
    name: batch_normalization_344
  - class_name: Activation
    config: {activation: relu, name: activation_528, trainable: true}
    inbound_nodes:
    - - - batch_normalization_341
        - 0
        - 0
        - {}
    name: activation_528
  - class_name: Activation
    config: {activation: relu, name: activation_531, trainable: true}
    inbound_nodes:
    - - - batch_normalization_344
        - 0
        - 0
        - {}
    name: activation_531
  - class_name: Conv2D
    config:
      activation: linear
      activity_regularizer: null
      bias_constraint: null
      bias_initializer:
        class_name: Zeros
        config: {}
      bias_regularizer: null
      data_format: channels_last
      dilation_rate: *id001
      filters: 32
      kernel_constraint: null
      kernel_initializer:
        class_name: VarianceScaling
        config: {distribution: uniform, mode: fan_avg, scale: 1.0, seed: null}
      kernel_regularizer: null
      kernel_size: !!python/tuple [1, 1]
      name: conv2d_340
      padding: same
      strides: !!python/tuple [1, 1]
      trainable: true
      use_bias: false
    inbound_nodes:
    - - - block35_5_ac
        - 0
        - 0
        - {}
    name: conv2d_340
  - class_name: Conv2D
    config:
      activation: linear
      activity_regularizer: null
      bias_constraint: null
      bias_initializer:
        class_name: Zeros
        config: {}
      bias_regularizer: null
      data_format: channels_last
      dilation_rate: *id001
      filters: 32
      kernel_constraint: null
      kernel_initializer:
        class_name: VarianceScaling
        config: {distribution: uniform, mode: fan_avg, scale: 1.0, seed: null}
      kernel_regularizer: null
      kernel_size: !!python/tuple [3, 3]
      name: conv2d_342
      padding: same
      strides: !!python/tuple [1, 1]
      trainable: true
      use_bias: false
    inbound_nodes:
    - - - activation_528
        - 0
        - 0
        - {}
    name: conv2d_342
  - class_name: Conv2D
    config:
      activation: linear
      activity_regularizer: null
      bias_constraint: null
      bias_initializer:
        class_name: Zeros
        config: {}
      bias_regularizer: null
      data_format: channels_last
      dilation_rate: *id001
      filters: 64
      kernel_constraint: null
      kernel_initializer:
        class_name: VarianceScaling
        config: {distribution: uniform, mode: fan_avg, scale: 1.0, seed: null}
      kernel_regularizer: null
      kernel_size: !!python/tuple [3, 3]
      name: conv2d_345
      padding: same
      strides: !!python/tuple [1, 1]
      trainable: true
      use_bias: false
    inbound_nodes:
    - - - activation_531
        - 0
        - 0
        - {}
    name: conv2d_345
  - class_name: BatchNormalization
    config:
      axis: 3
      beta_constraint: null
      beta_initializer:
        class_name: Zeros
        config: {}
      beta_regularizer: null
      center: true
      epsilon: 0.001
      gamma_constraint: null
      gamma_initializer:
        class_name: Ones
        config: {}
      gamma_regularizer: null
      momentum: 0.99
      moving_mean_initializer:
        class_name: Zeros
        config: {}
      moving_variance_initializer:
        class_name: Ones
        config: {}
      name: batch_normalization_340
      scale: false
      trainable: true
    inbound_nodes:
    - - - conv2d_340
        - 0
        - 0
        - {}
    name: batch_normalization_340
  - class_name: BatchNormalization
    config:
      axis: 3
      beta_constraint: null
      beta_initializer:
        class_name: Zeros
        config: {}
      beta_regularizer: null
      center: true
      epsilon: 0.001
      gamma_constraint: null
      gamma_initializer:
        class_name: Ones
        config: {}
      gamma_regularizer: null
      momentum: 0.99
      moving_mean_initializer:
        class_name: Zeros
        config: {}
      moving_variance_initializer:
        class_name: Ones
        config: {}
      name: batch_normalization_342
      scale: false
      trainable: true
    inbound_nodes:
    - - - conv2d_342
        - 0
        - 0
        - {}
    name: batch_normalization_342
  - class_name: BatchNormalization
    config:
      axis: 3
      beta_constraint: null
      beta_initializer:
        class_name: Zeros
        config: {}
      beta_regularizer: null
      center: true
      epsilon: 0.001
      gamma_constraint: null
      gamma_initializer:
        class_name: Ones
        config: {}
      gamma_regularizer: null
      momentum: 0.99
      moving_mean_initializer:
        class_name: Zeros
        config: {}
      moving_variance_initializer:
        class_name: Ones
        config: {}
      name: batch_normalization_345
      scale: false
      trainable: true
    inbound_nodes:
    - - - conv2d_345
        - 0
        - 0
        - {}
    name: batch_normalization_345
  - class_name: Activation
    config: {activation: relu, name: activation_527, trainable: true}
    inbound_nodes:
    - - - batch_normalization_340
        - 0
        - 0
        - {}
    name: activation_527
  - class_name: Activation
    config: {activation: relu, name: activation_529, trainable: true}
    inbound_nodes:
    - - - batch_normalization_342
        - 0
        - 0
        - {}
    name: activation_529
  - class_name: Activation
    config: {activation: relu, name: activation_532, trainable: true}
    inbound_nodes:
    - - - batch_normalization_345
        - 0
        - 0
        - {}
    name: activation_532
  - class_name: Concatenate
    config: {axis: 3, name: block35_6_mixed, trainable: true}
    inbound_nodes:
    - - - activation_527
        - 0
        - 0
        - &id013 {}
      - - activation_529
        - 0
        - 0
        - *id013
      - - activation_532
        - 0
        - 0
        - *id013
    name: block35_6_mixed
  - class_name: Conv2D
    config:
      activation: linear
      activity_regularizer: null
      bias_constraint: null
      bias_initializer:
        class_name: Zeros
        config: {}
      bias_regularizer: null
      data_format: channels_last
      dilation_rate: *id001
      filters: 320
      kernel_constraint: null
      kernel_initializer:
        class_name: VarianceScaling
        config: {distribution: uniform, mode: fan_avg, scale: 1.0, seed: null}
      kernel_regularizer: null
      kernel_size: !!python/tuple [1, 1]
      name: block35_6_conv
      padding: same
      strides: !!python/tuple [1, 1]
      trainable: true
      use_bias: true
    inbound_nodes:
    - - - block35_6_mixed
        - 0
        - 0
        - {}
    name: block35_6_conv
  - class_name: Lambda
    config:
      arguments: {scale: 0.17}
      function: !!python/tuple ['4wIAAAAAAAAAAgAAAAMAAABTAAAAcxQAAAB8AGQBGQB8AGQCGQB8ARQAFwBTACkDTukAAAAA6QEA

          AACpACkC2gZpbnB1dHPaBXNjYWxlcgMAAAByAwAAAPqAL2hvbWUvamFpZGV2ZC9hbmFjb25kYTMv

          bGliL3B5dGhvbjMuNi9zaXRlLXBhY2thZ2VzL0tlcmFzX0FwcGxpY2F0aW9ucy0xLjAuNC1weTMu

          Ni5lZ2cva2VyYXNfYXBwbGljYXRpb25zL2luY2VwdGlvbl9yZXNuZXRfdjIucHnaCDxsYW1iZGE+

          qgAAAPMAAAAA

          ', null, null]
      function_type: lambda
      name: block35_6
      output_shape: !!python/tuple [null, null, 320]
      output_shape_type: raw
      trainable: true
    inbound_nodes:
    - - - block35_5_ac
        - 0
        - 0
        - &id014 {}
      - - block35_6_conv
        - 0
        - 0
        - *id014
    name: block35_6
  - class_name: Activation
    config: {activation: relu, name: block35_6_ac, trainable: true}
    inbound_nodes:
    - - - block35_6
        - 0
        - 0
        - {}
    name: block35_6_ac
  - class_name: Conv2D
    config:
      activation: linear
      activity_regularizer: null
      bias_constraint: null
      bias_initializer:
        class_name: Zeros
        config: {}
      bias_regularizer: null
      data_format: channels_last
      dilation_rate: *id001
      filters: 32
      kernel_constraint: null
      kernel_initializer:
        class_name: VarianceScaling
        config: {distribution: uniform, mode: fan_avg, scale: 1.0, seed: null}
      kernel_regularizer: null
      kernel_size: !!python/tuple [1, 1]
      name: conv2d_349
      padding: same
      strides: !!python/tuple [1, 1]
      trainable: true
      use_bias: false
    inbound_nodes:
    - - - block35_6_ac
        - 0
        - 0
        - {}
    name: conv2d_349
  - class_name: BatchNormalization
    config:
      axis: 3
      beta_constraint: null
      beta_initializer:
        class_name: Zeros
        config: {}
      beta_regularizer: null
      center: true
      epsilon: 0.001
      gamma_constraint: null
      gamma_initializer:
        class_name: Ones
        config: {}
      gamma_regularizer: null
      momentum: 0.99
      moving_mean_initializer:
        class_name: Zeros
        config: {}
      moving_variance_initializer:
        class_name: Ones
        config: {}
      name: batch_normalization_349
      scale: false
      trainable: true
    inbound_nodes:
    - - - conv2d_349
        - 0
        - 0
        - {}
    name: batch_normalization_349
  - class_name: Activation
    config: {activation: relu, name: activation_536, trainable: true}
    inbound_nodes:
    - - - batch_normalization_349
        - 0
        - 0
        - {}
    name: activation_536
  - class_name: Conv2D
    config:
      activation: linear
      activity_regularizer: null
      bias_constraint: null
      bias_initializer:
        class_name: Zeros
        config: {}
      bias_regularizer: null
      data_format: channels_last
      dilation_rate: *id001
      filters: 32
      kernel_constraint: null
      kernel_initializer:
        class_name: VarianceScaling
        config: {distribution: uniform, mode: fan_avg, scale: 1.0, seed: null}
      kernel_regularizer: null
      kernel_size: !!python/tuple [1, 1]
      name: conv2d_347
      padding: same
      strides: !!python/tuple [1, 1]
      trainable: true
      use_bias: false
    inbound_nodes:
    - - - block35_6_ac
        - 0
        - 0
        - {}
    name: conv2d_347
  - class_name: Conv2D
    config:
      activation: linear
      activity_regularizer: null
      bias_constraint: null
      bias_initializer:
        class_name: Zeros
        config: {}
      bias_regularizer: null
      data_format: channels_last
      dilation_rate: *id001
      filters: 48
      kernel_constraint: null
      kernel_initializer:
        class_name: VarianceScaling
        config: {distribution: uniform, mode: fan_avg, scale: 1.0, seed: null}
      kernel_regularizer: null
      kernel_size: !!python/tuple [3, 3]
      name: conv2d_350
      padding: same
      strides: !!python/tuple [1, 1]
      trainable: true
      use_bias: false
    inbound_nodes:
    - - - activation_536
        - 0
        - 0
        - {}
    name: conv2d_350
  - class_name: BatchNormalization
    config:
      axis: 3
      beta_constraint: null
      beta_initializer:
        class_name: Zeros
        config: {}
      beta_regularizer: null
      center: true
      epsilon: 0.001
      gamma_constraint: null
      gamma_initializer:
        class_name: Ones
        config: {}
      gamma_regularizer: null
      momentum: 0.99
      moving_mean_initializer:
        class_name: Zeros
        config: {}
      moving_variance_initializer:
        class_name: Ones
        config: {}
      name: batch_normalization_347
      scale: false
      trainable: true
    inbound_nodes:
    - - - conv2d_347
        - 0
        - 0
        - {}
    name: batch_normalization_347
  - class_name: BatchNormalization
    config:
      axis: 3
      beta_constraint: null
      beta_initializer:
        class_name: Zeros
        config: {}
      beta_regularizer: null
      center: true
      epsilon: 0.001
      gamma_constraint: null
      gamma_initializer:
        class_name: Ones
        config: {}
      gamma_regularizer: null
      momentum: 0.99
      moving_mean_initializer:
        class_name: Zeros
        config: {}
      moving_variance_initializer:
        class_name: Ones
        config: {}
      name: batch_normalization_350
      scale: false
      trainable: true
    inbound_nodes:
    - - - conv2d_350
        - 0
        - 0
        - {}
    name: batch_normalization_350
  - class_name: Activation
    config: {activation: relu, name: activation_534, trainable: true}
    inbound_nodes:
    - - - batch_normalization_347
        - 0
        - 0
        - {}
    name: activation_534
  - class_name: Activation
    config: {activation: relu, name: activation_537, trainable: true}
    inbound_nodes:
    - - - batch_normalization_350
        - 0
        - 0
        - {}
    name: activation_537
  - class_name: Conv2D
    config:
      activation: linear
      activity_regularizer: null
      bias_constraint: null
      bias_initializer:
        class_name: Zeros
        config: {}
      bias_regularizer: null
      data_format: channels_last
      dilation_rate: *id001
      filters: 32
      kernel_constraint: null
      kernel_initializer:
        class_name: VarianceScaling
        config: {distribution: uniform, mode: fan_avg, scale: 1.0, seed: null}
      kernel_regularizer: null
      kernel_size: !!python/tuple [1, 1]
      name: conv2d_346
      padding: same
      strides: !!python/tuple [1, 1]
      trainable: true
      use_bias: false
    inbound_nodes:
    - - - block35_6_ac
        - 0
        - 0
        - {}
    name: conv2d_346
  - class_name: Conv2D
    config:
      activation: linear
      activity_regularizer: null
      bias_constraint: null
      bias_initializer:
        class_name: Zeros
        config: {}
      bias_regularizer: null
      data_format: channels_last
      dilation_rate: *id001
      filters: 32
      kernel_constraint: null
      kernel_initializer:
        class_name: VarianceScaling
        config: {distribution: uniform, mode: fan_avg, scale: 1.0, seed: null}
      kernel_regularizer: null
      kernel_size: !!python/tuple [3, 3]
      name: conv2d_348
      padding: same
      strides: !!python/tuple [1, 1]
      trainable: true
      use_bias: false
    inbound_nodes:
    - - - activation_534
        - 0
        - 0
        - {}
    name: conv2d_348
  - class_name: Conv2D
    config:
      activation: linear
      activity_regularizer: null
      bias_constraint: null
      bias_initializer:
        class_name: Zeros
        config: {}
      bias_regularizer: null
      data_format: channels_last
      dilation_rate: *id001
      filters: 64
      kernel_constraint: null
      kernel_initializer:
        class_name: VarianceScaling
        config: {distribution: uniform, mode: fan_avg, scale: 1.0, seed: null}
      kernel_regularizer: null
      kernel_size: !!python/tuple [3, 3]
      name: conv2d_351
      padding: same
      strides: !!python/tuple [1, 1]
      trainable: true
      use_bias: false
    inbound_nodes:
    - - - activation_537
        - 0
        - 0
        - {}
    name: conv2d_351
  - class_name: BatchNormalization
    config:
      axis: 3
      beta_constraint: null
      beta_initializer:
        class_name: Zeros
        config: {}
      beta_regularizer: null
      center: true
      epsilon: 0.001
      gamma_constraint: null
      gamma_initializer:
        class_name: Ones
        config: {}
      gamma_regularizer: null
      momentum: 0.99
      moving_mean_initializer:
        class_name: Zeros
        config: {}
      moving_variance_initializer:
        class_name: Ones
        config: {}
      name: batch_normalization_346
      scale: false
      trainable: true
    inbound_nodes:
    - - - conv2d_346
        - 0
        - 0
        - {}
    name: batch_normalization_346
  - class_name: BatchNormalization
    config:
      axis: 3
      beta_constraint: null
      beta_initializer:
        class_name: Zeros
        config: {}
      beta_regularizer: null
      center: true
      epsilon: 0.001
      gamma_constraint: null
      gamma_initializer:
        class_name: Ones
        config: {}
      gamma_regularizer: null
      momentum: 0.99
      moving_mean_initializer:
        class_name: Zeros
        config: {}
      moving_variance_initializer:
        class_name: Ones
        config: {}
      name: batch_normalization_348
      scale: false
      trainable: true
    inbound_nodes:
    - - - conv2d_348
        - 0
        - 0
        - {}
    name: batch_normalization_348
  - class_name: BatchNormalization
    config:
      axis: 3
      beta_constraint: null
      beta_initializer:
        class_name: Zeros
        config: {}
      beta_regularizer: null
      center: true
      epsilon: 0.001
      gamma_constraint: null
      gamma_initializer:
        class_name: Ones
        config: {}
      gamma_regularizer: null
      momentum: 0.99
      moving_mean_initializer:
        class_name: Zeros
        config: {}
      moving_variance_initializer:
        class_name: Ones
        config: {}
      name: batch_normalization_351
      scale: false
      trainable: true
    inbound_nodes:
    - - - conv2d_351
        - 0
        - 0
        - {}
    name: batch_normalization_351
  - class_name: Activation
    config: {activation: relu, name: activation_533, trainable: true}
    inbound_nodes:
    - - - batch_normalization_346
        - 0
        - 0
        - {}
    name: activation_533
  - class_name: Activation
    config: {activation: relu, name: activation_535, trainable: true}
    inbound_nodes:
    - - - batch_normalization_348
        - 0
        - 0
        - {}
    name: activation_535
  - class_name: Activation
    config: {activation: relu, name: activation_538, trainable: true}
    inbound_nodes:
    - - - batch_normalization_351
        - 0
        - 0
        - {}
    name: activation_538
  - class_name: Concatenate
    config: {axis: 3, name: block35_7_mixed, trainable: true}
    inbound_nodes:
    - - - activation_533
        - 0
        - 0
        - &id015 {}
      - - activation_535
        - 0
        - 0
        - *id015
      - - activation_538
        - 0
        - 0
        - *id015
    name: block35_7_mixed
  - class_name: Conv2D
    config:
      activation: linear
      activity_regularizer: null
      bias_constraint: null
      bias_initializer:
        class_name: Zeros
        config: {}
      bias_regularizer: null
      data_format: channels_last
      dilation_rate: *id001
      filters: 320
      kernel_constraint: null
      kernel_initializer:
        class_name: VarianceScaling
        config: {distribution: uniform, mode: fan_avg, scale: 1.0, seed: null}
      kernel_regularizer: null
      kernel_size: !!python/tuple [1, 1]
      name: block35_7_conv
      padding: same
      strides: !!python/tuple [1, 1]
      trainable: true
      use_bias: true
    inbound_nodes:
    - - - block35_7_mixed
        - 0
        - 0
        - {}
    name: block35_7_conv
  - class_name: Lambda
    config:
      arguments: {scale: 0.17}
      function: !!python/tuple ['4wIAAAAAAAAAAgAAAAMAAABTAAAAcxQAAAB8AGQBGQB8AGQCGQB8ARQAFwBTACkDTukAAAAA6QEA

          AACpACkC2gZpbnB1dHPaBXNjYWxlcgMAAAByAwAAAPqAL2hvbWUvamFpZGV2ZC9hbmFjb25kYTMv

          bGliL3B5dGhvbjMuNi9zaXRlLXBhY2thZ2VzL0tlcmFzX0FwcGxpY2F0aW9ucy0xLjAuNC1weTMu

          Ni5lZ2cva2VyYXNfYXBwbGljYXRpb25zL2luY2VwdGlvbl9yZXNuZXRfdjIucHnaCDxsYW1iZGE+

          qgAAAPMAAAAA

          ', null, null]
      function_type: lambda
      name: block35_7
      output_shape: !!python/tuple [null, null, 320]
      output_shape_type: raw
      trainable: true
    inbound_nodes:
    - - - block35_6_ac
        - 0
        - 0
        - &id016 {}
      - - block35_7_conv
        - 0
        - 0
        - *id016
    name: block35_7
  - class_name: Activation
    config: {activation: relu, name: block35_7_ac, trainable: true}
    inbound_nodes:
    - - - block35_7
        - 0
        - 0
        - {}
    name: block35_7_ac
  - class_name: Conv2D
    config:
      activation: linear
      activity_regularizer: null
      bias_constraint: null
      bias_initializer:
        class_name: Zeros
        config: {}
      bias_regularizer: null
      data_format: channels_last
      dilation_rate: *id001
      filters: 32
      kernel_constraint: null
      kernel_initializer:
        class_name: VarianceScaling
        config: {distribution: uniform, mode: fan_avg, scale: 1.0, seed: null}
      kernel_regularizer: null
      kernel_size: !!python/tuple [1, 1]
      name: conv2d_355
      padding: same
      strides: !!python/tuple [1, 1]
      trainable: true
      use_bias: false
    inbound_nodes:
    - - - block35_7_ac
        - 0
        - 0
        - {}
    name: conv2d_355
  - class_name: BatchNormalization
    config:
      axis: 3
      beta_constraint: null
      beta_initializer:
        class_name: Zeros
        config: {}
      beta_regularizer: null
      center: true
      epsilon: 0.001
      gamma_constraint: null
      gamma_initializer:
        class_name: Ones
        config: {}
      gamma_regularizer: null
      momentum: 0.99
      moving_mean_initializer:
        class_name: Zeros
        config: {}
      moving_variance_initializer:
        class_name: Ones
        config: {}
      name: batch_normalization_355
      scale: false
      trainable: true
    inbound_nodes:
    - - - conv2d_355
        - 0
        - 0
        - {}
    name: batch_normalization_355
  - class_name: Activation
    config: {activation: relu, name: activation_542, trainable: true}
    inbound_nodes:
    - - - batch_normalization_355
        - 0
        - 0
        - {}
    name: activation_542
  - class_name: Conv2D
    config:
      activation: linear
      activity_regularizer: null
      bias_constraint: null
      bias_initializer:
        class_name: Zeros
        config: {}
      bias_regularizer: null
      data_format: channels_last
      dilation_rate: *id001
      filters: 32
      kernel_constraint: null
      kernel_initializer:
        class_name: VarianceScaling
        config: {distribution: uniform, mode: fan_avg, scale: 1.0, seed: null}
      kernel_regularizer: null
      kernel_size: !!python/tuple [1, 1]
      name: conv2d_353
      padding: same
      strides: !!python/tuple [1, 1]
      trainable: true
      use_bias: false
    inbound_nodes:
    - - - block35_7_ac
        - 0
        - 0
        - {}
    name: conv2d_353
  - class_name: Conv2D
    config:
      activation: linear
      activity_regularizer: null
      bias_constraint: null
      bias_initializer:
        class_name: Zeros
        config: {}
      bias_regularizer: null
      data_format: channels_last
      dilation_rate: *id001
      filters: 48
      kernel_constraint: null
      kernel_initializer:
        class_name: VarianceScaling
        config: {distribution: uniform, mode: fan_avg, scale: 1.0, seed: null}
      kernel_regularizer: null
      kernel_size: !!python/tuple [3, 3]
      name: conv2d_356
      padding: same
      strides: !!python/tuple [1, 1]
      trainable: true
      use_bias: false
    inbound_nodes:
    - - - activation_542
        - 0
        - 0
        - {}
    name: conv2d_356
  - class_name: BatchNormalization
    config:
      axis: 3
      beta_constraint: null
      beta_initializer:
        class_name: Zeros
        config: {}
      beta_regularizer: null
      center: true
      epsilon: 0.001
      gamma_constraint: null
      gamma_initializer:
        class_name: Ones
        config: {}
      gamma_regularizer: null
      momentum: 0.99
      moving_mean_initializer:
        class_name: Zeros
        config: {}
      moving_variance_initializer:
        class_name: Ones
        config: {}
      name: batch_normalization_353
      scale: false
      trainable: true
    inbound_nodes:
    - - - conv2d_353
        - 0
        - 0
        - {}
    name: batch_normalization_353
  - class_name: BatchNormalization
    config:
      axis: 3
      beta_constraint: null
      beta_initializer:
        class_name: Zeros
        config: {}
      beta_regularizer: null
      center: true
      epsilon: 0.001
      gamma_constraint: null
      gamma_initializer:
        class_name: Ones
        config: {}
      gamma_regularizer: null
      momentum: 0.99
      moving_mean_initializer:
        class_name: Zeros
        config: {}
      moving_variance_initializer:
        class_name: Ones
        config: {}
      name: batch_normalization_356
      scale: false
      trainable: true
    inbound_nodes:
    - - - conv2d_356
        - 0
        - 0
        - {}
    name: batch_normalization_356
  - class_name: Activation
    config: {activation: relu, name: activation_540, trainable: true}
    inbound_nodes:
    - - - batch_normalization_353
        - 0
        - 0
        - {}
    name: activation_540
  - class_name: Activation
    config: {activation: relu, name: activation_543, trainable: true}
    inbound_nodes:
    - - - batch_normalization_356
        - 0
        - 0
        - {}
    name: activation_543
  - class_name: Conv2D
    config:
      activation: linear
      activity_regularizer: null
      bias_constraint: null
      bias_initializer:
        class_name: Zeros
        config: {}
      bias_regularizer: null
      data_format: channels_last
      dilation_rate: *id001
      filters: 32
      kernel_constraint: null
      kernel_initializer:
        class_name: VarianceScaling
        config: {distribution: uniform, mode: fan_avg, scale: 1.0, seed: null}
      kernel_regularizer: null
      kernel_size: !!python/tuple [1, 1]
      name: conv2d_352
      padding: same
      strides: !!python/tuple [1, 1]
      trainable: true
      use_bias: false
    inbound_nodes:
    - - - block35_7_ac
        - 0
        - 0
        - {}
    name: conv2d_352
  - class_name: Conv2D
    config:
      activation: linear
      activity_regularizer: null
      bias_constraint: null
      bias_initializer:
        class_name: Zeros
        config: {}
      bias_regularizer: null
      data_format: channels_last
      dilation_rate: *id001
      filters: 32
      kernel_constraint: null
      kernel_initializer:
        class_name: VarianceScaling
        config: {distribution: uniform, mode: fan_avg, scale: 1.0, seed: null}
      kernel_regularizer: null
      kernel_size: !!python/tuple [3, 3]
      name: conv2d_354
      padding: same
      strides: !!python/tuple [1, 1]
      trainable: true
      use_bias: false
    inbound_nodes:
    - - - activation_540
        - 0
        - 0
        - {}
    name: conv2d_354
  - class_name: Conv2D
    config:
      activation: linear
      activity_regularizer: null
      bias_constraint: null
      bias_initializer:
        class_name: Zeros
        config: {}
      bias_regularizer: null
      data_format: channels_last
      dilation_rate: *id001
      filters: 64
      kernel_constraint: null
      kernel_initializer:
        class_name: VarianceScaling
        config: {distribution: uniform, mode: fan_avg, scale: 1.0, seed: null}
      kernel_regularizer: null
      kernel_size: !!python/tuple [3, 3]
      name: conv2d_357
      padding: same
      strides: !!python/tuple [1, 1]
      trainable: true
      use_bias: false
    inbound_nodes:
    - - - activation_543
        - 0
        - 0
        - {}
    name: conv2d_357
  - class_name: BatchNormalization
    config:
      axis: 3
      beta_constraint: null
      beta_initializer:
        class_name: Zeros
        config: {}
      beta_regularizer: null
      center: true
      epsilon: 0.001
      gamma_constraint: null
      gamma_initializer:
        class_name: Ones
        config: {}
      gamma_regularizer: null
      momentum: 0.99
      moving_mean_initializer:
        class_name: Zeros
        config: {}
      moving_variance_initializer:
        class_name: Ones
        config: {}
      name: batch_normalization_352
      scale: false
      trainable: true
    inbound_nodes:
    - - - conv2d_352
        - 0
        - 0
        - {}
    name: batch_normalization_352
  - class_name: BatchNormalization
    config:
      axis: 3
      beta_constraint: null
      beta_initializer:
        class_name: Zeros
        config: {}
      beta_regularizer: null
      center: true
      epsilon: 0.001
      gamma_constraint: null
      gamma_initializer:
        class_name: Ones
        config: {}
      gamma_regularizer: null
      momentum: 0.99
      moving_mean_initializer:
        class_name: Zeros
        config: {}
      moving_variance_initializer:
        class_name: Ones
        config: {}
      name: batch_normalization_354
      scale: false
      trainable: true
    inbound_nodes:
    - - - conv2d_354
        - 0
        - 0
        - {}
    name: batch_normalization_354
  - class_name: BatchNormalization
    config:
      axis: 3
      beta_constraint: null
      beta_initializer:
        class_name: Zeros
        config: {}
      beta_regularizer: null
      center: true
      epsilon: 0.001
      gamma_constraint: null
      gamma_initializer:
        class_name: Ones
        config: {}
      gamma_regularizer: null
      momentum: 0.99
      moving_mean_initializer:
        class_name: Zeros
        config: {}
      moving_variance_initializer:
        class_name: Ones
        config: {}
      name: batch_normalization_357
      scale: false
      trainable: true
    inbound_nodes:
    - - - conv2d_357
        - 0
        - 0
        - {}
    name: batch_normalization_357
  - class_name: Activation
    config: {activation: relu, name: activation_539, trainable: true}
    inbound_nodes:
    - - - batch_normalization_352
        - 0
        - 0
        - {}
    name: activation_539
  - class_name: Activation
    config: {activation: relu, name: activation_541, trainable: true}
    inbound_nodes:
    - - - batch_normalization_354
        - 0
        - 0
        - {}
    name: activation_541
  - class_name: Activation
    config: {activation: relu, name: activation_544, trainable: true}
    inbound_nodes:
    - - - batch_normalization_357
        - 0
        - 0
        - {}
    name: activation_544
  - class_name: Concatenate
    config: {axis: 3, name: block35_8_mixed, trainable: true}
    inbound_nodes:
    - - - activation_539
        - 0
        - 0
        - &id017 {}
      - - activation_541
        - 0
        - 0
        - *id017
      - - activation_544
        - 0
        - 0
        - *id017
    name: block35_8_mixed
  - class_name: Conv2D
    config:
      activation: linear
      activity_regularizer: null
      bias_constraint: null
      bias_initializer:
        class_name: Zeros
        config: {}
      bias_regularizer: null
      data_format: channels_last
      dilation_rate: *id001
      filters: 320
      kernel_constraint: null
      kernel_initializer:
        class_name: VarianceScaling
        config: {distribution: uniform, mode: fan_avg, scale: 1.0, seed: null}
      kernel_regularizer: null
      kernel_size: !!python/tuple [1, 1]
      name: block35_8_conv
      padding: same
      strides: !!python/tuple [1, 1]
      trainable: true
      use_bias: true
    inbound_nodes:
    - - - block35_8_mixed
        - 0
        - 0
        - {}
    name: block35_8_conv
  - class_name: Lambda
    config:
      arguments: {scale: 0.17}
      function: !!python/tuple ['4wIAAAAAAAAAAgAAAAMAAABTAAAAcxQAAAB8AGQBGQB8AGQCGQB8ARQAFwBTACkDTukAAAAA6QEA

          AACpACkC2gZpbnB1dHPaBXNjYWxlcgMAAAByAwAAAPqAL2hvbWUvamFpZGV2ZC9hbmFjb25kYTMv

          bGliL3B5dGhvbjMuNi9zaXRlLXBhY2thZ2VzL0tlcmFzX0FwcGxpY2F0aW9ucy0xLjAuNC1weTMu

          Ni5lZ2cva2VyYXNfYXBwbGljYXRpb25zL2luY2VwdGlvbl9yZXNuZXRfdjIucHnaCDxsYW1iZGE+

          qgAAAPMAAAAA

          ', null, null]
      function_type: lambda
      name: block35_8
      output_shape: !!python/tuple [null, null, 320]
      output_shape_type: raw
      trainable: true
    inbound_nodes:
    - - - block35_7_ac
        - 0
        - 0
        - &id018 {}
      - - block35_8_conv
        - 0
        - 0
        - *id018
    name: block35_8
  - class_name: Activation
    config: {activation: relu, name: block35_8_ac, trainable: true}
    inbound_nodes:
    - - - block35_8
        - 0
        - 0
        - {}
    name: block35_8_ac
  - class_name: Conv2D
    config:
      activation: linear
      activity_regularizer: null
      bias_constraint: null
      bias_initializer:
        class_name: Zeros
        config: {}
      bias_regularizer: null
      data_format: channels_last
      dilation_rate: *id001
      filters: 32
      kernel_constraint: null
      kernel_initializer:
        class_name: VarianceScaling
        config: {distribution: uniform, mode: fan_avg, scale: 1.0, seed: null}
      kernel_regularizer: null
      kernel_size: !!python/tuple [1, 1]
      name: conv2d_361
      padding: same
      strides: !!python/tuple [1, 1]
      trainable: true
      use_bias: false
    inbound_nodes:
    - - - block35_8_ac
        - 0
        - 0
        - {}
    name: conv2d_361
  - class_name: BatchNormalization
    config:
      axis: 3
      beta_constraint: null
      beta_initializer:
        class_name: Zeros
        config: {}
      beta_regularizer: null
      center: true
      epsilon: 0.001
      gamma_constraint: null
      gamma_initializer:
        class_name: Ones
        config: {}
      gamma_regularizer: null
      momentum: 0.99
      moving_mean_initializer:
        class_name: Zeros
        config: {}
      moving_variance_initializer:
        class_name: Ones
        config: {}
      name: batch_normalization_361
      scale: false
      trainable: true
    inbound_nodes:
    - - - conv2d_361
        - 0
        - 0
        - {}
    name: batch_normalization_361
  - class_name: Activation
    config: {activation: relu, name: activation_548, trainable: true}
    inbound_nodes:
    - - - batch_normalization_361
        - 0
        - 0
        - {}
    name: activation_548
  - class_name: Conv2D
    config:
      activation: linear
      activity_regularizer: null
      bias_constraint: null
      bias_initializer:
        class_name: Zeros
        config: {}
      bias_regularizer: null
      data_format: channels_last
      dilation_rate: *id001
      filters: 32
      kernel_constraint: null
      kernel_initializer:
        class_name: VarianceScaling
        config: {distribution: uniform, mode: fan_avg, scale: 1.0, seed: null}
      kernel_regularizer: null
      kernel_size: !!python/tuple [1, 1]
      name: conv2d_359
      padding: same
      strides: !!python/tuple [1, 1]
      trainable: true
      use_bias: false
    inbound_nodes:
    - - - block35_8_ac
        - 0
        - 0
        - {}
    name: conv2d_359
  - class_name: Conv2D
    config:
      activation: linear
      activity_regularizer: null
      bias_constraint: null
      bias_initializer:
        class_name: Zeros
        config: {}
      bias_regularizer: null
      data_format: channels_last
      dilation_rate: *id001
      filters: 48
      kernel_constraint: null
      kernel_initializer:
        class_name: VarianceScaling
        config: {distribution: uniform, mode: fan_avg, scale: 1.0, seed: null}
      kernel_regularizer: null
      kernel_size: !!python/tuple [3, 3]
      name: conv2d_362
      padding: same
      strides: !!python/tuple [1, 1]
      trainable: true
      use_bias: false
    inbound_nodes:
    - - - activation_548
        - 0
        - 0
        - {}
    name: conv2d_362
  - class_name: BatchNormalization
    config:
      axis: 3
      beta_constraint: null
      beta_initializer:
        class_name: Zeros
        config: {}
      beta_regularizer: null
      center: true
      epsilon: 0.001
      gamma_constraint: null
      gamma_initializer:
        class_name: Ones
        config: {}
      gamma_regularizer: null
      momentum: 0.99
      moving_mean_initializer:
        class_name: Zeros
        config: {}
      moving_variance_initializer:
        class_name: Ones
        config: {}
      name: batch_normalization_359
      scale: false
      trainable: true
    inbound_nodes:
    - - - conv2d_359
        - 0
        - 0
        - {}
    name: batch_normalization_359
  - class_name: BatchNormalization
    config:
      axis: 3
      beta_constraint: null
      beta_initializer:
        class_name: Zeros
        config: {}
      beta_regularizer: null
      center: true
      epsilon: 0.001
      gamma_constraint: null
      gamma_initializer:
        class_name: Ones
        config: {}
      gamma_regularizer: null
      momentum: 0.99
      moving_mean_initializer:
        class_name: Zeros
        config: {}
      moving_variance_initializer:
        class_name: Ones
        config: {}
      name: batch_normalization_362
      scale: false
      trainable: true
    inbound_nodes:
    - - - conv2d_362
        - 0
        - 0
        - {}
    name: batch_normalization_362
  - class_name: Activation
    config: {activation: relu, name: activation_546, trainable: true}
    inbound_nodes:
    - - - batch_normalization_359
        - 0
        - 0
        - {}
    name: activation_546
  - class_name: Activation
    config: {activation: relu, name: activation_549, trainable: true}
    inbound_nodes:
    - - - batch_normalization_362
        - 0
        - 0
        - {}
    name: activation_549
  - class_name: Conv2D
    config:
      activation: linear
      activity_regularizer: null
      bias_constraint: null
      bias_initializer:
        class_name: Zeros
        config: {}
      bias_regularizer: null
      data_format: channels_last
      dilation_rate: *id001
      filters: 32
      kernel_constraint: null
      kernel_initializer:
        class_name: VarianceScaling
        config: {distribution: uniform, mode: fan_avg, scale: 1.0, seed: null}
      kernel_regularizer: null
      kernel_size: !!python/tuple [1, 1]
      name: conv2d_358
      padding: same
      strides: !!python/tuple [1, 1]
      trainable: true
      use_bias: false
    inbound_nodes:
    - - - block35_8_ac
        - 0
        - 0
        - {}
    name: conv2d_358
  - class_name: Conv2D
    config:
      activation: linear
      activity_regularizer: null
      bias_constraint: null
      bias_initializer:
        class_name: Zeros
        config: {}
      bias_regularizer: null
      data_format: channels_last
      dilation_rate: *id001
      filters: 32
      kernel_constraint: null
      kernel_initializer:
        class_name: VarianceScaling
        config: {distribution: uniform, mode: fan_avg, scale: 1.0, seed: null}
      kernel_regularizer: null
      kernel_size: !!python/tuple [3, 3]
      name: conv2d_360
      padding: same
      strides: !!python/tuple [1, 1]
      trainable: true
      use_bias: false
    inbound_nodes:
    - - - activation_546
        - 0
        - 0
        - {}
    name: conv2d_360
  - class_name: Conv2D
    config:
      activation: linear
      activity_regularizer: null
      bias_constraint: null
      bias_initializer:
        class_name: Zeros
        config: {}
      bias_regularizer: null
      data_format: channels_last
      dilation_rate: *id001
      filters: 64
      kernel_constraint: null
      kernel_initializer:
        class_name: VarianceScaling
        config: {distribution: uniform, mode: fan_avg, scale: 1.0, seed: null}
      kernel_regularizer: null
      kernel_size: !!python/tuple [3, 3]
      name: conv2d_363
      padding: same
      strides: !!python/tuple [1, 1]
      trainable: true
      use_bias: false
    inbound_nodes:
    - - - activation_549
        - 0
        - 0
        - {}
    name: conv2d_363
  - class_name: BatchNormalization
    config:
      axis: 3
      beta_constraint: null
      beta_initializer:
        class_name: Zeros
        config: {}
      beta_regularizer: null
      center: true
      epsilon: 0.001
      gamma_constraint: null
      gamma_initializer:
        class_name: Ones
        config: {}
      gamma_regularizer: null
      momentum: 0.99
      moving_mean_initializer:
        class_name: Zeros
        config: {}
      moving_variance_initializer:
        class_name: Ones
        config: {}
      name: batch_normalization_358
      scale: false
      trainable: true
    inbound_nodes:
    - - - conv2d_358
        - 0
        - 0
        - {}
    name: batch_normalization_358
  - class_name: BatchNormalization
    config:
      axis: 3
      beta_constraint: null
      beta_initializer:
        class_name: Zeros
        config: {}
      beta_regularizer: null
      center: true
      epsilon: 0.001
      gamma_constraint: null
      gamma_initializer:
        class_name: Ones
        config: {}
      gamma_regularizer: null
      momentum: 0.99
      moving_mean_initializer:
        class_name: Zeros
        config: {}
      moving_variance_initializer:
        class_name: Ones
        config: {}
      name: batch_normalization_360
      scale: false
      trainable: true
    inbound_nodes:
    - - - conv2d_360
        - 0
        - 0
        - {}
    name: batch_normalization_360
  - class_name: BatchNormalization
    config:
      axis: 3
      beta_constraint: null
      beta_initializer:
        class_name: Zeros
        config: {}
      beta_regularizer: null
      center: true
      epsilon: 0.001
      gamma_constraint: null
      gamma_initializer:
        class_name: Ones
        config: {}
      gamma_regularizer: null
      momentum: 0.99
      moving_mean_initializer:
        class_name: Zeros
        config: {}
      moving_variance_initializer:
        class_name: Ones
        config: {}
      name: batch_normalization_363
      scale: false
      trainable: true
    inbound_nodes:
    - - - conv2d_363
        - 0
        - 0
        - {}
    name: batch_normalization_363
  - class_name: Activation
    config: {activation: relu, name: activation_545, trainable: true}
    inbound_nodes:
    - - - batch_normalization_358
        - 0
        - 0
        - {}
    name: activation_545
  - class_name: Activation
    config: {activation: relu, name: activation_547, trainable: true}
    inbound_nodes:
    - - - batch_normalization_360
        - 0
        - 0
        - {}
    name: activation_547
  - class_name: Activation
    config: {activation: relu, name: activation_550, trainable: true}
    inbound_nodes:
    - - - batch_normalization_363
        - 0
        - 0
        - {}
    name: activation_550
  - class_name: Concatenate
    config: {axis: 3, name: block35_9_mixed, trainable: true}
    inbound_nodes:
    - - - activation_545
        - 0
        - 0
        - &id019 {}
      - - activation_547
        - 0
        - 0
        - *id019
      - - activation_550
        - 0
        - 0
        - *id019
    name: block35_9_mixed
  - class_name: Conv2D
    config:
      activation: linear
      activity_regularizer: null
      bias_constraint: null
      bias_initializer:
        class_name: Zeros
        config: {}
      bias_regularizer: null
      data_format: channels_last
      dilation_rate: *id001
      filters: 320
      kernel_constraint: null
      kernel_initializer:
        class_name: VarianceScaling
        config: {distribution: uniform, mode: fan_avg, scale: 1.0, seed: null}
      kernel_regularizer: null
      kernel_size: !!python/tuple [1, 1]
      name: block35_9_conv
      padding: same
      strides: !!python/tuple [1, 1]
      trainable: true
      use_bias: true
    inbound_nodes:
    - - - block35_9_mixed
        - 0
        - 0
        - {}
    name: block35_9_conv
  - class_name: Lambda
    config:
      arguments: {scale: 0.17}
      function: !!python/tuple ['4wIAAAAAAAAAAgAAAAMAAABTAAAAcxQAAAB8AGQBGQB8AGQCGQB8ARQAFwBTACkDTukAAAAA6QEA

          AACpACkC2gZpbnB1dHPaBXNjYWxlcgMAAAByAwAAAPqAL2hvbWUvamFpZGV2ZC9hbmFjb25kYTMv

          bGliL3B5dGhvbjMuNi9zaXRlLXBhY2thZ2VzL0tlcmFzX0FwcGxpY2F0aW9ucy0xLjAuNC1weTMu

          Ni5lZ2cva2VyYXNfYXBwbGljYXRpb25zL2luY2VwdGlvbl9yZXNuZXRfdjIucHnaCDxsYW1iZGE+

          qgAAAPMAAAAA

          ', null, null]
      function_type: lambda
      name: block35_9
      output_shape: !!python/tuple [null, null, 320]
      output_shape_type: raw
      trainable: true
    inbound_nodes:
    - - - block35_8_ac
        - 0
        - 0
        - &id020 {}
      - - block35_9_conv
        - 0
        - 0
        - *id020
    name: block35_9
  - class_name: Activation
    config: {activation: relu, name: block35_9_ac, trainable: true}
    inbound_nodes:
    - - - block35_9
        - 0
        - 0
        - {}
    name: block35_9_ac
  - class_name: Conv2D
    config:
      activation: linear
      activity_regularizer: null
      bias_constraint: null
      bias_initializer:
        class_name: Zeros
        config: {}
      bias_regularizer: null
      data_format: channels_last
      dilation_rate: *id001
      filters: 32
      kernel_constraint: null
      kernel_initializer:
        class_name: VarianceScaling
        config: {distribution: uniform, mode: fan_avg, scale: 1.0, seed: null}
      kernel_regularizer: null
      kernel_size: !!python/tuple [1, 1]
      name: conv2d_367
      padding: same
      strides: !!python/tuple [1, 1]
      trainable: true
      use_bias: false
    inbound_nodes:
    - - - block35_9_ac
        - 0
        - 0
        - {}
    name: conv2d_367
  - class_name: BatchNormalization
    config:
      axis: 3
      beta_constraint: null
      beta_initializer:
        class_name: Zeros
        config: {}
      beta_regularizer: null
      center: true
      epsilon: 0.001
      gamma_constraint: null
      gamma_initializer:
        class_name: Ones
        config: {}
      gamma_regularizer: null
      momentum: 0.99
      moving_mean_initializer:
        class_name: Zeros
        config: {}
      moving_variance_initializer:
        class_name: Ones
        config: {}
      name: batch_normalization_367
      scale: false
      trainable: true
    inbound_nodes:
    - - - conv2d_367
        - 0
        - 0
        - {}
    name: batch_normalization_367
  - class_name: Activation
    config: {activation: relu, name: activation_554, trainable: true}
    inbound_nodes:
    - - - batch_normalization_367
        - 0
        - 0
        - {}
    name: activation_554
  - class_name: Conv2D
    config:
      activation: linear
      activity_regularizer: null
      bias_constraint: null
      bias_initializer:
        class_name: Zeros
        config: {}
      bias_regularizer: null
      data_format: channels_last
      dilation_rate: *id001
      filters: 32
      kernel_constraint: null
      kernel_initializer:
        class_name: VarianceScaling
        config: {distribution: uniform, mode: fan_avg, scale: 1.0, seed: null}
      kernel_regularizer: null
      kernel_size: !!python/tuple [1, 1]
      name: conv2d_365
      padding: same
      strides: !!python/tuple [1, 1]
      trainable: true
      use_bias: false
    inbound_nodes:
    - - - block35_9_ac
        - 0
        - 0
        - {}
    name: conv2d_365
  - class_name: Conv2D
    config:
      activation: linear
      activity_regularizer: null
      bias_constraint: null
      bias_initializer:
        class_name: Zeros
        config: {}
      bias_regularizer: null
      data_format: channels_last
      dilation_rate: *id001
      filters: 48
      kernel_constraint: null
      kernel_initializer:
        class_name: VarianceScaling
        config: {distribution: uniform, mode: fan_avg, scale: 1.0, seed: null}
      kernel_regularizer: null
      kernel_size: !!python/tuple [3, 3]
      name: conv2d_368
      padding: same
      strides: !!python/tuple [1, 1]
      trainable: true
      use_bias: false
    inbound_nodes:
    - - - activation_554
        - 0
        - 0
        - {}
    name: conv2d_368
  - class_name: BatchNormalization
    config:
      axis: 3
      beta_constraint: null
      beta_initializer:
        class_name: Zeros
        config: {}
      beta_regularizer: null
      center: true
      epsilon: 0.001
      gamma_constraint: null
      gamma_initializer:
        class_name: Ones
        config: {}
      gamma_regularizer: null
      momentum: 0.99
      moving_mean_initializer:
        class_name: Zeros
        config: {}
      moving_variance_initializer:
        class_name: Ones
        config: {}
      name: batch_normalization_365
      scale: false
      trainable: true
    inbound_nodes:
    - - - conv2d_365
        - 0
        - 0
        - {}
    name: batch_normalization_365
  - class_name: BatchNormalization
    config:
      axis: 3
      beta_constraint: null
      beta_initializer:
        class_name: Zeros
        config: {}
      beta_regularizer: null
      center: true
      epsilon: 0.001
      gamma_constraint: null
      gamma_initializer:
        class_name: Ones
        config: {}
      gamma_regularizer: null
      momentum: 0.99
      moving_mean_initializer:
        class_name: Zeros
        config: {}
      moving_variance_initializer:
        class_name: Ones
        config: {}
      name: batch_normalization_368
      scale: false
      trainable: true
    inbound_nodes:
    - - - conv2d_368
        - 0
        - 0
        - {}
    name: batch_normalization_368
  - class_name: Activation
    config: {activation: relu, name: activation_552, trainable: true}
    inbound_nodes:
    - - - batch_normalization_365
        - 0
        - 0
        - {}
    name: activation_552
  - class_name: Activation
    config: {activation: relu, name: activation_555, trainable: true}
    inbound_nodes:
    - - - batch_normalization_368
        - 0
        - 0
        - {}
    name: activation_555
  - class_name: Conv2D
    config:
      activation: linear
      activity_regularizer: null
      bias_constraint: null
      bias_initializer:
        class_name: Zeros
        config: {}
      bias_regularizer: null
      data_format: channels_last
      dilation_rate: *id001
      filters: 32
      kernel_constraint: null
      kernel_initializer:
        class_name: VarianceScaling
        config: {distribution: uniform, mode: fan_avg, scale: 1.0, seed: null}
      kernel_regularizer: null
      kernel_size: !!python/tuple [1, 1]
      name: conv2d_364
      padding: same
      strides: !!python/tuple [1, 1]
      trainable: true
      use_bias: false
    inbound_nodes:
    - - - block35_9_ac
        - 0
        - 0
        - {}
    name: conv2d_364
  - class_name: Conv2D
    config:
      activation: linear
      activity_regularizer: null
      bias_constraint: null
      bias_initializer:
        class_name: Zeros
        config: {}
      bias_regularizer: null
      data_format: channels_last
      dilation_rate: *id001
      filters: 32
      kernel_constraint: null
      kernel_initializer:
        class_name: VarianceScaling
        config: {distribution: uniform, mode: fan_avg, scale: 1.0, seed: null}
      kernel_regularizer: null
      kernel_size: !!python/tuple [3, 3]
      name: conv2d_366
      padding: same
      strides: !!python/tuple [1, 1]
      trainable: true
      use_bias: false
    inbound_nodes:
    - - - activation_552
        - 0
        - 0
        - {}
    name: conv2d_366
  - class_name: Conv2D
    config:
      activation: linear
      activity_regularizer: null
      bias_constraint: null
      bias_initializer:
        class_name: Zeros
        config: {}
      bias_regularizer: null
      data_format: channels_last
      dilation_rate: *id001
      filters: 64
      kernel_constraint: null
      kernel_initializer:
        class_name: VarianceScaling
        config: {distribution: uniform, mode: fan_avg, scale: 1.0, seed: null}
      kernel_regularizer: null
      kernel_size: !!python/tuple [3, 3]
      name: conv2d_369
      padding: same
      strides: !!python/tuple [1, 1]
      trainable: true
      use_bias: false
    inbound_nodes:
    - - - activation_555
        - 0
        - 0
        - {}
    name: conv2d_369
  - class_name: BatchNormalization
    config:
      axis: 3
      beta_constraint: null
      beta_initializer:
        class_name: Zeros
        config: {}
      beta_regularizer: null
      center: true
      epsilon: 0.001
      gamma_constraint: null
      gamma_initializer:
        class_name: Ones
        config: {}
      gamma_regularizer: null
      momentum: 0.99
      moving_mean_initializer:
        class_name: Zeros
        config: {}
      moving_variance_initializer:
        class_name: Ones
        config: {}
      name: batch_normalization_364
      scale: false
      trainable: true
    inbound_nodes:
    - - - conv2d_364
        - 0
        - 0
        - {}
    name: batch_normalization_364
  - class_name: BatchNormalization
    config:
      axis: 3
      beta_constraint: null
      beta_initializer:
        class_name: Zeros
        config: {}
      beta_regularizer: null
      center: true
      epsilon: 0.001
      gamma_constraint: null
      gamma_initializer:
        class_name: Ones
        config: {}
      gamma_regularizer: null
      momentum: 0.99
      moving_mean_initializer:
        class_name: Zeros
        config: {}
      moving_variance_initializer:
        class_name: Ones
        config: {}
      name: batch_normalization_366
      scale: false
      trainable: true
    inbound_nodes:
    - - - conv2d_366
        - 0
        - 0
        - {}
    name: batch_normalization_366
  - class_name: BatchNormalization
    config:
      axis: 3
      beta_constraint: null
      beta_initializer:
        class_name: Zeros
        config: {}
      beta_regularizer: null
      center: true
      epsilon: 0.001
      gamma_constraint: null
      gamma_initializer:
        class_name: Ones
        config: {}
      gamma_regularizer: null
      momentum: 0.99
      moving_mean_initializer:
        class_name: Zeros
        config: {}
      moving_variance_initializer:
        class_name: Ones
        config: {}
      name: batch_normalization_369
      scale: false
      trainable: true
    inbound_nodes:
    - - - conv2d_369
        - 0
        - 0
        - {}
    name: batch_normalization_369
  - class_name: Activation
    config: {activation: relu, name: activation_551, trainable: true}
    inbound_nodes:
    - - - batch_normalization_364
        - 0
        - 0
        - {}
    name: activation_551
  - class_name: Activation
    config: {activation: relu, name: activation_553, trainable: true}
    inbound_nodes:
    - - - batch_normalization_366
        - 0
        - 0
        - {}
    name: activation_553
  - class_name: Activation
    config: {activation: relu, name: activation_556, trainable: true}
    inbound_nodes:
    - - - batch_normalization_369
        - 0
        - 0
        - {}
    name: activation_556
  - class_name: Concatenate
    config: {axis: 3, name: block35_10_mixed, trainable: true}
    inbound_nodes:
    - - - activation_551
        - 0
        - 0
        - &id021 {}
      - - activation_553
        - 0
        - 0
        - *id021
      - - activation_556
        - 0
        - 0
        - *id021
    name: block35_10_mixed
  - class_name: Conv2D
    config:
      activation: linear
      activity_regularizer: null
      bias_constraint: null
      bias_initializer:
        class_name: Zeros
        config: {}
      bias_regularizer: null
      data_format: channels_last
      dilation_rate: *id001
      filters: 320
      kernel_constraint: null
      kernel_initializer:
        class_name: VarianceScaling
        config: {distribution: uniform, mode: fan_avg, scale: 1.0, seed: null}
      kernel_regularizer: null
      kernel_size: !!python/tuple [1, 1]
      name: block35_10_conv
      padding: same
      strides: !!python/tuple [1, 1]
      trainable: true
      use_bias: true
    inbound_nodes:
    - - - block35_10_mixed
        - 0
        - 0
        - {}
    name: block35_10_conv
  - class_name: Lambda
    config:
      arguments: {scale: 0.17}
      function: !!python/tuple ['4wIAAAAAAAAAAgAAAAMAAABTAAAAcxQAAAB8AGQBGQB8AGQCGQB8ARQAFwBTACkDTukAAAAA6QEA

          AACpACkC2gZpbnB1dHPaBXNjYWxlcgMAAAByAwAAAPqAL2hvbWUvamFpZGV2ZC9hbmFjb25kYTMv

          bGliL3B5dGhvbjMuNi9zaXRlLXBhY2thZ2VzL0tlcmFzX0FwcGxpY2F0aW9ucy0xLjAuNC1weTMu

          Ni5lZ2cva2VyYXNfYXBwbGljYXRpb25zL2luY2VwdGlvbl9yZXNuZXRfdjIucHnaCDxsYW1iZGE+

          qgAAAPMAAAAA

          ', null, null]
      function_type: lambda
      name: block35_10
      output_shape: !!python/tuple [null, null, 320]
      output_shape_type: raw
      trainable: true
    inbound_nodes:
    - - - block35_9_ac
        - 0
        - 0
        - &id022 {}
      - - block35_10_conv
        - 0
        - 0
        - *id022
    name: block35_10
  - class_name: Activation
    config: {activation: relu, name: block35_10_ac, trainable: true}
    inbound_nodes:
    - - - block35_10
        - 0
        - 0
        - {}
    name: block35_10_ac
  - class_name: Conv2D
    config:
      activation: linear
      activity_regularizer: null
      bias_constraint: null
      bias_initializer:
        class_name: Zeros
        config: {}
      bias_regularizer: null
      data_format: channels_last
      dilation_rate: *id001
      filters: 256
      kernel_constraint: null
      kernel_initializer:
        class_name: VarianceScaling
        config: {distribution: uniform, mode: fan_avg, scale: 1.0, seed: null}
      kernel_regularizer: null
      kernel_size: !!python/tuple [1, 1]
      name: conv2d_371
      padding: same
      strides: !!python/tuple [1, 1]
      trainable: true
      use_bias: false
    inbound_nodes:
    - - - block35_10_ac
        - 0
        - 0
        - {}
    name: conv2d_371
  - class_name: BatchNormalization
    config:
      axis: 3
      beta_constraint: null
      beta_initializer:
        class_name: Zeros
        config: {}
      beta_regularizer: null
      center: true
      epsilon: 0.001
      gamma_constraint: null
      gamma_initializer:
        class_name: Ones
        config: {}
      gamma_regularizer: null
      momentum: 0.99
      moving_mean_initializer:
        class_name: Zeros
        config: {}
      moving_variance_initializer:
        class_name: Ones
        config: {}
      name: batch_normalization_371
      scale: false
      trainable: true
    inbound_nodes:
    - - - conv2d_371
        - 0
        - 0
        - {}
    name: batch_normalization_371
  - class_name: Activation
    config: {activation: relu, name: activation_558, trainable: true}
    inbound_nodes:
    - - - batch_normalization_371
        - 0
        - 0
        - {}
    name: activation_558
  - class_name: Conv2D
    config:
      activation: linear
      activity_regularizer: null
      bias_constraint: null
      bias_initializer:
        class_name: Zeros
        config: {}
      bias_regularizer: null
      data_format: channels_last
      dilation_rate: *id001
      filters: 256
      kernel_constraint: null
      kernel_initializer:
        class_name: VarianceScaling
        config: {distribution: uniform, mode: fan_avg, scale: 1.0, seed: null}
      kernel_regularizer: null
      kernel_size: !!python/tuple [3, 3]
      name: conv2d_372
      padding: same
      strides: !!python/tuple [1, 1]
      trainable: true
      use_bias: false
    inbound_nodes:
    - - - activation_558
        - 0
        - 0
        - {}
    name: conv2d_372
  - class_name: BatchNormalization
    config:
      axis: 3
      beta_constraint: null
      beta_initializer:
        class_name: Zeros
        config: {}
      beta_regularizer: null
      center: true
      epsilon: 0.001
      gamma_constraint: null
      gamma_initializer:
        class_name: Ones
        config: {}
      gamma_regularizer: null
      momentum: 0.99
      moving_mean_initializer:
        class_name: Zeros
        config: {}
      moving_variance_initializer:
        class_name: Ones
        config: {}
      name: batch_normalization_372
      scale: false
      trainable: true
    inbound_nodes:
    - - - conv2d_372
        - 0
        - 0
        - {}
    name: batch_normalization_372
  - class_name: Activation
    config: {activation: relu, name: activation_559, trainable: true}
    inbound_nodes:
    - - - batch_normalization_372
        - 0
        - 0
        - {}
    name: activation_559
  - class_name: Conv2D
    config:
      activation: linear
      activity_regularizer: null
      bias_constraint: null
      bias_initializer:
        class_name: Zeros
        config: {}
      bias_regularizer: null
      data_format: channels_last
      dilation_rate: *id001
      filters: 384
      kernel_constraint: null
      kernel_initializer:
        class_name: VarianceScaling
        config: {distribution: uniform, mode: fan_avg, scale: 1.0, seed: null}
      kernel_regularizer: null
      kernel_size: !!python/tuple [3, 3]
      name: conv2d_370
      padding: valid
      strides: !!python/tuple [2, 2]
      trainable: true
      use_bias: false
    inbound_nodes:
    - - - block35_10_ac
        - 0
        - 0
        - {}
    name: conv2d_370
  - class_name: Conv2D
    config:
      activation: linear
      activity_regularizer: null
      bias_constraint: null
      bias_initializer:
        class_name: Zeros
        config: {}
      bias_regularizer: null
      data_format: channels_last
      dilation_rate: *id001
      filters: 384
      kernel_constraint: null
      kernel_initializer:
        class_name: VarianceScaling
        config: {distribution: uniform, mode: fan_avg, scale: 1.0, seed: null}
      kernel_regularizer: null
      kernel_size: !!python/tuple [3, 3]
      name: conv2d_373
      padding: valid
      strides: !!python/tuple [2, 2]
      trainable: true
      use_bias: false
    inbound_nodes:
…
        config: {}
      moving_variance_initializer:
        class_name: Ones
        config: {}
      name: batch_normalization_477
      scale: false
      trainable: true
    inbound_nodes:
    - - - conv2d_477
        - 0
        - 0
        - {}
    name: batch_normalization_477
  - class_name: BatchNormalization
    config:
      axis: 3
      beta_constraint: null
      beta_initializer:
        class_name: Zeros
        config: {}
      beta_regularizer: null
      center: true
      epsilon: 0.001
      gamma_constraint: null
      gamma_initializer:
        class_name: Ones
        config: {}
      gamma_regularizer: null
      momentum: 0.99
      moving_mean_initializer:
        class_name: Zeros
        config: {}
      moving_variance_initializer:
        class_name: Ones
        config: {}
      name: batch_normalization_480
      scale: false
      trainable: true
    inbound_nodes:
    - - - conv2d_480
        - 0
        - 0
        - {}
    name: batch_normalization_480
  - class_name: Activation
    config: {activation: relu, name: activation_664, trainable: true}
    inbound_nodes:
    - - - batch_normalization_477
        - 0
        - 0
        - {}
    name: activation_664
  - class_name: Activation
    config: {activation: relu, name: activation_667, trainable: true}
    inbound_nodes:
    - - - batch_normalization_480
        - 0
        - 0
        - {}
    name: activation_667
  - class_name: Concatenate
    config: {axis: 3, name: block8_5_mixed, trainable: true}
    inbound_nodes:
    - - - activation_664
        - 0
        - 0
        - &id073 {}
      - - activation_667
        - 0
        - 0
        - *id073
    name: block8_5_mixed
  - class_name: Conv2D
    config:
      activation: linear
      activity_regularizer: null
      bias_constraint: null
      bias_initializer:
        class_name: Zeros
        config: {}
      bias_regularizer: null
      data_format: channels_last
      dilation_rate: *id001
      filters: 2080
      kernel_constraint: null
      kernel_initializer:
        class_name: VarianceScaling
        config: {distribution: uniform, mode: fan_avg, scale: 1.0, seed: null}
      kernel_regularizer: null
      kernel_size: !!python/tuple [1, 1]
      name: block8_5_conv
      padding: same
      strides: !!python/tuple [1, 1]
      trainable: true
      use_bias: true
    inbound_nodes:
    - - - block8_5_mixed
        - 0
        - 0
        - {}
    name: block8_5_conv
  - class_name: Lambda
    config:
      arguments: {scale: 0.2}
      function: !!python/tuple ['4wIAAAAAAAAAAgAAAAMAAABTAAAAcxQAAAB8AGQBGQB8AGQCGQB8ARQAFwBTACkDTukAAAAA6QEA

          AACpACkC2gZpbnB1dHPaBXNjYWxlcgMAAAByAwAAAPqAL2hvbWUvamFpZGV2ZC9hbmFjb25kYTMv

          bGliL3B5dGhvbjMuNi9zaXRlLXBhY2thZ2VzL0tlcmFzX0FwcGxpY2F0aW9ucy0xLjAuNC1weTMu

          Ni5lZ2cva2VyYXNfYXBwbGljYXRpb25zL2luY2VwdGlvbl9yZXNuZXRfdjIucHnaCDxsYW1iZGE+

          qgAAAPMAAAAA

          ', null, null]
      function_type: lambda
      name: block8_5
      output_shape: !!python/tuple [null, null, 2080]
      output_shape_type: raw
      trainable: true
    inbound_nodes:
    - - - block8_4_ac
        - 0
        - 0
        - &id074 {}
      - - block8_5_conv
        - 0
        - 0
        - *id074
    name: block8_5
  - class_name: Activation
    config: {activation: relu, name: block8_5_ac, trainable: true}
    inbound_nodes:
    - - - block8_5
        - 0
        - 0
        - {}
    name: block8_5_ac
  - class_name: Conv2D
    config:
      activation: linear
      activity_regularizer: null
      bias_constraint: null
      bias_initializer:
        class_name: Zeros
        config: {}
      bias_regularizer: null
      data_format: channels_last
      dilation_rate: *id001
      filters: 192
      kernel_constraint: null
      kernel_initializer:
        class_name: VarianceScaling
        config: {distribution: uniform, mode: fan_avg, scale: 1.0, seed: null}
      kernel_regularizer: null
      kernel_size: !!python/tuple [1, 1]
      name: conv2d_482
      padding: same
      strides: !!python/tuple [1, 1]
      trainable: true
      use_bias: false
    inbound_nodes:
    - - - block8_5_ac
        - 0
        - 0
        - {}
    name: conv2d_482
  - class_name: BatchNormalization
    config:
      axis: 3
      beta_constraint: null
      beta_initializer:
        class_name: Zeros
        config: {}
      beta_regularizer: null
      center: true
      epsilon: 0.001
      gamma_constraint: null
      gamma_initializer:
        class_name: Ones
        config: {}
      gamma_regularizer: null
      momentum: 0.99
      moving_mean_initializer:
        class_name: Zeros
        config: {}
      moving_variance_initializer:
        class_name: Ones
        config: {}
      name: batch_normalization_482
      scale: false
      trainable: true
    inbound_nodes:
    - - - conv2d_482
        - 0
        - 0
        - {}
    name: batch_normalization_482
  - class_name: Activation
    config: {activation: relu, name: activation_669, trainable: true}
    inbound_nodes:
    - - - batch_normalization_482
        - 0
        - 0
        - {}
    name: activation_669
  - class_name: Conv2D
    config:
      activation: linear
      activity_regularizer: null
      bias_constraint: null
      bias_initializer:
        class_name: Zeros
        config: {}
      bias_regularizer: null
      data_format: channels_last
      dilation_rate: *id001
      filters: 224
      kernel_constraint: null
      kernel_initializer:
        class_name: VarianceScaling
        config: {distribution: uniform, mode: fan_avg, scale: 1.0, seed: null}
      kernel_regularizer: null
      kernel_size: !!python/tuple [1, 3]
      name: conv2d_483
      padding: same
      strides: !!python/tuple [1, 1]
      trainable: true
      use_bias: false
    inbound_nodes:
    - - - activation_669
        - 0
        - 0
        - {}
    name: conv2d_483
  - class_name: BatchNormalization
    config:
      axis: 3
      beta_constraint: null
      beta_initializer:
        class_name: Zeros
        config: {}
      beta_regularizer: null
      center: true
      epsilon: 0.001
      gamma_constraint: null
      gamma_initializer:
        class_name: Ones
        config: {}
      gamma_regularizer: null
      momentum: 0.99
      moving_mean_initializer:
        class_name: Zeros
        config: {}
      moving_variance_initializer:
        class_name: Ones
        config: {}
      name: batch_normalization_483
      scale: false
      trainable: true
    inbound_nodes:
    - - - conv2d_483
        - 0
        - 0
        - {}
    name: batch_normalization_483
  - class_name: Activation
    config: {activation: relu, name: activation_670, trainable: true}
    inbound_nodes:
    - - - batch_normalization_483
        - 0
        - 0
        - {}
    name: activation_670
  - class_name: Conv2D
    config:
      activation: linear
      activity_regularizer: null
      bias_constraint: null
      bias_initializer:
        class_name: Zeros
        config: {}
      bias_regularizer: null
      data_format: channels_last
      dilation_rate: *id001
      filters: 192
      kernel_constraint: null
      kernel_initializer:
        class_name: VarianceScaling
        config: {distribution: uniform, mode: fan_avg, scale: 1.0, seed: null}
      kernel_regularizer: null
      kernel_size: !!python/tuple [1, 1]
      name: conv2d_481
      padding: same
      strides: !!python/tuple [1, 1]
      trainable: true
      use_bias: false
    inbound_nodes:
    - - - block8_5_ac
        - 0
        - 0
        - {}
    name: conv2d_481
  - class_name: Conv2D
    config:
      activation: linear
      activity_regularizer: null
      bias_constraint: null
      bias_initializer:
        class_name: Zeros
        config: {}
      bias_regularizer: null
      data_format: channels_last
      dilation_rate: *id001
      filters: 256
      kernel_constraint: null
      kernel_initializer:
        class_name: VarianceScaling
        config: {distribution: uniform, mode: fan_avg, scale: 1.0, seed: null}
      kernel_regularizer: null
      kernel_size: !!python/tuple [3, 1]
      name: conv2d_484
      padding: same
      strides: !!python/tuple [1, 1]
      trainable: true
      use_bias: false
    inbound_nodes:
    - - - activation_670
        - 0
        - 0
        - {}
    name: conv2d_484
  - class_name: BatchNormalization
    config:
      axis: 3
      beta_constraint: null
      beta_initializer:
        class_name: Zeros
        config: {}
      beta_regularizer: null
      center: true
      epsilon: 0.001
      gamma_constraint: null
      gamma_initializer:
        class_name: Ones
        config: {}
      gamma_regularizer: null
      momentum: 0.99
      moving_mean_initializer:
        class_name: Zeros
        config: {}
      moving_variance_initializer:
        class_name: Ones
        config: {}
      name: batch_normalization_481
      scale: false
      trainable: true
    inbound_nodes:
    - - - conv2d_481
        - 0
        - 0
        - {}
    name: batch_normalization_481
  - class_name: BatchNormalization
    config:
      axis: 3
      beta_constraint: null
      beta_initializer:
        class_name: Zeros
        config: {}
      beta_regularizer: null
      center: true
      epsilon: 0.001
      gamma_constraint: null
      gamma_initializer:
        class_name: Ones
        config: {}
      gamma_regularizer: null
      momentum: 0.99
      moving_mean_initializer:
        class_name: Zeros
        config: {}
      moving_variance_initializer:
        class_name: Ones
        config: {}
      name: batch_normalization_484
      scale: false
      trainable: true
    inbound_nodes:
    - - - conv2d_484
        - 0
        - 0
        - {}
    name: batch_normalization_484
  - class_name: Activation
    config: {activation: relu, name: activation_668, trainable: true}
    inbound_nodes:
    - - - batch_normalization_481
        - 0
        - 0
        - {}
    name: activation_668
  - class_name: Activation
    config: {activation: relu, name: activation_671, trainable: true}
    inbound_nodes:
    - - - batch_normalization_484
        - 0
        - 0
        - {}
    name: activation_671
  - class_name: Concatenate
    config: {axis: 3, name: block8_6_mixed, trainable: true}
    inbound_nodes:
    - - - activation_668
        - 0
        - 0
        - &id075 {}
      - - activation_671
        - 0
        - 0
        - *id075
    name: block8_6_mixed
  - class_name: Conv2D
    config:
      activation: linear
      activity_regularizer: null
      bias_constraint: null
      bias_initializer:
        class_name: Zeros
        config: {}
      bias_regularizer: null
      data_format: channels_last
      dilation_rate: *id001
      filters: 2080
      kernel_constraint: null
      kernel_initializer:
        class_name: VarianceScaling
        config: {distribution: uniform, mode: fan_avg, scale: 1.0, seed: null}
      kernel_regularizer: null
      kernel_size: !!python/tuple [1, 1]
      name: block8_6_conv
      padding: same
      strides: !!python/tuple [1, 1]
      trainable: true
      use_bias: true
    inbound_nodes:
    - - - block8_6_mixed
        - 0
        - 0
        - {}
    name: block8_6_conv
  - class_name: Lambda
    config:
      arguments: {scale: 0.2}
      function: !!python/tuple ['4wIAAAAAAAAAAgAAAAMAAABTAAAAcxQAAAB8AGQBGQB8AGQCGQB8ARQAFwBTACkDTukAAAAA6QEA

          AACpACkC2gZpbnB1dHPaBXNjYWxlcgMAAAByAwAAAPqAL2hvbWUvamFpZGV2ZC9hbmFjb25kYTMv

          bGliL3B5dGhvbjMuNi9zaXRlLXBhY2thZ2VzL0tlcmFzX0FwcGxpY2F0aW9ucy0xLjAuNC1weTMu

          Ni5lZ2cva2VyYXNfYXBwbGljYXRpb25zL2luY2VwdGlvbl9yZXNuZXRfdjIucHnaCDxsYW1iZGE+

          qgAAAPMAAAAA

          ', null, null]
      function_type: lambda
      name: block8_6
      output_shape: !!python/tuple [null, null, 2080]
      output_shape_type: raw
      trainable: true
    inbound_nodes:
    - - - block8_5_ac
        - 0
        - 0
        - &id076 {}
      - - block8_6_conv
        - 0
        - 0
        - *id076
    name: block8_6
  - class_name: Activation
    config: {activation: relu, name: block8_6_ac, trainable: true}
    inbound_nodes:
    - - - block8_6
        - 0
        - 0
        - {}
    name: block8_6_ac
  - class_name: Conv2D
    config:
      activation: linear
      activity_regularizer: null
      bias_constraint: null
      bias_initializer:
        class_name: Zeros
        config: {}
      bias_regularizer: null
      data_format: channels_last
      dilation_rate: *id001
      filters: 192
      kernel_constraint: null
      kernel_initializer:
        class_name: VarianceScaling
        config: {distribution: uniform, mode: fan_avg, scale: 1.0, seed: null}
      kernel_regularizer: null
      kernel_size: !!python/tuple [1, 1]
      name: conv2d_486
      padding: same
      strides: !!python/tuple [1, 1]
      trainable: true
      use_bias: false
    inbound_nodes:
    - - - block8_6_ac
        - 0
        - 0
        - {}
    name: conv2d_486
  - class_name: BatchNormalization
    config:
      axis: 3
      beta_constraint: null
      beta_initializer:
        class_name: Zeros
        config: {}
      beta_regularizer: null
      center: true
      epsilon: 0.001
      gamma_constraint: null
      gamma_initializer:
        class_name: Ones
        config: {}
      gamma_regularizer: null
      momentum: 0.99
      moving_mean_initializer:
        class_name: Zeros
        config: {}
      moving_variance_initializer:
        class_name: Ones
        config: {}
      name: batch_normalization_486
      scale: false
      trainable: true
    inbound_nodes:
    - - - conv2d_486
        - 0
        - 0
        - {}
    name: batch_normalization_486
  - class_name: Activation
    config: {activation: relu, name: activation_673, trainable: true}
    inbound_nodes:
    - - - batch_normalization_486
        - 0
        - 0
        - {}
    name: activation_673
  - class_name: Conv2D
    config:
      activation: linear
      activity_regularizer: null
      bias_constraint: null
      bias_initializer:
        class_name: Zeros
        config: {}
      bias_regularizer: null
      data_format: channels_last
      dilation_rate: *id001
      filters: 224
      kernel_constraint: null
      kernel_initializer:
        class_name: VarianceScaling
        config: {distribution: uniform, mode: fan_avg, scale: 1.0, seed: null}
      kernel_regularizer: null
      kernel_size: !!python/tuple [1, 3]
      name: conv2d_487
      padding: same
      strides: !!python/tuple [1, 1]
      trainable: true
      use_bias: false
    inbound_nodes:
    - - - activation_673
        - 0
        - 0
        - {}
    name: conv2d_487
  - class_name: BatchNormalization
    config:
      axis: 3
      beta_constraint: null
      beta_initializer:
        class_name: Zeros
        config: {}
      beta_regularizer: null
      center: true
      epsilon: 0.001
      gamma_constraint: null
      gamma_initializer:
        class_name: Ones
        config: {}
      gamma_regularizer: null
      momentum: 0.99
      moving_mean_initializer:
        class_name: Zeros
        config: {}
      moving_variance_initializer:
        class_name: Ones
        config: {}
      name: batch_normalization_487
      scale: false
      trainable: true
    inbound_nodes:
    - - - conv2d_487
        - 0
        - 0
        - {}
    name: batch_normalization_487
  - class_name: Activation
    config: {activation: relu, name: activation_674, trainable: true}
    inbound_nodes:
    - - - batch_normalization_487
        - 0
        - 0
        - {}
    name: activation_674
  - class_name: Conv2D
    config:
      activation: linear
      activity_regularizer: null
      bias_constraint: null
      bias_initializer:
        class_name: Zeros
        config: {}
      bias_regularizer: null
      data_format: channels_last
      dilation_rate: *id001
      filters: 192
      kernel_constraint: null
      kernel_initializer:
        class_name: VarianceScaling
        config: {distribution: uniform, mode: fan_avg, scale: 1.0, seed: null}
      kernel_regularizer: null
      kernel_size: !!python/tuple [1, 1]
      name: conv2d_485
      padding: same
      strides: !!python/tuple [1, 1]
      trainable: true
      use_bias: false
    inbound_nodes:
    - - - block8_6_ac
        - 0
        - 0
        - {}
    name: conv2d_485
  - class_name: Conv2D
    config:
      activation: linear
      activity_regularizer: null
      bias_constraint: null
      bias_initializer:
        class_name: Zeros
        config: {}
      bias_regularizer: null
      data_format: channels_last
      dilation_rate: *id001
      filters: 256
      kernel_constraint: null
      kernel_initializer:
        class_name: VarianceScaling
        config: {distribution: uniform, mode: fan_avg, scale: 1.0, seed: null}
      kernel_regularizer: null
      kernel_size: !!python/tuple [3, 1]
      name: conv2d_488
      padding: same
      strides: !!python/tuple [1, 1]
      trainable: true
      use_bias: false
    inbound_nodes:
    - - - activation_674
        - 0
        - 0
        - {}
    name: conv2d_488
  - class_name: BatchNormalization
    config:
      axis: 3
      beta_constraint: null
      beta_initializer:
        class_name: Zeros
        config: {}
      beta_regularizer: null
      center: true
      epsilon: 0.001
      gamma_constraint: null
      gamma_initializer:
        class_name: Ones
        config: {}
      gamma_regularizer: null
      momentum: 0.99
      moving_mean_initializer:
        class_name: Zeros
        config: {}
      moving_variance_initializer:
        class_name: Ones
        config: {}
      name: batch_normalization_485
      scale: false
      trainable: true
    inbound_nodes:
    - - - conv2d_485
        - 0
        - 0
        - {}
    name: batch_normalization_485
  - class_name: BatchNormalization
    config:
      axis: 3
      beta_constraint: null
      beta_initializer:
        class_name: Zeros
        config: {}
      beta_regularizer: null
      center: true
      epsilon: 0.001
      gamma_constraint: null
      gamma_initializer:
        class_name: Ones
        config: {}
      gamma_regularizer: null
      momentum: 0.99
      moving_mean_initializer:
        class_name: Zeros
        config: {}
      moving_variance_initializer:
        class_name: Ones
        config: {}
      name: batch_normalization_488
      scale: false
      trainable: true
    inbound_nodes:
    - - - conv2d_488
        - 0
        - 0
        - {}
    name: batch_normalization_488
  - class_name: Activation
    config: {activation: relu, name: activation_672, trainable: true}
    inbound_nodes:
    - - - batch_normalization_485
        - 0
        - 0
        - {}
    name: activation_672
  - class_name: Activation
    config: {activation: relu, name: activation_675, trainable: true}
    inbound_nodes:
    - - - batch_normalization_488
        - 0
        - 0
        - {}
    name: activation_675
  - class_name: Concatenate
    config: {axis: 3, name: block8_7_mixed, trainable: true}
    inbound_nodes:
    - - - activation_672
        - 0
        - 0
        - &id077 {}
      - - activation_675
        - 0
        - 0
        - *id077
    name: block8_7_mixed
  - class_name: Conv2D
    config:
      activation: linear
      activity_regularizer: null
      bias_constraint: null
      bias_initializer:
        class_name: Zeros
        config: {}
      bias_regularizer: null
      data_format: channels_last
      dilation_rate: *id001
      filters: 2080
      kernel_constraint: null
      kernel_initializer:
        class_name: VarianceScaling
        config: {distribution: uniform, mode: fan_avg, scale: 1.0, seed: null}
      kernel_regularizer: null
      kernel_size: !!python/tuple [1, 1]
      name: block8_7_conv
      padding: same
      strides: !!python/tuple [1, 1]
      trainable: true
      use_bias: true
    inbound_nodes:
    - - - block8_7_mixed
        - 0
        - 0
        - {}
    name: block8_7_conv
  - class_name: Lambda
    config:
      arguments: {scale: 0.2}
      function: !!python/tuple ['4wIAAAAAAAAAAgAAAAMAAABTAAAAcxQAAAB8AGQBGQB8AGQCGQB8ARQAFwBTACkDTukAAAAA6QEA

          AACpACkC2gZpbnB1dHPaBXNjYWxlcgMAAAByAwAAAPqAL2hvbWUvamFpZGV2ZC9hbmFjb25kYTMv

          bGliL3B5dGhvbjMuNi9zaXRlLXBhY2thZ2VzL0tlcmFzX0FwcGxpY2F0aW9ucy0xLjAuNC1weTMu

          Ni5lZ2cva2VyYXNfYXBwbGljYXRpb25zL2luY2VwdGlvbl9yZXNuZXRfdjIucHnaCDxsYW1iZGE+

          qgAAAPMAAAAA

          ', null, null]
      function_type: lambda
      name: block8_7
      output_shape: !!python/tuple [null, null, 2080]
      output_shape_type: raw
      trainable: true
    inbound_nodes:
    - - - block8_6_ac
        - 0
        - 0
        - &id078 {}
      - - block8_7_conv
        - 0
        - 0
        - *id078
    name: block8_7
  - class_name: Activation
    config: {activation: relu, name: block8_7_ac, trainable: true}
    inbound_nodes:
    - - - block8_7
        - 0
        - 0
        - {}
    name: block8_7_ac
  - class_name: Conv2D
    config:
      activation: linear
      activity_regularizer: null
      bias_constraint: null
      bias_initializer:
        class_name: Zeros
        config: {}
      bias_regularizer: null
      data_format: channels_last
      dilation_rate: *id001
      filters: 192
      kernel_constraint: null
      kernel_initializer:
        class_name: VarianceScaling
        config: {distribution: uniform, mode: fan_avg, scale: 1.0, seed: null}
      kernel_regularizer: null
      kernel_size: !!python/tuple [1, 1]
      name: conv2d_490
      padding: same
      strides: !!python/tuple [1, 1]
      trainable: true
      use_bias: false
    inbound_nodes:
    - - - block8_7_ac
        - 0
        - 0
        - {}
    name: conv2d_490
  - class_name: BatchNormalization
    config:
      axis: 3
      beta_constraint: null
      beta_initializer:
        class_name: Zeros
        config: {}
      beta_regularizer: null
      center: true
      epsilon: 0.001
      gamma_constraint: null
      gamma_initializer:
        class_name: Ones
        config: {}
      gamma_regularizer: null
      momentum: 0.99
      moving_mean_initializer:
        class_name: Zeros
        config: {}
      moving_variance_initializer:
        class_name: Ones
        config: {}
      name: batch_normalization_490
      scale: false
      trainable: true
    inbound_nodes:
    - - - conv2d_490
        - 0
        - 0
        - {}
    name: batch_normalization_490
  - class_name: Activation
    config: {activation: relu, name: activation_677, trainable: true}
    inbound_nodes:
    - - - batch_normalization_490
        - 0
        - 0
        - {}
    name: activation_677
  - class_name: Conv2D
    config:
      activation: linear
      activity_regularizer: null
      bias_constraint: null
      bias_initializer:
        class_name: Zeros
        config: {}
      bias_regularizer: null
      data_format: channels_last
      dilation_rate: *id001
      filters: 224
      kernel_constraint: null
      kernel_initializer:
        class_name: VarianceScaling
        config: {distribution: uniform, mode: fan_avg, scale: 1.0, seed: null}
      kernel_regularizer: null
      kernel_size: !!python/tuple [1, 3]
      name: conv2d_491
      padding: same
      strides: !!python/tuple [1, 1]
      trainable: true
      use_bias: false
    inbound_nodes:
    - - - activation_677
        - 0
        - 0
        - {}
    name: conv2d_491
  - class_name: BatchNormalization
    config:
      axis: 3
      beta_constraint: null
      beta_initializer:
        class_name: Zeros
        config: {}
      beta_regularizer: null
      center: true
      epsilon: 0.001
      gamma_constraint: null
      gamma_initializer:
        class_name: Ones
        config: {}
      gamma_regularizer: null
      momentum: 0.99
      moving_mean_initializer:
        class_name: Zeros
        config: {}
      moving_variance_initializer:
        class_name: Ones
        config: {}
      name: batch_normalization_491
      scale: false
      trainable: true
    inbound_nodes:
    - - - conv2d_491
        - 0
        - 0
        - {}
    name: batch_normalization_491
  - class_name: Activation
    config: {activation: relu, name: activation_678, trainable: true}
    inbound_nodes:
    - - - batch_normalization_491
        - 0
        - 0
        - {}
    name: activation_678
  - class_name: Conv2D
    config:
      activation: linear
      activity_regularizer: null
      bias_constraint: null
      bias_initializer:
        class_name: Zeros
        config: {}
      bias_regularizer: null
      data_format: channels_last
      dilation_rate: *id001
      filters: 192
      kernel_constraint: null
      kernel_initializer:
        class_name: VarianceScaling
        config: {distribution: uniform, mode: fan_avg, scale: 1.0, seed: null}
      kernel_regularizer: null
      kernel_size: !!python/tuple [1, 1]
      name: conv2d_489
      padding: same
      strides: !!python/tuple [1, 1]
      trainable: true
      use_bias: false
    inbound_nodes:
    - - - block8_7_ac
        - 0
        - 0
        - {}
    name: conv2d_489
  - class_name: Conv2D
    config:
      activation: linear
      activity_regularizer: null
      bias_constraint: null
      bias_initializer:
        class_name: Zeros
        config: {}
      bias_regularizer: null
      data_format: channels_last
      dilation_rate: *id001
      filters: 256
      kernel_constraint: null
      kernel_initializer:
        class_name: VarianceScaling
        config: {distribution: uniform, mode: fan_avg, scale: 1.0, seed: null}
      kernel_regularizer: null
      kernel_size: !!python/tuple [3, 1]
      name: conv2d_492
      padding: same
      strides: !!python/tuple [1, 1]
      trainable: true
      use_bias: false
    inbound_nodes:
    - - - activation_678
        - 0
        - 0
        - {}
    name: conv2d_492
  - class_name: BatchNormalization
    config:
      axis: 3
      beta_constraint: null
      beta_initializer:
        class_name: Zeros
        config: {}
      beta_regularizer: null
      center: true
      epsilon: 0.001
      gamma_constraint: null
      gamma_initializer:
        class_name: Ones
        config: {}
      gamma_regularizer: null
      momentum: 0.99
      moving_mean_initializer:
        class_name: Zeros
        config: {}
      moving_variance_initializer:
        class_name: Ones
        config: {}
      name: batch_normalization_489
      scale: false
      trainable: true
    inbound_nodes:
    - - - conv2d_489
        - 0
        - 0
        - {}
    name: batch_normalization_489
  - class_name: BatchNormalization
    config:
      axis: 3
      beta_constraint: null
      beta_initializer:
        class_name: Zeros
        config: {}
      beta_regularizer: null
      center: true
      epsilon: 0.001
      gamma_constraint: null
      gamma_initializer:
        class_name: Ones
        config: {}
      gamma_regularizer: null
      momentum: 0.99
      moving_mean_initializer:
        class_name: Zeros
        config: {}
      moving_variance_initializer:
        class_name: Ones
        config: {}
      name: batch_normalization_492
      scale: false
      trainable: true
    inbound_nodes:
    - - - conv2d_492
        - 0
        - 0
        - {}
    name: batch_normalization_492
  - class_name: Activation
    config: {activation: relu, name: activation_676, trainable: true}
    inbound_nodes:
    - - - batch_normalization_489
        - 0
        - 0
        - {}
    name: activation_676
  - class_name: Activation
    config: {activation: relu, name: activation_679, trainable: true}
    inbound_nodes:
    - - - batch_normalization_492
        - 0
        - 0
        - {}
    name: activation_679
  - class_name: Concatenate
    config: {axis: 3, name: block8_8_mixed, trainable: true}
    inbound_nodes:
    - - - activation_676
        - 0
        - 0
        - &id079 {}
      - - activation_679
        - 0
        - 0
        - *id079
    name: block8_8_mixed
  - class_name: Conv2D
    config:
      activation: linear
      activity_regularizer: null
      bias_constraint: null
      bias_initializer:
        class_name: Zeros
        config: {}
      bias_regularizer: null
      data_format: channels_last
      dilation_rate: *id001
      filters: 2080
      kernel_constraint: null
      kernel_initializer:
        class_name: VarianceScaling
        config: {distribution: uniform, mode: fan_avg, scale: 1.0, seed: null}
      kernel_regularizer: null
      kernel_size: !!python/tuple [1, 1]
      name: block8_8_conv
      padding: same
      strides: !!python/tuple [1, 1]
      trainable: true
      use_bias: true
    inbound_nodes:
    - - - block8_8_mixed
        - 0
        - 0
        - {}
    name: block8_8_conv
  - class_name: Lambda
    config:
      arguments: {scale: 0.2}
      function: !!python/tuple ['4wIAAAAAAAAAAgAAAAMAAABTAAAAcxQAAAB8AGQBGQB8AGQCGQB8ARQAFwBTACkDTukAAAAA6QEA

          AACpACkC2gZpbnB1dHPaBXNjYWxlcgMAAAByAwAAAPqAL2hvbWUvamFpZGV2ZC9hbmFjb25kYTMv

          bGliL3B5dGhvbjMuNi9zaXRlLXBhY2thZ2VzL0tlcmFzX0FwcGxpY2F0aW9ucy0xLjAuNC1weTMu

          Ni5lZ2cva2VyYXNfYXBwbGljYXRpb25zL2luY2VwdGlvbl9yZXNuZXRfdjIucHnaCDxsYW1iZGE+

          qgAAAPMAAAAA

          ', null, null]
      function_type: lambda
      name: block8_8
      output_shape: !!python/tuple [null, null, 2080]
      output_shape_type: raw
      trainable: true
    inbound_nodes:
    - - - block8_7_ac
        - 0
        - 0
        - &id080 {}
      - - block8_8_conv
        - 0
        - 0
        - *id080
    name: block8_8
  - class_name: Activation
    config: {activation: relu, name: block8_8_ac, trainable: true}
    inbound_nodes:
    - - - block8_8
        - 0
        - 0
        - {}
    name: block8_8_ac
  - class_name: Conv2D
    config:
      activation: linear
      activity_regularizer: null
      bias_constraint: null
      bias_initializer:
        class_name: Zeros
        config: {}
      bias_regularizer: null
      data_format: channels_last
      dilation_rate: *id001
      filters: 192
      kernel_constraint: null
      kernel_initializer:
        class_name: VarianceScaling
        config: {distribution: uniform, mode: fan_avg, scale: 1.0, seed: null}
      kernel_regularizer: null
      kernel_size: !!python/tuple [1, 1]
      name: conv2d_494
      padding: same
      strides: !!python/tuple [1, 1]
      trainable: true
      use_bias: false
    inbound_nodes:
    - - - block8_8_ac
        - 0
        - 0
        - {}
    name: conv2d_494
  - class_name: BatchNormalization
    config:
      axis: 3
      beta_constraint: null
      beta_initializer:
        class_name: Zeros
        config: {}
      beta_regularizer: null
      center: true
      epsilon: 0.001
      gamma_constraint: null
      gamma_initializer:
        class_name: Ones
        config: {}
      gamma_regularizer: null
      momentum: 0.99
      moving_mean_initializer:
        class_name: Zeros
        config: {}
      moving_variance_initializer:
        class_name: Ones
        config: {}
      name: batch_normalization_494
      scale: false
      trainable: true
    inbound_nodes:
    - - - conv2d_494
        - 0
        - 0
        - {}
    name: batch_normalization_494
  - class_name: Activation
    config: {activation: relu, name: activation_681, trainable: true}
    inbound_nodes:
    - - - batch_normalization_494
        - 0
        - 0
        - {}
    name: activation_681
  - class_name: Conv2D
    config:
      activation: linear
      activity_regularizer: null
      bias_constraint: null
      bias_initializer:
        class_name: Zeros
        config: {}
      bias_regularizer: null
      data_format: channels_last
      dilation_rate: *id001
      filters: 224
      kernel_constraint: null
      kernel_initializer:
        class_name: VarianceScaling
        config: {distribution: uniform, mode: fan_avg, scale: 1.0, seed: null}
      kernel_regularizer: null
      kernel_size: !!python/tuple [1, 3]
      name: conv2d_495
      padding: same
      strides: !!python/tuple [1, 1]
      trainable: true
      use_bias: false
    inbound_nodes:
    - - - activation_681
        - 0
        - 0
        - {}
    name: conv2d_495
  - class_name: BatchNormalization
    config:
      axis: 3
      beta_constraint: null
      beta_initializer:
        class_name: Zeros
        config: {}
      beta_regularizer: null
      center: true
      epsilon: 0.001
      gamma_constraint: null
      gamma_initializer:
        class_name: Ones
        config: {}
      gamma_regularizer: null
      momentum: 0.99
      moving_mean_initializer:
        class_name: Zeros
        config: {}
      moving_variance_initializer:
        class_name: Ones
        config: {}
      name: batch_normalization_495
      scale: false
      trainable: true
    inbound_nodes:
    - - - conv2d_495
        - 0
        - 0
        - {}
    name: batch_normalization_495
  - class_name: Activation
    config: {activation: relu, name: activation_682, trainable: true}
    inbound_nodes:
    - - - batch_normalization_495
        - 0
        - 0
        - {}
    name: activation_682
  - class_name: Conv2D
    config:
      activation: linear
      activity_regularizer: null
      bias_constraint: null
      bias_initializer:
        class_name: Zeros
        config: {}
      bias_regularizer: null
      data_format: channels_last
      dilation_rate: *id001
      filters: 192
      kernel_constraint: null
      kernel_initializer:
        class_name: VarianceScaling
        config: {distribution: uniform, mode: fan_avg, scale: 1.0, seed: null}
      kernel_regularizer: null
      kernel_size: !!python/tuple [1, 1]
      name: conv2d_493
      padding: same
      strides: !!python/tuple [1, 1]
      trainable: true
      use_bias: false
    inbound_nodes:
    - - - block8_8_ac
        - 0
        - 0
        - {}
    name: conv2d_493
  - class_name: Conv2D
    config:
      activation: linear
      activity_regularizer: null
      bias_constraint: null
      bias_initializer:
        class_name: Zeros
        config: {}
      bias_regularizer: null
      data_format: channels_last
      dilation_rate: *id001
      filters: 256
      kernel_constraint: null
      kernel_initializer:
        class_name: VarianceScaling
        config: {distribution: uniform, mode: fan_avg, scale: 1.0, seed: null}
      kernel_regularizer: null
      kernel_size: !!python/tuple [3, 1]
      name: conv2d_496
      padding: same
      strides: !!python/tuple [1, 1]
      trainable: true
      use_bias: false
    inbound_nodes:
    - - - activation_682
        - 0
        - 0
        - {}
    name: conv2d_496
  - class_name: BatchNormalization
    config:
      axis: 3
      beta_constraint: null
      beta_initializer:
        class_name: Zeros
        config: {}
      beta_regularizer: null
      center: true
      epsilon: 0.001
      gamma_constraint: null
      gamma_initializer:
        class_name: Ones
        config: {}
      gamma_regularizer: null
      momentum: 0.99
      moving_mean_initializer:
        class_name: Zeros
        config: {}
      moving_variance_initializer:
        class_name: Ones
        config: {}
      name: batch_normalization_493
      scale: false
      trainable: true
    inbound_nodes:
    - - - conv2d_493
        - 0
        - 0
        - {}
    name: batch_normalization_493
  - class_name: BatchNormalization
    config:
      axis: 3
      beta_constraint: null
      beta_initializer:
        class_name: Zeros
        config: {}
      beta_regularizer: null
      center: true
      epsilon: 0.001
      gamma_constraint: null
      gamma_initializer:
        class_name: Ones
        config: {}
      gamma_regularizer: null
      momentum: 0.99
      moving_mean_initializer:
        class_name: Zeros
        config: {}
      moving_variance_initializer:
        class_name: Ones
        config: {}
      name: batch_normalization_496
      scale: false
      trainable: true
    inbound_nodes:
    - - - conv2d_496
        - 0
        - 0
        - {}
    name: batch_normalization_496
  - class_name: Activation
    config: {activation: relu, name: activation_680, trainable: true}
    inbound_nodes:
    - - - batch_normalization_493
        - 0
        - 0
        - {}
    name: activation_680
  - class_name: Activation
    config: {activation: relu, name: activation_683, trainable: true}
    inbound_nodes:
    - - - batch_normalization_496
        - 0
        - 0
        - {}
    name: activation_683
  - class_name: Concatenate
    config: {axis: 3, name: block8_9_mixed, trainable: true}
    inbound_nodes:
    - - - activation_680
        - 0
        - 0
        - &id081 {}
      - - activation_683
        - 0
        - 0
        - *id081
    name: block8_9_mixed
  - class_name: Conv2D
    config:
      activation: linear
      activity_regularizer: null
      bias_constraint: null
      bias_initializer:
        class_name: Zeros
        config: {}
      bias_regularizer: null
      data_format: channels_last
      dilation_rate: *id001
      filters: 2080
      kernel_constraint: null
      kernel_initializer:
        class_name: VarianceScaling
        config: {distribution: uniform, mode: fan_avg, scale: 1.0, seed: null}
      kernel_regularizer: null
      kernel_size: !!python/tuple [1, 1]
      name: block8_9_conv
      padding: same
      strides: !!python/tuple [1, 1]
      trainable: true
      use_bias: true
    inbound_nodes:
    - - - block8_9_mixed
        - 0
        - 0
        - {}
    name: block8_9_conv
  - class_name: Lambda
    config:
      arguments: {scale: 0.2}
      function: !!python/tuple ['4wIAAAAAAAAAAgAAAAMAAABTAAAAcxQAAAB8AGQBGQB8AGQCGQB8ARQAFwBTACkDTukAAAAA6QEA

          AACpACkC2gZpbnB1dHPaBXNjYWxlcgMAAAByAwAAAPqAL2hvbWUvamFpZGV2ZC9hbmFjb25kYTMv

          bGliL3B5dGhvbjMuNi9zaXRlLXBhY2thZ2VzL0tlcmFzX0FwcGxpY2F0aW9ucy0xLjAuNC1weTMu

          Ni5lZ2cva2VyYXNfYXBwbGljYXRpb25zL2luY2VwdGlvbl9yZXNuZXRfdjIucHnaCDxsYW1iZGE+

          qgAAAPMAAAAA

          ', null, null]
      function_type: lambda
      name: block8_9
      output_shape: !!python/tuple [null, null, 2080]
      output_shape_type: raw
      trainable: true
    inbound_nodes:
    - - - block8_8_ac
        - 0
        - 0
        - &id082 {}
      - - block8_9_conv
        - 0
        - 0
        - *id082
    name: block8_9
  - class_name: Activation
    config: {activation: relu, name: block8_9_ac, trainable: true}
    inbound_nodes:
    - - - block8_9
        - 0
        - 0
        - {}
    name: block8_9_ac
  - class_name: Conv2D
    config:
      activation: linear
      activity_regularizer: null
      bias_constraint: null
      bias_initializer:
        class_name: Zeros
        config: {}
      bias_regularizer: null
      data_format: channels_last
      dilation_rate: *id001
      filters: 192
      kernel_constraint: null
      kernel_initializer:
        class_name: VarianceScaling
        config: {distribution: uniform, mode: fan_avg, scale: 1.0, seed: null}
      kernel_regularizer: null
      kernel_size: !!python/tuple [1, 1]
      name: conv2d_498
      padding: same
      strides: !!python/tuple [1, 1]
      trainable: true
      use_bias: false
    inbound_nodes:
    - - - block8_9_ac
        - 0
        - 0
        - {}
    name: conv2d_498
  - class_name: BatchNormalization
    config:
      axis: 3
      beta_constraint: null
      beta_initializer:
        class_name: Zeros
        config: {}
      beta_regularizer: null
      center: true
      epsilon: 0.001
      gamma_constraint: null
      gamma_initializer:
        class_name: Ones
        config: {}
      gamma_regularizer: null
      momentum: 0.99
      moving_mean_initializer:
        class_name: Zeros
        config: {}
      moving_variance_initializer:
        class_name: Ones
        config: {}
      name: batch_normalization_498
      scale: false
      trainable: true
    inbound_nodes:
    - - - conv2d_498
        - 0
        - 0
        - {}
    name: batch_normalization_498
  - class_name: Activation
    config: {activation: relu, name: activation_685, trainable: true}
    inbound_nodes:
    - - - batch_normalization_498
        - 0
        - 0
        - {}
    name: activation_685
  - class_name: Conv2D
    config:
      activation: linear
      activity_regularizer: null
      bias_constraint: null
      bias_initializer:
        class_name: Zeros
        config: {}
      bias_regularizer: null
      data_format: channels_last
      dilation_rate: *id001
      filters: 224
      kernel_constraint: null
      kernel_initializer:
        class_name: VarianceScaling
        config: {distribution: uniform, mode: fan_avg, scale: 1.0, seed: null}
      kernel_regularizer: null
      kernel_size: !!python/tuple [1, 3]
      name: conv2d_499
      padding: same
      strides: !!python/tuple [1, 1]
      trainable: true
      use_bias: false
    inbound_nodes:
    - - - activation_685
        - 0
        - 0
        - {}
    name: conv2d_499
  - class_name: BatchNormalization
    config:
      axis: 3
      beta_constraint: null
      beta_initializer:
        class_name: Zeros
        config: {}
      beta_regularizer: null
      center: true
      epsilon: 0.001
      gamma_constraint: null
      gamma_initializer:
        class_name: Ones
        config: {}
      gamma_regularizer: null
      momentum: 0.99
      moving_mean_initializer:
        class_name: Zeros
        config: {}
      moving_variance_initializer:
        class_name: Ones
        config: {}
      name: batch_normalization_499
      scale: false
      trainable: true
    inbound_nodes:
    - - - conv2d_499
        - 0
        - 0
        - {}
    name: batch_normalization_499
  - class_name: Activation
    config: {activation: relu, name: activation_686, trainable: true}
    inbound_nodes:
    - - - batch_normalization_499
        - 0
        - 0
        - {}
    name: activation_686
  - class_name: Conv2D
    config:
      activation: linear
      activity_regularizer: null
      bias_constraint: null
      bias_initializer:
        class_name: Zeros
        config: {}
      bias_regularizer: null
      data_format: channels_last
      dilation_rate: *id001
      filters: 192
      kernel_constraint: null
      kernel_initializer:
        class_name: VarianceScaling
        config: {distribution: uniform, mode: fan_avg, scale: 1.0, seed: null}
      kernel_regularizer: null
      kernel_size: !!python/tuple [1, 1]
      name: conv2d_497
      padding: same
      strides: !!python/tuple [1, 1]
      trainable: true
      use_bias: false
    inbound_nodes:
    - - - block8_9_ac
        - 0
        - 0
        - {}
    name: conv2d_497
  - class_name: Conv2D
    config:
      activation: linear
      activity_regularizer: null
      bias_constraint: null
      bias_initializer:
        class_name: Zeros
        config: {}
      bias_regularizer: null
      data_format: channels_last
      dilation_rate: *id001
      filters: 256
      kernel_constraint: null
      kernel_initializer:
        class_name: VarianceScaling
        config: {distribution: uniform, mode: fan_avg, scale: 1.0, seed: null}
      kernel_regularizer: null
      kernel_size: !!python/tuple [3, 1]
      name: conv2d_500
      padding: same
      strides: !!python/tuple [1, 1]
      trainable: true
      use_bias: false
    inbound_nodes:
    - - - activation_686
        - 0
        - 0
        - {}
    name: conv2d_500
  - class_name: BatchNormalization
    config:
      axis: 3
      beta_constraint: null
      beta_initializer:
        class_name: Zeros
        config: {}
      beta_regularizer: null
      center: true
      epsilon: 0.001
      gamma_constraint: null
      gamma_initializer:
        class_name: Ones
        config: {}
      gamma_regularizer: null
      momentum: 0.99
      moving_mean_initializer:
        class_name: Zeros
        config: {}
      moving_variance_initializer:
        class_name: Ones
        config: {}
      name: batch_normalization_497
      scale: false
      trainable: true
    inbound_nodes:
    - - - conv2d_497
        - 0
        - 0
        - {}
    name: batch_normalization_497
  - class_name: BatchNormalization
    config:
      axis: 3
      beta_constraint: null
      beta_initializer:
        class_name: Zeros
        config: {}
      beta_regularizer: null
      center: true
      epsilon: 0.001
      gamma_constraint: null
      gamma_initializer:
        class_name: Ones
        config: {}
      gamma_regularizer: null
      momentum: 0.99
      moving_mean_initializer:
        class_name: Zeros
        config: {}
      moving_variance_initializer:
        class_name: Ones
        config: {}
      name: batch_normalization_500
      scale: false
      trainable: true
    inbound_nodes:
    - - - conv2d_500
        - 0
        - 0
        - {}
    name: batch_normalization_500
  - class_name: Activation
    config: {activation: relu, name: activation_684, trainable: true}
    inbound_nodes:
    - - - batch_normalization_497
        - 0
        - 0
        - {}
    name: activation_684
  - class_name: Activation
    config: {activation: relu, name: activation_687, trainable: true}
    inbound_nodes:
    - - - batch_normalization_500
        - 0
        - 0
        - {}
    name: activation_687
  - class_name: Concatenate
    config: {axis: 3, name: block8_10_mixed, trainable: true}
    inbound_nodes:
    - - - activation_684
        - 0
        - 0
        - &id083 {}
      - - activation_687
        - 0
        - 0
        - *id083
    name: block8_10_mixed
  - class_name: Conv2D
    config:
      activation: linear
      activity_regularizer: null
      bias_constraint: null
      bias_initializer:
        class_name: Zeros
        config: {}
      bias_regularizer: null
      data_format: channels_last
      dilation_rate: *id001
      filters: 2080
      kernel_constraint: null
      kernel_initializer:
        class_name: VarianceScaling
        config: {distribution: uniform, mode: fan_avg, scale: 1.0, seed: null}
      kernel_regularizer: null
      kernel_size: !!python/tuple [1, 1]
      name: block8_10_conv
      padding: same
      strides: !!python/tuple [1, 1]
      trainable: true
      use_bias: true
    inbound_nodes:
    - - - block8_10_mixed
        - 0
        - 0
        - {}
    name: block8_10_conv
  - class_name: Lambda
    config:
      arguments: {scale: 1.0}
      function: !!python/tuple ['4wIAAAAAAAAAAgAAAAMAAABTAAAAcxQAAAB8AGQBGQB8AGQCGQB8ARQAFwBTACkDTukAAAAA6QEA

          AACpACkC2gZpbnB1dHPaBXNjYWxlcgMAAAByAwAAAPqAL2hvbWUvamFpZGV2ZC9hbmFjb25kYTMv

          bGliL3B5dGhvbjMuNi9zaXRlLXBhY2thZ2VzL0tlcmFzX0FwcGxpY2F0aW9ucy0xLjAuNC1weTMu

          Ni5lZ2cva2VyYXNfYXBwbGljYXRpb25zL2luY2VwdGlvbl9yZXNuZXRfdjIucHnaCDxsYW1iZGE+

          qgAAAPMAAAAA

          ', null, null]
      function_type: lambda
      name: block8_10
      output_shape: !!python/tuple [null, null, 2080]
      output_shape_type: raw
      trainable: true
    inbound_nodes:
    - - - block8_9_ac
        - 0
        - 0
        - &id084 {}
      - - block8_10_conv
        - 0
        - 0
        - *id084
    name: block8_10
  - class_name: Conv2D
    config:
      activation: linear
      activity_regularizer: null
      bias_constraint: null
      bias_initializer:
        class_name: Zeros
        config: {}
      bias_regularizer: null
      data_format: channels_last
      dilation_rate: *id001
      filters: 1536
      kernel_constraint: null
      kernel_initializer:
        class_name: VarianceScaling
        config: {distribution: uniform, mode: fan_avg, scale: 1.0, seed: null}
      kernel_regularizer: null
      kernel_size: !!python/tuple [1, 1]
      name: conv_7b
      padding: same
      strides: !!python/tuple [1, 1]
      trainable: true
      use_bias: false
    inbound_nodes:
    - - - block8_10
        - 0
        - 0
        - {}
    name: conv_7b
  - class_name: BatchNormalization
    config:
      axis: 3
      beta_constraint: null
      beta_initializer:
        class_name: Zeros
        config: {}
      beta_regularizer: null
      center: true
      epsilon: 0.001
      gamma_constraint: null
      gamma_initializer:
        class_name: Ones
        config: {}
      gamma_regularizer: null
      momentum: 0.99
      moving_mean_initializer:
        class_name: Zeros
        config: {}
      moving_variance_initializer:
        class_name: Ones
        config: {}
      name: conv_7b_bn
      scale: false
      trainable: true
    inbound_nodes:
    - - - conv_7b
        - 0
        - 0
        - {}
    name: conv_7b_bn
  - class_name: Activation
    config: {activation: relu, name: conv_7b_ac, trainable: true}
    inbound_nodes:
    - - - conv_7b_bn
        - 0
        - 0
        - {}
    name: conv_7b_ac
  - class_name: GlobalAveragePooling2D
    config: {data_format: channels_last, name: avg_pool, trainable: true}
    inbound_nodes:
    - - - conv_7b_ac
        - 0
        - 0
        - {}
    name: avg_pool
  - class_name: Dense
    config:
      activation: softmax
      activity_regularizer: null
      bias_constraint: null
      bias_initializer:
        class_name: Zeros
        config: {}
      bias_regularizer: null
      kernel_constraint: null
      kernel_initializer:
        class_name: VarianceScaling
        config: {distribution: uniform, mode: fan_avg, scale: 1.0, seed: null}
      kernel_regularizer: null
      name: predictions
      trainable: true
      units: 1000
      use_bias: true
    inbound_nodes:
    - - - avg_pool
        - 0
        - 0
        - {}
    name: predictions
  name: inception_resnet_v2
  output_layers:
  - [predictions, 0, 0]
keras_version: 2.2.4
