backend: tensorflow
class_name: Model
config:
  input_layers:
  - [input_16, 0, 0]
  layers:
  - class_name: InputLayer
    config:
      batch_input_shape: !!python/tuple [null, 331, 331, 3]
      dtype: float32
      name: input_16
      sparse: false
    inbound_nodes: []
    name: input_16
  - class_name: Conv2D
    config:
      activation: linear
      activity_regularizer: null
      bias_constraint: null
      bias_initializer:
        class_name: Zeros
        config: {}
      bias_regularizer: null
      data_format: channels_last
      dilation_rate: &id001 !!python/tuple [1, 1]
      filters: 96
      kernel_constraint: null
      kernel_initializer:
        class_name: VarianceScaling
        config: {distribution: normal, mode: fan_in, scale: 2.0, seed: null}
      kernel_regularizer: null
      kernel_size: !!python/tuple [3, 3]
      name: stem_conv1
      padding: valid
      strides: !!python/tuple [2, 2]
      trainable: true
      use_bias: false
    inbound_nodes:
    - - - input_16
        - 0
        - 0
        - {}
    name: stem_conv1
  - class_name: BatchNormalization
    config:
      axis: -1
      beta_constraint: null
      beta_initializer:
        class_name: Zeros
        config: {}
      beta_regularizer: null
      center: true
      epsilon: 0.001
      gamma_constraint: null
      gamma_initializer:
        class_name: Ones
        config: {}
      gamma_regularizer: null
      momentum: 0.9997
      moving_mean_initializer:
        class_name: Zeros
        config: {}
      moving_variance_initializer:
        class_name: Ones
        config: {}
      name: stem_bn1
      scale: true
      trainable: true
    inbound_nodes:
    - - - stem_conv1
        - 0
        - 0
        - {}
    name: stem_bn1
  - class_name: Activation
    config: {activation: relu, name: activation_782, trainable: true}
    inbound_nodes:
    - - - stem_bn1
        - 0
        - 0
        - {}
    name: activation_782
  - class_name: Conv2D
    config:
      activation: linear
      activity_regularizer: null
      bias_constraint: null
      bias_initializer:
        class_name: Zeros
        config: {}
      bias_regularizer: null
      data_format: channels_last
      dilation_rate: *id001
      filters: 42
      kernel_constraint: null
      kernel_initializer:
        class_name: VarianceScaling
        config: {distribution: normal, mode: fan_in, scale: 2.0, seed: null}
      kernel_regularizer: null
      kernel_size: &id016 !!python/tuple [1, 1]
      name: reduction_conv_1_stem_1
      padding: same
      strides: &id017 !!python/tuple [1, 1]
      trainable: true
      use_bias: false
    inbound_nodes:
    - - - activation_782
        - 0
        - 0
        - {}
    name: reduction_conv_1_stem_1
  - class_name: BatchNormalization
    config:
      axis: -1
      beta_constraint: null
      beta_initializer:
        class_name: Zeros
        config: {}
      beta_regularizer: null
      center: true
      epsilon: 0.001
      gamma_constraint: null
      gamma_initializer:
        class_name: Ones
        config: {}
      gamma_regularizer: null
      momentum: 0.9997
      moving_mean_initializer:
        class_name: Zeros
        config: {}
      moving_variance_initializer:
        class_name: Ones
        config: {}
      name: reduction_bn_1_stem_1
      scale: true
      trainable: true
    inbound_nodes:
    - - - reduction_conv_1_stem_1
        - 0
        - 0
        - {}
    name: reduction_bn_1_stem_1
  - class_name: Activation
    config: {activation: relu, name: activation_783, trainable: true}
    inbound_nodes:
    - - - reduction_bn_1_stem_1
        - 0
        - 0
        - {}
    name: activation_783
  - class_name: Activation
    config: {activation: relu, name: activation_785, trainable: true}
    inbound_nodes:
    - - - stem_bn1
        - 0
        - 0
        - {}
    name: activation_785
  - class_name: SeparableConv2D
    config:
      activation: linear
      activity_regularizer: null
      bias_constraint: null
      bias_initializer:
        class_name: Zeros
        config: {}
      bias_regularizer: null
      data_format: channels_last
      depth_multiplier: 1
      depthwise_constraint: null
      depthwise_initializer:
        class_name: VarianceScaling
        config: {distribution: uniform, mode: fan_avg, scale: 1.0, seed: null}
      depthwise_regularizer: null
      dilation_rate: &id002 !!python/tuple [1, 1]
      filters: 42
      kernel_size: &id003 !!python/tuple [5, 5]
      name: separable_conv_1_reduction_left1_stem_1
      padding: same
      pointwise_constraint: null
      pointwise_initializer:
        class_name: VarianceScaling
        config: {distribution: uniform, mode: fan_avg, scale: 1.0, seed: null}
      pointwise_regularizer: null
      strides: &id019 !!python/tuple [2, 2]
      trainable: true
      use_bias: false
    inbound_nodes:
    - - - activation_783
        - 0
        - 0
        - {}
    name: separable_conv_1_reduction_left1_stem_1
  - class_name: SeparableConv2D
    config:
      activation: linear
      activity_regularizer: null
      bias_constraint: null
      bias_initializer:
        class_name: Zeros
        config: {}
      bias_regularizer: null
      data_format: channels_last
      depth_multiplier: 1
      depthwise_constraint: null
      depthwise_initializer:
        class_name: VarianceScaling
        config: {distribution: uniform, mode: fan_avg, scale: 1.0, seed: null}
      depthwise_regularizer: null
      dilation_rate: *id002
      filters: 42
      kernel_size: &id004 !!python/tuple [7, 7]
      name: separable_conv_1_reduction_right1_stem_1
      padding: same
      pointwise_constraint: null
      pointwise_initializer:
        class_name: VarianceScaling
        config: {distribution: uniform, mode: fan_avg, scale: 1.0, seed: null}
      pointwise_regularizer: null
      strides: &id020 !!python/tuple [2, 2]
      trainable: true
      use_bias: false
    inbound_nodes:
    - - - activation_785
        - 0
        - 0
        - {}
    name: separable_conv_1_reduction_right1_stem_1
  - class_name: BatchNormalization
    config:
      axis: -1
      beta_constraint: null
      beta_initializer:
        class_name: Zeros
        config: {}
      beta_regularizer: null
      center: true
      epsilon: 0.001
      gamma_constraint: null
      gamma_initializer:
        class_name: Ones
        config: {}
      gamma_regularizer: null
      momentum: 0.9997
      moving_mean_initializer:
        class_name: Zeros
        config: {}
      moving_variance_initializer:
        class_name: Ones
        config: {}
      name: separable_conv_1_bn_reduction_left1_stem_1
      scale: true
      trainable: true
    inbound_nodes:
    - - - separable_conv_1_reduction_left1_stem_1
        - 0
        - 0
        - {}
    name: separable_conv_1_bn_reduction_left1_stem_1
  - class_name: BatchNormalization
    config:
      axis: -1
      beta_constraint: null
      beta_initializer:
        class_name: Zeros
        config: {}
      beta_regularizer: null
      center: true
      epsilon: 0.001
      gamma_constraint: null
      gamma_initializer:
        class_name: Ones
        config: {}
      gamma_regularizer: null
      momentum: 0.9997
      moving_mean_initializer:
        class_name: Zeros
        config: {}
      moving_variance_initializer:
        class_name: Ones
        config: {}
      name: separable_conv_1_bn_reduction_right1_stem_1
      scale: true
      trainable: true
    inbound_nodes:
    - - - separable_conv_1_reduction_right1_stem_1
        - 0
        - 0
        - {}
    name: separable_conv_1_bn_reduction_right1_stem_1
  - class_name: Activation
    config: {activation: relu, name: activation_784, trainable: true}
    inbound_nodes:
    - - - separable_conv_1_bn_reduction_left1_stem_1
        - 0
        - 0
        - {}
    name: activation_784
  - class_name: Activation
    config: {activation: relu, name: activation_786, trainable: true}
    inbound_nodes:
    - - - separable_conv_1_bn_reduction_right1_stem_1
        - 0
        - 0
        - {}
    name: activation_786
  - class_name: SeparableConv2D
    config:
      activation: linear
      activity_regularizer: null
      bias_constraint: null
      bias_initializer:
        class_name: Zeros
        config: {}
      bias_regularizer: null
      data_format: channels_last
      depth_multiplier: 1
      depthwise_constraint: null
      depthwise_initializer:
        class_name: VarianceScaling
        config: {distribution: uniform, mode: fan_avg, scale: 1.0, seed: null}
      depthwise_regularizer: null
      dilation_rate: *id002
      filters: 42
      kernel_size: *id003
      name: separable_conv_2_reduction_left1_stem_1
      padding: same
      pointwise_constraint: null
      pointwise_initializer:
        class_name: VarianceScaling
        config: {distribution: uniform, mode: fan_avg, scale: 1.0, seed: null}
      pointwise_regularizer: null
      strides: &id005 !!python/tuple [1, 1]
      trainable: true
      use_bias: false
    inbound_nodes:
    - - - activation_784
        - 0
        - 0
        - {}
    name: separable_conv_2_reduction_left1_stem_1
  - class_name: SeparableConv2D
    config:
      activation: linear
      activity_regularizer: null
      bias_constraint: null
      bias_initializer:
        class_name: Zeros
        config: {}
      bias_regularizer: null
      data_format: channels_last
      depth_multiplier: 1
      depthwise_constraint: null
      depthwise_initializer:
        class_name: VarianceScaling
        config: {distribution: uniform, mode: fan_avg, scale: 1.0, seed: null}
      depthwise_regularizer: null
      dilation_rate: *id002
      filters: 42
      kernel_size: *id004
      name: separable_conv_2_reduction_right1_stem_1
      padding: same
      pointwise_constraint: null
      pointwise_initializer:
        class_name: VarianceScaling
        config: {distribution: uniform, mode: fan_avg, scale: 1.0, seed: null}
      pointwise_regularizer: null
      strides: *id005
      trainable: true
      use_bias: false
    inbound_nodes:
    - - - activation_786
        - 0
        - 0
        - {}
    name: separable_conv_2_reduction_right1_stem_1
  - class_name: BatchNormalization
    config:
      axis: -1
      beta_constraint: null
      beta_initializer:
        class_name: Zeros
        config: {}
      beta_regularizer: null
      center: true
      epsilon: 0.001
      gamma_constraint: null
      gamma_initializer:
        class_name: Ones
        config: {}
      gamma_regularizer: null
      momentum: 0.9997
      moving_mean_initializer:
        class_name: Zeros
        config: {}
      moving_variance_initializer:
        class_name: Ones
        config: {}
      name: separable_conv_2_bn_reduction_left1_stem_1
      scale: true
      trainable: true
    inbound_nodes:
    - - - separable_conv_2_reduction_left1_stem_1
        - 0
        - 0
        - {}
    name: separable_conv_2_bn_reduction_left1_stem_1
  - class_name: BatchNormalization
    config:
      axis: -1
      beta_constraint: null
      beta_initializer:
        class_name: Zeros
        config: {}
      beta_regularizer: null
      center: true
      epsilon: 0.001
      gamma_constraint: null
      gamma_initializer:
        class_name: Ones
        config: {}
      gamma_regularizer: null
      momentum: 0.9997
      moving_mean_initializer:
        class_name: Zeros
        config: {}
      moving_variance_initializer:
        class_name: Ones
        config: {}
      name: separable_conv_2_bn_reduction_right1_stem_1
      scale: true
      trainable: true
    inbound_nodes:
    - - - separable_conv_2_reduction_right1_stem_1
        - 0
        - 0
        - {}
    name: separable_conv_2_bn_reduction_right1_stem_1
  - class_name: Activation
    config: {activation: relu, name: activation_787, trainable: true}
    inbound_nodes:
    - - - stem_bn1
        - 0
        - 0
        - {}
    name: activation_787
  - class_name: Add
    config: {name: reduction_add_1_stem_1, trainable: true}
    inbound_nodes:
    - - - separable_conv_2_bn_reduction_left1_stem_1
        - 0
        - 0
        - &id006 {}
      - - separable_conv_2_bn_reduction_right1_stem_1
        - 0
        - 0
        - *id006
    name: reduction_add_1_stem_1
  - class_name: SeparableConv2D
    config:
      activation: linear
      activity_regularizer: null
      bias_constraint: null
      bias_initializer:
        class_name: Zeros
        config: {}
      bias_regularizer: null
      data_format: channels_last
      depth_multiplier: 1
      depthwise_constraint: null
      depthwise_initializer:
        class_name: VarianceScaling
        config: {distribution: uniform, mode: fan_avg, scale: 1.0, seed: null}
      depthwise_regularizer: null
      dilation_rate: *id002
      filters: 42
      kernel_size: &id007 !!python/tuple [7, 7]
      name: separable_conv_1_reduction_right2_stem_1
      padding: same
      pointwise_constraint: null
      pointwise_initializer:
        class_name: VarianceScaling
        config: {distribution: uniform, mode: fan_avg, scale: 1.0, seed: null}
      pointwise_regularizer: null
      strides: &id022 !!python/tuple [2, 2]
      trainable: true
      use_bias: false
    inbound_nodes:
    - - - activation_787
        - 0
        - 0
        - {}
    name: separable_conv_1_reduction_right2_stem_1
  - class_name: Activation
    config: {activation: relu, name: activation_789, trainable: true}
    inbound_nodes:
    - - - stem_bn1
        - 0
        - 0
        - {}
    name: activation_789
  - class_name: Activation
    config: {activation: relu, name: activation_791, trainable: true}
    inbound_nodes:
    - - - reduction_add_1_stem_1
        - 0
        - 0
        - {}
    name: activation_791
  - class_name: BatchNormalization
    config:
      axis: -1
      beta_constraint: null
      beta_initializer:
        class_name: Zeros
        config: {}
      beta_regularizer: null
      center: true
      epsilon: 0.001
      gamma_constraint: null
      gamma_initializer:
        class_name: Ones
        config: {}
      gamma_regularizer: null
      momentum: 0.9997
      moving_mean_initializer:
        class_name: Zeros
        config: {}
      moving_variance_initializer:
        class_name: Ones
        config: {}
      name: separable_conv_1_bn_reduction_right2_stem_1
      scale: true
      trainable: true
    inbound_nodes:
    - - - separable_conv_1_reduction_right2_stem_1
        - 0
        - 0
        - {}
    name: separable_conv_1_bn_reduction_right2_stem_1
  - class_name: SeparableConv2D
    config:
      activation: linear
      activity_regularizer: null
      bias_constraint: null
      bias_initializer:
        class_name: Zeros
        config: {}
      bias_regularizer: null
      data_format: channels_last
      depth_multiplier: 1
      depthwise_constraint: null
      depthwise_initializer:
        class_name: VarianceScaling
        config: {distribution: uniform, mode: fan_avg, scale: 1.0, seed: null}
      depthwise_regularizer: null
      dilation_rate: *id002
      filters: 42
      kernel_size: &id008 !!python/tuple [5, 5]
      name: separable_conv_1_reduction_right3_stem_1
      padding: same
      pointwise_constraint: null
      pointwise_initializer:
        class_name: VarianceScaling
        config: {distribution: uniform, mode: fan_avg, scale: 1.0, seed: null}
      pointwise_regularizer: null
      strides: &id023 !!python/tuple [2, 2]
      trainable: true
      use_bias: false
    inbound_nodes:
    - - - activation_789
        - 0
        - 0
        - {}
    name: separable_conv_1_reduction_right3_stem_1
  - class_name: SeparableConv2D
    config:
      activation: linear
      activity_regularizer: null
      bias_constraint: null
      bias_initializer:
        class_name: Zeros
        config: {}
      bias_regularizer: null
      data_format: channels_last
      depth_multiplier: 1
      depthwise_constraint: null
      depthwise_initializer:
        class_name: VarianceScaling
        config: {distribution: uniform, mode: fan_avg, scale: 1.0, seed: null}
      depthwise_regularizer: null
      dilation_rate: *id002
      filters: 42
      kernel_size: &id009 !!python/tuple [3, 3]
      name: separable_conv_1_reduction_left4_stem_1
      padding: same
      pointwise_constraint: null
      pointwise_initializer:
        class_name: VarianceScaling
        config: {distribution: uniform, mode: fan_avg, scale: 1.0, seed: null}
      pointwise_regularizer: null
      strides: &id024 !!python/tuple [1, 1]
      trainable: true
      use_bias: false
    inbound_nodes:
    - - - activation_791
        - 0
        - 0
        - {}
    name: separable_conv_1_reduction_left4_stem_1
  - class_name: Activation
    config: {activation: relu, name: activation_788, trainable: true}
    inbound_nodes:
    - - - separable_conv_1_bn_reduction_right2_stem_1
        - 0
        - 0
        - {}
    name: activation_788
  - class_name: BatchNormalization
    config:
      axis: -1
      beta_constraint: null
      beta_initializer:
        class_name: Zeros
        config: {}
      beta_regularizer: null
      center: true
      epsilon: 0.001
      gamma_constraint: null
      gamma_initializer:
        class_name: Ones
        config: {}
      gamma_regularizer: null
      momentum: 0.9997
      moving_mean_initializer:
        class_name: Zeros
        config: {}
      moving_variance_initializer:
        class_name: Ones
        config: {}
      name: separable_conv_1_bn_reduction_right3_stem_1
      scale: true
      trainable: true
    inbound_nodes:
    - - - separable_conv_1_reduction_right3_stem_1
        - 0
        - 0
        - {}
    name: separable_conv_1_bn_reduction_right3_stem_1
  - class_name: BatchNormalization
    config:
      axis: -1
      beta_constraint: null
      beta_initializer:
        class_name: Zeros
        config: {}
      beta_regularizer: null
      center: true
      epsilon: 0.001
      gamma_constraint: null
      gamma_initializer:
        class_name: Ones
        config: {}
      gamma_regularizer: null
      momentum: 0.9997
      moving_mean_initializer:
        class_name: Zeros
        config: {}
      moving_variance_initializer:
        class_name: Ones
        config: {}
      name: separable_conv_1_bn_reduction_left4_stem_1
      scale: true
      trainable: true
    inbound_nodes:
    - - - separable_conv_1_reduction_left4_stem_1
        - 0
        - 0
        - {}
    name: separable_conv_1_bn_reduction_left4_stem_1
  - class_name: SeparableConv2D
    config:
      activation: linear
      activity_regularizer: null
      bias_constraint: null
      bias_initializer:
        class_name: Zeros
        config: {}
      bias_regularizer: null
      data_format: channels_last
      depth_multiplier: 1
      depthwise_constraint: null
      depthwise_initializer:
        class_name: VarianceScaling
        config: {distribution: uniform, mode: fan_avg, scale: 1.0, seed: null}
      depthwise_regularizer: null
      dilation_rate: *id002
      filters: 42
      kernel_size: *id007
      name: separable_conv_2_reduction_right2_stem_1
      padding: same
      pointwise_constraint: null
      pointwise_initializer:
        class_name: VarianceScaling
        config: {distribution: uniform, mode: fan_avg, scale: 1.0, seed: null}
      pointwise_regularizer: null
      strides: *id005
      trainable: true
      use_bias: false
    inbound_nodes:
    - - - activation_788
        - 0
        - 0
        - {}
    name: separable_conv_2_reduction_right2_stem_1
  - class_name: Activation
    config: {activation: relu, name: activation_790, trainable: true}
    inbound_nodes:
    - - - separable_conv_1_bn_reduction_right3_stem_1
        - 0
        - 0
        - {}
    name: activation_790
  - class_name: Activation
    config: {activation: relu, name: activation_792, trainable: true}
    inbound_nodes:
    - - - separable_conv_1_bn_reduction_left4_stem_1
        - 0
        - 0
        - {}
    name: activation_792
  - class_name: MaxPooling2D
    config:
      data_format: channels_last
      name: reduction_left2_stem_1
      padding: same
      pool_size: &id025 !!python/tuple [3, 3]
      strides: &id026 !!python/tuple [2, 2]
      trainable: true
    inbound_nodes:
    - - - reduction_bn_1_stem_1
        - 0
        - 0
        - {}
    name: reduction_left2_stem_1
  - class_name: BatchNormalization
    config:
      axis: -1
      beta_constraint: null
      beta_initializer:
        class_name: Zeros
        config: {}
      beta_regularizer: null
      center: true
      epsilon: 0.001
      gamma_constraint: null
      gamma_initializer:
        class_name: Ones
        config: {}
      gamma_regularizer: null
      momentum: 0.9997
      moving_mean_initializer:
        class_name: Zeros
        config: {}
      moving_variance_initializer:
        class_name: Ones
        config: {}
      name: separable_conv_2_bn_reduction_right2_stem_1
      scale: true
      trainable: true
    inbound_nodes:
    - - - separable_conv_2_reduction_right2_stem_1
        - 0
        - 0
        - {}
    name: separable_conv_2_bn_reduction_right2_stem_1
  - class_name: SeparableConv2D
    config:
      activation: linear
      activity_regularizer: null
      bias_constraint: null
      bias_initializer:
        class_name: Zeros
        config: {}
      bias_regularizer: null
      data_format: channels_last
      depth_multiplier: 1
      depthwise_constraint: null
      depthwise_initializer:
        class_name: VarianceScaling
        config: {distribution: uniform, mode: fan_avg, scale: 1.0, seed: null}
      depthwise_regularizer: null
      dilation_rate: *id002
      filters: 42
      kernel_size: *id008
      name: separable_conv_2_reduction_right3_stem_1
      padding: same
      pointwise_constraint: null
      pointwise_initializer:
        class_name: VarianceScaling
        config: {distribution: uniform, mode: fan_avg, scale: 1.0, seed: null}
      pointwise_regularizer: null
      strides: *id005
      trainable: true
      use_bias: false
    inbound_nodes:
    - - - activation_790
        - 0
        - 0
        - {}
    name: separable_conv_2_reduction_right3_stem_1
  - class_name: SeparableConv2D
    config:
      activation: linear
      activity_regularizer: null
      bias_constraint: null
      bias_initializer:
        class_name: Zeros
        config: {}
      bias_regularizer: null
      data_format: channels_last
      depth_multiplier: 1
      depthwise_constraint: null
      depthwise_initializer:
        class_name: VarianceScaling
        config: {distribution: uniform, mode: fan_avg, scale: 1.0, seed: null}
      depthwise_regularizer: null
      dilation_rate: *id002
      filters: 42
      kernel_size: *id009
      name: separable_conv_2_reduction_left4_stem_1
      padding: same
      pointwise_constraint: null
      pointwise_initializer:
        class_name: VarianceScaling
        config: {distribution: uniform, mode: fan_avg, scale: 1.0, seed: null}
      pointwise_regularizer: null
      strides: *id005
      trainable: true
      use_bias: false
    inbound_nodes:
    - - - activation_792
        - 0
        - 0
        - {}
    name: separable_conv_2_reduction_left4_stem_1
  - class_name: Activation
    config: {activation: relu, name: adjust_relu_1_stem_2, trainable: true}
    inbound_nodes:
    - - - stem_bn1
        - 0
        - 0
        - {}
    name: adjust_relu_1_stem_2
  - class_name: Add
    config: {name: reduction_add_2_stem_1, trainable: true}
    inbound_nodes:
    - - - reduction_left2_stem_1
        - 0
        - 0
        - &id010 {}
      - - separable_conv_2_bn_reduction_right2_stem_1
        - 0
        - 0
        - *id010
    name: reduction_add_2_stem_1
  - class_name: AveragePooling2D
    config:
      data_format: channels_last
      name: reduction_left3_stem_1
      padding: same
      pool_size: &id028 !!python/tuple [3, 3]
      strides: &id029 !!python/tuple [2, 2]
      trainable: true
    inbound_nodes:
    - - - reduction_bn_1_stem_1
        - 0
        - 0
        - {}
    name: reduction_left3_stem_1
  - class_name: BatchNormalization
    config:
      axis: -1
      beta_constraint: null
      beta_initializer:
        class_name: Zeros
        config: {}
      beta_regularizer: null
      center: true
      epsilon: 0.001
      gamma_constraint: null
      gamma_initializer:
        class_name: Ones
        config: {}
      gamma_regularizer: null
      momentum: 0.9997
      moving_mean_initializer:
        class_name: Zeros
        config: {}
      moving_variance_initializer:
        class_name: Ones
        config: {}
      name: separable_conv_2_bn_reduction_right3_stem_1
      scale: true
      trainable: true
    inbound_nodes:
    - - - separable_conv_2_reduction_right3_stem_1
        - 0
        - 0
        - {}
    name: separable_conv_2_bn_reduction_right3_stem_1
  - class_name: AveragePooling2D
    config:
      data_format: channels_last
      name: reduction_left4_stem_1
      padding: same
      pool_size: &id030 !!python/tuple [3, 3]
      strides: &id031 !!python/tuple [1, 1]
      trainable: true
    inbound_nodes:
    - - - reduction_add_1_stem_1
        - 0
        - 0
        - {}
    name: reduction_left4_stem_1
  - class_name: BatchNormalization
    config:
      axis: -1
      beta_constraint: null
      beta_initializer:
        class_name: Zeros
        config: {}
      beta_regularizer: null
      center: true
      epsilon: 0.001
      gamma_constraint: null
      gamma_initializer:
        class_name: Ones
        config: {}
      gamma_regularizer: null
      momentum: 0.9997
      moving_mean_initializer:
        class_name: Zeros
        config: {}
      moving_variance_initializer:
        class_name: Ones
        config: {}
      name: separable_conv_2_bn_reduction_left4_stem_1
      scale: true
      trainable: true
    inbound_nodes:
    - - - separable_conv_2_reduction_left4_stem_1
        - 0
        - 0
        - {}
    name: separable_conv_2_bn_reduction_left4_stem_1
  - class_name: MaxPooling2D
    config:
      data_format: channels_last
      name: reduction_right5_stem_1
      padding: same
      pool_size: &id032 !!python/tuple [3, 3]
      strides: &id033 !!python/tuple [2, 2]
      trainable: true
    inbound_nodes:
    - - - reduction_bn_1_stem_1
        - 0
        - 0
        - {}
    name: reduction_right5_stem_1
  - class_name: ZeroPadding2D
    config:
      data_format: channels_last
      name: zero_padding2d_16
      padding: !!python/tuple
      - &id034 !!python/tuple [0, 1]
      - &id035 !!python/tuple [0, 1]
      trainable: true
    inbound_nodes:
    - - - adjust_relu_1_stem_2
        - 0
        - 0
        - {}
    name: zero_padding2d_16
  - class_name: Add
    config: {name: reduction_add3_stem_1, trainable: true}
    inbound_nodes:
    - - - reduction_left3_stem_1
        - 0
        - 0
        - &id011 {}
      - - separable_conv_2_bn_reduction_right3_stem_1
        - 0
        - 0
        - *id011
    name: reduction_add3_stem_1
  - class_name: Add
    config: {name: add_5, trainable: true}
    inbound_nodes:
    - - - reduction_add_2_stem_1
        - 0
        - 0
        - &id012 {}
      - - reduction_left4_stem_1
        - 0
        - 0
        - *id012
    name: add_5
  - class_name: Add
    config: {name: reduction_add4_stem_1, trainable: true}
    inbound_nodes:
    - - - separable_conv_2_bn_reduction_left4_stem_1
        - 0
        - 0
        - &id013 {}
      - - reduction_right5_stem_1
        - 0
        - 0
        - *id013
    name: reduction_add4_stem_1
  - class_name: Cropping2D
    config:
      cropping: !!python/tuple
      - &id039 !!python/tuple [1, 0]
      - &id040 !!python/tuple [1, 0]
      data_format: channels_last
      name: cropping2d_4
      trainable: true
    inbound_nodes:
    - - - zero_padding2d_16
        - 0
        - 0
        - {}
    name: cropping2d_4
  - class_name: Concatenate
    config: {axis: -1, name: reduction_concat_stem_1, trainable: true}
    inbound_nodes:
    - - - reduction_add_2_stem_1
        - 0
        - 0
        - &id014 {}
      - - reduction_add3_stem_1
        - 0
        - 0
        - *id014
      - - add_5
        - 0
        - 0
        - *id014
      - - reduction_add4_stem_1
        - 0
        - 0
        - *id014
    name: reduction_concat_stem_1
  - class_name: AveragePooling2D
    config:
      data_format: channels_last
      name: adjust_avg_pool_1_stem_2
      padding: valid
      pool_size: &id042 !!python/tuple [1, 1]
      strides: &id043 !!python/tuple [2, 2]
      trainable: true
    inbound_nodes:
    - - - adjust_relu_1_stem_2
        - 0
        - 0
        - {}
    name: adjust_avg_pool_1_stem_2
  - class_name: AveragePooling2D
    config:
      data_format: channels_last
      name: adjust_avg_pool_2_stem_2
      padding: valid
      pool_size: &id044 !!python/tuple [1, 1]
      strides: &id045 !!python/tuple [2, 2]
      trainable: true
    inbound_nodes:
    - - - cropping2d_4
        - 0
        - 0
        - {}
    name: adjust_avg_pool_2_stem_2
  - class_name: Activation
    config: {activation: relu, name: activation_793, trainable: true}
    inbound_nodes:
    - - - reduction_concat_stem_1
        - 0
        - 0
        - {}
    name: activation_793
  - class_name: Conv2D
    config:
      activation: linear
      activity_regularizer: null
      bias_constraint: null
      bias_initializer:
        class_name: Zeros
        config: {}
      bias_regularizer: null
      data_format: channels_last
      dilation_rate: *id001
      filters: 42
      kernel_constraint: null
      kernel_initializer:
        class_name: VarianceScaling
        config: {distribution: normal, mode: fan_in, scale: 2.0, seed: null}
      kernel_regularizer: null
      kernel_size: &id046 !!python/tuple [1, 1]
      name: adjust_conv_1_stem_2
      padding: same
      strides: &id015 !!python/tuple [1, 1]
      trainable: true
      use_bias: false
    inbound_nodes:
    - - - adjust_avg_pool_1_stem_2
        - 0
        - 0
        - {}
    name: adjust_conv_1_stem_2
  - class_name: Conv2D
    config:
      activation: linear
      activity_regularizer: null
      bias_constraint: null
      bias_initializer:
        class_name: Zeros
        config: {}
      bias_regularizer: null
      data_format: channels_last
      dilation_rate: *id001
      filters: 42
      kernel_constraint: null
      kernel_initializer:
        class_name: VarianceScaling
        config: {distribution: normal, mode: fan_in, scale: 2.0, seed: null}
      kernel_regularizer: null
      kernel_size: &id047 !!python/tuple [1, 1]
      name: adjust_conv_2_stem_2
      padding: same
      strides: *id015
      trainable: true
      use_bias: false
    inbound_nodes:
    - - - adjust_avg_pool_2_stem_2
        - 0
        - 0
        - {}
    name: adjust_conv_2_stem_2
  - class_name: Conv2D
    config:
      activation: linear
      activity_regularizer: null
      bias_constraint: null
      bias_initializer:
        class_name: Zeros
        config: {}
      bias_regularizer: null
      data_format: channels_last
      dilation_rate: *id001
      filters: 84
      kernel_constraint: null
      kernel_initializer:
        class_name: VarianceScaling
        config: {distribution: normal, mode: fan_in, scale: 2.0, seed: null}
      kernel_regularizer: null
      kernel_size: *id016
      name: reduction_conv_1_stem_2
      padding: same
      strides: *id017
      trainable: true
      use_bias: false
    inbound_nodes:
    - - - activation_793
        - 0
        - 0
        - {}
    name: reduction_conv_1_stem_2
  - class_name: Concatenate
    config: {axis: -1, name: concatenate_8, trainable: true}
    inbound_nodes:
    - - - adjust_conv_1_stem_2
        - 0
        - 0
        - &id018 {}
      - - adjust_conv_2_stem_2
        - 0
        - 0
        - *id018
    name: concatenate_8
  - class_name: BatchNormalization
    config:
      axis: -1
      beta_constraint: null
      beta_initializer:
        class_name: Zeros
        config: {}
      beta_regularizer: null
      center: true
      epsilon: 0.001
      gamma_constraint: null
      gamma_initializer:
        class_name: Ones
        config: {}
      gamma_regularizer: null
      momentum: 0.9997
      moving_mean_initializer:
        class_name: Zeros
        config: {}
      moving_variance_initializer:
        class_name: Ones
        config: {}
      name: reduction_bn_1_stem_2
      scale: true
      trainable: true
    inbound_nodes:
    - - - reduction_conv_1_stem_2
        - 0
        - 0
        - {}
    name: reduction_bn_1_stem_2
  - class_name: BatchNormalization
    config:
      axis: -1
      beta_constraint: null
      beta_initializer:
        class_name: Zeros
        config: {}
      beta_regularizer: null
      center: true
      epsilon: 0.001
      gamma_constraint: null
      gamma_initializer:
        class_name: Ones
        config: {}
      gamma_regularizer: null
      momentum: 0.9997
      moving_mean_initializer:
        class_name: Zeros
        config: {}
      moving_variance_initializer:
        class_name: Ones
        config: {}
      name: adjust_bn_stem_2
      scale: true
      trainable: true
    inbound_nodes:
    - - - concatenate_8
        - 0
        - 0
        - {}
    name: adjust_bn_stem_2
  - class_name: Activation
    config: {activation: relu, name: activation_794, trainable: true}
    inbound_nodes:
    - - - reduction_bn_1_stem_2
        - 0
        - 0
        - {}
    name: activation_794
  - class_name: Activation
    config: {activation: relu, name: activation_796, trainable: true}
    inbound_nodes:
    - - - adjust_bn_stem_2
        - 0
        - 0
        - {}
    name: activation_796
  - class_name: SeparableConv2D
    config:
      activation: linear
      activity_regularizer: null
      bias_constraint: null
      bias_initializer:
        class_name: Zeros
        config: {}
      bias_regularizer: null
      data_format: channels_last
      depth_multiplier: 1
      depthwise_constraint: null
      depthwise_initializer:
        class_name: VarianceScaling
        config: {distribution: uniform, mode: fan_avg, scale: 1.0, seed: null}
      depthwise_regularizer: null
      dilation_rate: *id002
      filters: 84
      kernel_size: *id003
      name: separable_conv_1_reduction_left1_stem_2
      padding: same
      pointwise_constraint: null
      pointwise_initializer:
        class_name: VarianceScaling
        config: {distribution: uniform, mode: fan_avg, scale: 1.0, seed: null}
      pointwise_regularizer: null
      strides: *id019
      trainable: true
      use_bias: false
    inbound_nodes:
    - - - activation_794
        - 0
        - 0
        - {}
    name: separable_conv_1_reduction_left1_stem_2
  - class_name: SeparableConv2D
    config:
      activation: linear
      activity_regularizer: null
      bias_constraint: null
      bias_initializer:
        class_name: Zeros
        config: {}
      bias_regularizer: null
      data_format: channels_last
      depth_multiplier: 1
      depthwise_constraint: null
      depthwise_initializer:
        class_name: VarianceScaling
        config: {distribution: uniform, mode: fan_avg, scale: 1.0, seed: null}
      depthwise_regularizer: null
      dilation_rate: *id002
      filters: 84
      kernel_size: *id004
      name: separable_conv_1_reduction_right1_stem_2
      padding: same
      pointwise_constraint: null
      pointwise_initializer:
        class_name: VarianceScaling
        config: {distribution: uniform, mode: fan_avg, scale: 1.0, seed: null}
      pointwise_regularizer: null
      strides: *id020
      trainable: true
      use_bias: false
    inbound_nodes:
    - - - activation_796
        - 0
        - 0
        - {}
    name: separable_conv_1_reduction_right1_stem_2
  - class_name: BatchNormalization
    config:
      axis: -1
      beta_constraint: null
      beta_initializer:
        class_name: Zeros
        config: {}
      beta_regularizer: null
      center: true
      epsilon: 0.001
      gamma_constraint: null
      gamma_initializer:
        class_name: Ones
        config: {}
      gamma_regularizer: null
      momentum: 0.9997
      moving_mean_initializer:
        class_name: Zeros
        config: {}
      moving_variance_initializer:
        class_name: Ones
        config: {}
      name: separable_conv_1_bn_reduction_left1_stem_2
      scale: true
      trainable: true
    inbound_nodes:
    - - - separable_conv_1_reduction_left1_stem_2
        - 0
        - 0
        - {}
    name: separable_conv_1_bn_reduction_left1_stem_2
  - class_name: BatchNormalization
    config:
      axis: -1
      beta_constraint: null
      beta_initializer:
        class_name: Zeros
        config: {}
      beta_regularizer: null
      center: true
      epsilon: 0.001
      gamma_constraint: null
      gamma_initializer:
        class_name: Ones
        config: {}
      gamma_regularizer: null
      momentum: 0.9997
      moving_mean_initializer:
        class_name: Zeros
        config: {}
      moving_variance_initializer:
        class_name: Ones
        config: {}
      name: separable_conv_1_bn_reduction_right1_stem_2
      scale: true
      trainable: true
    inbound_nodes:
    - - - separable_conv_1_reduction_right1_stem_2
        - 0
        - 0
        - {}
    name: separable_conv_1_bn_reduction_right1_stem_2
  - class_name: Activation
    config: {activation: relu, name: activation_795, trainable: true}
    inbound_nodes:
    - - - separable_conv_1_bn_reduction_left1_stem_2
        - 0
        - 0
        - {}
    name: activation_795
  - class_name: Activation
    config: {activation: relu, name: activation_797, trainable: true}
    inbound_nodes:
    - - - separable_conv_1_bn_reduction_right1_stem_2
        - 0
        - 0
        - {}
    name: activation_797
  - class_name: SeparableConv2D
    config:
      activation: linear
      activity_regularizer: null
      bias_constraint: null
      bias_initializer:
        class_name: Zeros
        config: {}
      bias_regularizer: null
      data_format: channels_last
      depth_multiplier: 1
      depthwise_constraint: null
      depthwise_initializer:
        class_name: VarianceScaling
        config: {distribution: uniform, mode: fan_avg, scale: 1.0, seed: null}
      depthwise_regularizer: null
      dilation_rate: *id002
      filters: 84
      kernel_size: *id003
      name: separable_conv_2_reduction_left1_stem_2
      padding: same
      pointwise_constraint: null
      pointwise_initializer:
        class_name: VarianceScaling
        config: {distribution: uniform, mode: fan_avg, scale: 1.0, seed: null}
      pointwise_regularizer: null
      strides: *id005
      trainable: true
      use_bias: false
    inbound_nodes:
    - - - activation_795
        - 0
        - 0
        - {}
    name: separable_conv_2_reduction_left1_stem_2
  - class_name: SeparableConv2D
    config:
      activation: linear
      activity_regularizer: null
      bias_constraint: null
      bias_initializer:
        class_name: Zeros
        config: {}
      bias_regularizer: null
      data_format: channels_last
      depth_multiplier: 1
      depthwise_constraint: null
      depthwise_initializer:
        class_name: VarianceScaling
        config: {distribution: uniform, mode: fan_avg, scale: 1.0, seed: null}
      depthwise_regularizer: null
      dilation_rate: *id002
      filters: 84
      kernel_size: *id004
      name: separable_conv_2_reduction_right1_stem_2
      padding: same
      pointwise_constraint: null
      pointwise_initializer:
        class_name: VarianceScaling
        config: {distribution: uniform, mode: fan_avg, scale: 1.0, seed: null}
      pointwise_regularizer: null
      strides: *id005
      trainable: true
      use_bias: false
    inbound_nodes:
    - - - activation_797
        - 0
        - 0
        - {}
    name: separable_conv_2_reduction_right1_stem_2
  - class_name: BatchNormalization
    config:
      axis: -1
      beta_constraint: null
      beta_initializer:
        class_name: Zeros
        config: {}
      beta_regularizer: null
      center: true
      epsilon: 0.001
      gamma_constraint: null
      gamma_initializer:
        class_name: Ones
        config: {}
      gamma_regularizer: null
      momentum: 0.9997
      moving_mean_initializer:
        class_name: Zeros
        config: {}
      moving_variance_initializer:
        class_name: Ones
        config: {}
      name: separable_conv_2_bn_reduction_left1_stem_2
      scale: true
      trainable: true
    inbound_nodes:
    - - - separable_conv_2_reduction_left1_stem_2
        - 0
        - 0
        - {}
    name: separable_conv_2_bn_reduction_left1_stem_2
  - class_name: BatchNormalization
    config:
      axis: -1
      beta_constraint: null
      beta_initializer:
        class_name: Zeros
        config: {}
      beta_regularizer: null
      center: true
      epsilon: 0.001
      gamma_constraint: null
      gamma_initializer:
        class_name: Ones
        config: {}
      gamma_regularizer: null
      momentum: 0.9997
      moving_mean_initializer:
        class_name: Zeros
        config: {}
      moving_variance_initializer:
        class_name: Ones
        config: {}
      name: separable_conv_2_bn_reduction_right1_stem_2
      scale: true
      trainable: true
    inbound_nodes:
    - - - separable_conv_2_reduction_right1_stem_2
        - 0
        - 0
        - {}
    name: separable_conv_2_bn_reduction_right1_stem_2
  - class_name: Activation
    config: {activation: relu, name: activation_798, trainable: true}
    inbound_nodes:
    - - - adjust_bn_stem_2
        - 0
        - 0
        - {}
    name: activation_798
  - class_name: Add
    config: {name: reduction_add_1_stem_2, trainable: true}
    inbound_nodes:
    - - - separable_conv_2_bn_reduction_left1_stem_2
        - 0
        - 0
        - &id021 {}
      - - separable_conv_2_bn_reduction_right1_stem_2
        - 0
        - 0
        - *id021
    name: reduction_add_1_stem_2
  - class_name: SeparableConv2D
    config:
      activation: linear
      activity_regularizer: null
      bias_constraint: null
      bias_initializer:
        class_name: Zeros
        config: {}
      bias_regularizer: null
      data_format: channels_last
      depth_multiplier: 1
      depthwise_constraint: null
      depthwise_initializer:
        class_name: VarianceScaling
        config: {distribution: uniform, mode: fan_avg, scale: 1.0, seed: null}
      depthwise_regularizer: null
      dilation_rate: *id002
      filters: 84
      kernel_size: *id007
      name: separable_conv_1_reduction_right2_stem_2
      padding: same
      pointwise_constraint: null
      pointwise_initializer:
        class_name: VarianceScaling
        config: {distribution: uniform, mode: fan_avg, scale: 1.0, seed: null}
      pointwise_regularizer: null
      strides: *id022
      trainable: true
      use_bias: false
    inbound_nodes:
    - - - activation_798
        - 0
        - 0
        - {}
    name: separable_conv_1_reduction_right2_stem_2
  - class_name: Activation
    config: {activation: relu, name: activation_800, trainable: true}
    inbound_nodes:
    - - - adjust_bn_stem_2
        - 0
        - 0
        - {}
    name: activation_800
  - class_name: Activation
    config: {activation: relu, name: activation_802, trainable: true}
    inbound_nodes:
    - - - reduction_add_1_stem_2
        - 0
        - 0
        - {}
    name: activation_802
  - class_name: BatchNormalization
    config:
      axis: -1
      beta_constraint: null
      beta_initializer:
        class_name: Zeros
        config: {}
      beta_regularizer: null
      center: true
      epsilon: 0.001
      gamma_constraint: null
      gamma_initializer:
        class_name: Ones
        config: {}
      gamma_regularizer: null
      momentum: 0.9997
      moving_mean_initializer:
        class_name: Zeros
        config: {}
      moving_variance_initializer:
        class_name: Ones
        config: {}
      name: separable_conv_1_bn_reduction_right2_stem_2
      scale: true
      trainable: true
    inbound_nodes:
    - - - separable_conv_1_reduction_right2_stem_2
        - 0
        - 0
        - {}
    name: separable_conv_1_bn_reduction_right2_stem_2
  - class_name: SeparableConv2D
    config:
      activation: linear
      activity_regularizer: null
      bias_constraint: null
      bias_initializer:
        class_name: Zeros
        config: {}
      bias_regularizer: null
      data_format: channels_last
      depth_multiplier: 1
      depthwise_constraint: null
      depthwise_initializer:
        class_name: VarianceScaling
        config: {distribution: uniform, mode: fan_avg, scale: 1.0, seed: null}
      depthwise_regularizer: null
      dilation_rate: *id002
      filters: 84
      kernel_size: *id008
      name: separable_conv_1_reduction_right3_stem_2
      padding: same
      pointwise_constraint: null
      pointwise_initializer:
        class_name: VarianceScaling
        config: {distribution: uniform, mode: fan_avg, scale: 1.0, seed: null}
      pointwise_regularizer: null
      strides: *id023
      trainable: true
      use_bias: false
    inbound_nodes:
    - - - activation_800
        - 0
        - 0
        - {}
    name: separable_conv_1_reduction_right3_stem_2
  - class_name: SeparableConv2D
    config:
      activation: linear
      activity_regularizer: null
      bias_constraint: null
      bias_initializer:
        class_name: Zeros
        config: {}
      bias_regularizer: null
      data_format: channels_last
      depth_multiplier: 1
      depthwise_constraint: null
      depthwise_initializer:
        class_name: VarianceScaling
        config: {distribution: uniform, mode: fan_avg, scale: 1.0, seed: null}
      depthwise_regularizer: null
      dilation_rate: *id002
      filters: 84
      kernel_size: *id009
      name: separable_conv_1_reduction_left4_stem_2
      padding: same
      pointwise_constraint: null
      pointwise_initializer:
        class_name: VarianceScaling
        config: {distribution: uniform, mode: fan_avg, scale: 1.0, seed: null}
      pointwise_regularizer: null
      strides: *id024
      trainable: true
      use_bias: false
    inbound_nodes:
    - - - activation_802
        - 0
        - 0
        - {}
    name: separable_conv_1_reduction_left4_stem_2
  - class_name: Activation
    config: {activation: relu, name: activation_799, trainable: true}
    inbound_nodes:
    - - - separable_conv_1_bn_reduction_right2_stem_2
        - 0
        - 0
        - {}
    name: activation_799
  - class_name: BatchNormalization
    config:
      axis: -1
      beta_constraint: null
      beta_initializer:
        class_name: Zeros
        config: {}
      beta_regularizer: null
      center: true
      epsilon: 0.001
      gamma_constraint: null
      gamma_initializer:
        class_name: Ones
        config: {}
      gamma_regularizer: null
      momentum: 0.9997
      moving_mean_initializer:
        class_name: Zeros
        config: {}
      moving_variance_initializer:
        class_name: Ones
        config: {}
      name: separable_conv_1_bn_reduction_right3_stem_2
      scale: true
      trainable: true
    inbound_nodes:
    - - - separable_conv_1_reduction_right3_stem_2
        - 0
        - 0
        - {}
    name: separable_conv_1_bn_reduction_right3_stem_2
  - class_name: BatchNormalization
    config:
      axis: -1
      beta_constraint: null
      beta_initializer:
        class_name: Zeros
        config: {}
      beta_regularizer: null
      center: true
      epsilon: 0.001
      gamma_constraint: null
      gamma_initializer:
        class_name: Ones
        config: {}
      gamma_regularizer: null
      momentum: 0.9997
      moving_mean_initializer:
        class_name: Zeros
        config: {}
      moving_variance_initializer:
        class_name: Ones
        config: {}
      name: separable_conv_1_bn_reduction_left4_stem_2
      scale: true
      trainable: true
    inbound_nodes:
    - - - separable_conv_1_reduction_left4_stem_2
        - 0
        - 0
        - {}
    name: separable_conv_1_bn_reduction_left4_stem_2
  - class_name: SeparableConv2D
    config:
      activation: linear
      activity_regularizer: null
      bias_constraint: null
      bias_initializer:
        class_name: Zeros
        config: {}
      bias_regularizer: null
      data_format: channels_last
      depth_multiplier: 1
      depthwise_constraint: null
      depthwise_initializer:
        class_name: VarianceScaling
        config: {distribution: uniform, mode: fan_avg, scale: 1.0, seed: null}
      depthwise_regularizer: null
      dilation_rate: *id002
      filters: 84
      kernel_size: *id007
      name: separable_conv_2_reduction_right2_stem_2
      padding: same
      pointwise_constraint: null
      pointwise_initializer:
        class_name: VarianceScaling
        config: {distribution: uniform, mode: fan_avg, scale: 1.0, seed: null}
      pointwise_regularizer: null
      strides: *id005
      trainable: true
      use_bias: false
    inbound_nodes:
    - - - activation_799
        - 0
        - 0
        - {}
    name: separable_conv_2_reduction_right2_stem_2
  - class_name: Activation
    config: {activation: relu, name: activation_801, trainable: true}
    inbound_nodes:
    - - - separable_conv_1_bn_reduction_right3_stem_2
        - 0
        - 0
        - {}
    name: activation_801
  - class_name: Activation
    config: {activation: relu, name: activation_803, trainable: true}
    inbound_nodes:
    - - - separable_conv_1_bn_reduction_left4_stem_2
        - 0
        - 0
        - {}
    name: activation_803
  - class_name: MaxPooling2D
    config:
      data_format: channels_last
      name: reduction_left2_stem_2
      padding: same
      pool_size: *id025
      strides: *id026
      trainable: true
    inbound_nodes:
    - - - reduction_bn_1_stem_2
        - 0
        - 0
        - {}
    name: reduction_left2_stem_2
  - class_name: BatchNormalization
    config:
      axis: -1
      beta_constraint: null
      beta_initializer:
        class_name: Zeros
        config: {}
      beta_regularizer: null
      center: true
      epsilon: 0.001
      gamma_constraint: null
      gamma_initializer:
        class_name: Ones
        config: {}
      gamma_regularizer: null
      momentum: 0.9997
      moving_mean_initializer:
        class_name: Zeros
        config: {}
      moving_variance_initializer:
        class_name: Ones
        config: {}
      name: separable_conv_2_bn_reduction_right2_stem_2
      scale: true
      trainable: true
    inbound_nodes:
    - - - separable_conv_2_reduction_right2_stem_2
        - 0
        - 0
        - {}
    name: separable_conv_2_bn_reduction_right2_stem_2
  - class_name: SeparableConv2D
    config:
      activation: linear
      activity_regularizer: null
      bias_constraint: null
      bias_initializer:
        class_name: Zeros
        config: {}
      bias_regularizer: null
      data_format: channels_last
      depth_multiplier: 1
      depthwise_constraint: null
      depthwise_initializer:
        class_name: VarianceScaling
        config: {distribution: uniform, mode: fan_avg, scale: 1.0, seed: null}
      depthwise_regularizer: null
      dilation_rate: *id002
      filters: 84
      kernel_size: *id008
      name: separable_conv_2_reduction_right3_stem_2
      padding: same
      pointwise_constraint: null
      pointwise_initializer:
        class_name: VarianceScaling
        config: {distribution: uniform, mode: fan_avg, scale: 1.0, seed: null}
      pointwise_regularizer: null
      strides: *id005
      trainable: true
      use_bias: false
    inbound_nodes:
    - - - activation_801
        - 0
        - 0
        - {}
    name: separable_conv_2_reduction_right3_stem_2
  - class_name: SeparableConv2D
    config:
      activation: linear
      activity_regularizer: null
      bias_constraint: null
      bias_initializer:
        class_name: Zeros
        config: {}
      bias_regularizer: null
      data_format: channels_last
      depth_multiplier: 1
      depthwise_constraint: null
      depthwise_initializer:
        class_name: VarianceScaling
        config: {distribution: uniform, mode: fan_avg, scale: 1.0, seed: null}
      depthwise_regularizer: null
      dilation_rate: *id002
      filters: 84
      kernel_size: *id009
      name: separable_conv_2_reduction_left4_stem_2
      padding: same
      pointwise_constraint: null
      pointwise_initializer:
        class_name: VarianceScaling
        config: {distribution: uniform, mode: fan_avg, scale: 1.0, seed: null}
      pointwise_regularizer: null
      strides: *id005
      trainable: true
      use_bias: false
    inbound_nodes:
    - - - activation_803
        - 0
        - 0
        - {}
    name: separable_conv_2_reduction_left4_stem_2
  - class_name: Activation
    config: {activation: relu, name: adjust_relu_1_0, trainable: true}
    inbound_nodes:
    - - - reduction_concat_stem_1
        - 0
        - 0
        - {}
    name: adjust_relu_1_0
  - class_name: Add
    config: {name: reduction_add_2_stem_2, trainable: true}
    inbound_nodes:
    - - - reduction_left2_stem_2
        - 0
        - 0
        - &id027 {}
      - - separable_conv_2_bn_reduction_right2_stem_2
        - 0
        - 0
        - *id027
    name: reduction_add_2_stem_2
  - class_name: AveragePooling2D
    config:
      data_format: channels_last
      name: reduction_left3_stem_2
      padding: same
      pool_size: *id028
      strides: *id029
      trainable: true
    inbound_nodes:
    - - - reduction_bn_1_stem_2
        - 0
        - 0
        - {}
    name: reduction_left3_stem_2
  - class_name: BatchNormalization
    config:
      axis: -1
      beta_constraint: null
      beta_initializer:
        class_name: Zeros
        config: {}
      beta_regularizer: null
      center: true
      epsilon: 0.001
      gamma_constraint: null
      gamma_initializer:
        class_name: Ones
        config: {}
      gamma_regularizer: null
      momentum: 0.9997
      moving_mean_initializer:
        class_name: Zeros
        config: {}
      moving_variance_initializer:
        class_name: Ones
        config: {}
      name: separable_conv_2_bn_reduction_right3_stem_2
      scale: true
      trainable: true
    inbound_nodes:
    - - - separable_conv_2_reduction_right3_stem_2
        - 0
        - 0
        - {}
    name: separable_conv_2_bn_reduction_right3_stem_2
  - class_name: AveragePooling2D
    config:
      data_format: channels_last
      name: reduction_left4_stem_2
      padding: same
      pool_size: *id030
      strides: *id031
      trainable: true
    inbound_nodes:
    - - - reduction_add_1_stem_2
        - 0
        - 0
        - {}
    name: reduction_left4_stem_2
  - class_name: BatchNormalization
    config:
      axis: -1
      beta_constraint: null
      beta_initializer:
        class_name: Zeros
        config: {}
      beta_regularizer: null
      center: true
      epsilon: 0.001
      gamma_constraint: null
      gamma_initializer:
        class_name: Ones
        config: {}
      gamma_regularizer: null
      momentum: 0.9997
      moving_mean_initializer:
        class_name: Zeros
        config: {}
      moving_variance_initializer:
        class_name: Ones
        config: {}
      name: separable_conv_2_bn_reduction_left4_stem_2
      scale: true
      trainable: true
    inbound_nodes:
    - - - separable_conv_2_reduction_left4_stem_2
        - 0
        - 0
        - {}
    name: separable_conv_2_bn_reduction_left4_stem_2
  - class_name: MaxPooling2D
    config:
      data_format: channels_last
      name: reduction_right5_stem_2
      padding: same
      pool_size: *id032
      strides: *id033
      trainable: true
    inbound_nodes:
    - - - reduction_bn_1_stem_2
        - 0
        - 0
        - {}
    name: reduction_right5_stem_2
  - class_name: ZeroPadding2D
    config:
      data_format: channels_last
      name: zero_padding2d_17
      padding: !!python/tuple
      - *id034
      - *id035
      trainable: true
    inbound_nodes:
    - - - adjust_relu_1_0
        - 0
        - 0
        - {}
    name: zero_padding2d_17
  - class_name: Add
    config: {name: reduction_add3_stem_2, trainable: true}
    inbound_nodes:
    - - - reduction_left3_stem_2
        - 0
        - 0
        - &id036 {}
      - - separable_conv_2_bn_reduction_right3_stem_2
        - 0
        - 0
        - *id036
    name: reduction_add3_stem_2
  - class_name: Add
    config: {name: add_6, trainable: true}
    inbound_nodes:
    - - - reduction_add_2_stem_2
        - 0
        - 0
        - &id037 {}
      - - reduction_left4_stem_2
        - 0
        - 0
        - *id037
    name: add_6
  - class_name: Add
    config: {name: reduction_add4_stem_2, trainable: true}
    inbound_nodes:
    - - - separable_conv_2_bn_reduction_left4_stem_2
        - 0
        - 0
        - &id038 {}
      - - reduction_right5_stem_2
        - 0
        - 0
        - *id038
    name: reduction_add4_stem_2
  - class_name: Cropping2D
    config:
      cropping: !!python/tuple
      - *id039
      - *id040
      data_format: channels_last
      name: cropping2d_5
      trainable: true
    inbound_nodes:
    - - - zero_padding2d_17
        - 0
        - 0
        - {}
    name: cropping2d_5
  - class_name: Concatenate
    config: {axis: -1, name: reduction_concat_stem_2, trainable: true}
    inbound_nodes:
    - - - reduction_add_2_stem_2
        - 0
        - 0
        - &id041 {}
      - - reduction_add3_stem_2
        - 0
        - 0
        - *id041
      - - add_6
        - 0
        - 0
        - *id041
      - - reduction_add4_stem_2
        - 0
        - 0
        - *id041
    name: reduction_concat_stem_2
  - class_name: AveragePooling2D
    config:
      data_format: channels_last
      name: adjust_avg_pool_1_0
      padding: valid
      pool_size: *id042
      strides: *id043
      trainable: true
    inbound_nodes:
    - - - adjust_relu_1_0
        - 0
        - 0
        - {}
    name: adjust_avg_pool_1_0
  - class_name: AveragePooling2D
    config:
      data_format: channels_last
      name: adjust_avg_pool_2_0
      padding: valid
      pool_size: *id044
      strides: *id045
      trainable: true
    inbound_nodes:
    - - - cropping2d_5
        - 0
        - 0
        - {}
    name: adjust_avg_pool_2_0
  - class_name: Conv2D
    config:
      activation: linear
      activity_regularizer: null
      bias_constraint: null
      bias_initializer:
        class_name: Zeros
        config: {}
      bias_regularizer: null
      data_format: channels_last
      dilation_rate: *id001
      filters: 84
      kernel_constraint: null
      kernel_initializer:
        class_name: VarianceScaling
        config: {distribution: normal, mode: fan_in, scale: 2.0, seed: null}
      kernel_regularizer: null
      kernel_size: *id046
      name: adjust_conv_1_0
      padding: same
      strides: *id015
      trainable: true
      use_bias: false
    inbound_nodes:
    - - - adjust_avg_pool_1_0
        - 0
        - 0
        - {}
    name: adjust_conv_1_0
  - class_name: Conv2D
    config:
      activation: linear
      activity_regularizer: null
      bias_constraint: null
      bias_initializer:
        class_name: Zeros
        config: {}
      bias_regularizer: null
      data_format: channels_last
      dilation_rate: *id001
      filters: 84
      kernel_constraint: null
      kernel_initializer:
        class_name: VarianceScaling
        config: {distribution: normal, mode: fan_in, scale: 2.0, seed: null}
      kernel_regularizer: null
      kernel_size: *id047
      name: adjust_conv_2_0
      padding: same
      strides: *id015
      trainable: true
      use_bias: false
    inbound_nodes:
    - - - adjust_avg_pool_2_0
        - 0
        - 0
        - {}
    name: adjust_conv_2_0
  - class_name: Activation
    config: {activation: relu, name: activation_804, trainable: true}
    inbound_nodes:
    - - - reduction_concat_stem_2
        - 0
        - 0
        - {}
    name: activation_804
  - class_name: Concatenate
    config: {axis: -1, name: concatenate_9, trainable: true}
    inbound_nodes:
    - - - adjust_conv_1_0
        - 0
        - 0
        - &id048 {}
      - - adjust_conv_2_0
        - 0
        - 0
        - *id048
    name: concatenate_9
  - class_name: Conv2D
    config:
      activation: linear
      activity_regularizer: null
      bias_constraint: null
      bias_initializer:
        class_name: Zeros
        config: {}
      bias_regularizer: null
      data_format: channels_last
      dilation_rate: *id001
      filters: 168
      kernel_constraint: null
      kernel_initializer:
        class_name: VarianceScaling
        config: {distribution: normal, mode: fan_in, scale: 2.0, seed: null}
      kernel_regularizer: null
      kernel_size: &id059 !!python/tuple [1, 1]
      name: normal_conv_1_0
      padding: same
      strides: &id060 !!python/tuple [1, 1]
      trainable: true
      use_bias: false
    inbound_nodes:
    - - - activation_804
        - 0
        - 0
        - {}
    name: normal_conv_1_0
  - class_name: BatchNormalization
    config:
      axis: -1
      beta_constraint: null
      beta_initializer:
        class_name: Zeros
        config: {}
      beta_regularizer: null
      center: true
      epsilon: 0.001
      gamma_constraint: null
      gamma_initializer:
        class_name: Ones
        config: {}
      gamma_regularizer: null
      momentum: 0.9997
      moving_mean_initializer:
        class_name: Zeros
        config: {}
      moving_variance_initializer:
        class_name: Ones
        config: {}
      name: adjust_bn_0
      scale: true
      trainable: true
    inbound_nodes:
    - - - concatenate_9
        - 0
        - 0
        - {}
    name: adjust_bn_0
  - class_name: BatchNormalization
    config:
      axis: -1
      beta_constraint: null
      beta_initializer:
        class_name: Zeros
        config: {}
      beta_regularizer: null
      center: true
      epsilon: 0.001
      gamma_constraint: null
      gamma_initializer:
        class_name: Ones
        config: {}
      gamma_regularizer: null
      momentum: 0.9997
      moving_mean_initializer:
        class_name: Zeros
        config: {}
      moving_variance_initializer:
        class_name: Ones
        config: {}
      name: normal_bn_1_0
      scale: true
      trainable: true
    inbound_nodes:
    - - - normal_conv_1_0
        - 0
        - 0
        - {}
    name: normal_bn_1_0
  - class_name: Activation
    config: {activation: relu, name: activation_805, trainable: true}
    inbound_nodes:
    - - - normal_bn_1_0
        - 0
        - 0
        - {}
    name: activation_805
  - class_name: Activation
    config: {activation: relu, name: activation_807, trainable: true}
    inbound_nodes:
    - - - adjust_bn_0
        - 0
        - 0
        - {}
    name: activation_807
  - class_name: Activation
    config: {activation: relu, name: activation_809, trainable: true}
    inbound_nodes:
    - - - adjust_bn_0
        - 0
        - 0
        - {}
    name: activation_809
  - class_name: Activation
    config: {activation: relu, name: activation_811, trainable: true}
    inbound_nodes:
    - - - adjust_bn_0
        - 0
        - 0
        - {}
    name: activation_811
  - class_name: Activation
    config: {activation: relu, name: activation_813, trainable: true}
    inbound_nodes:
    - - - normal_bn_1_0
        - 0
        - 0
        - {}
    name: activation_813
  - class_name: SeparableConv2D
    config:
      activation: linear
      activity_regularizer: null
      bias_constraint: null
      bias_initializer:
        class_name: Zeros
        config: {}
      bias_regularizer: null
      data_format: channels_last
      depth_multiplier: 1
      depthwise_constraint: null
      depthwise_initializer:
        class_name: VarianceScaling
        config: {distribution: uniform, mode: fan_avg, scale: 1.0, seed: null}
      depthwise_regularizer: null
      dilation_rate: *id002
      filters: 168
      kernel_size: &id050 !!python/tuple [5, 5]
      name: separable_conv_1_normal_left1_0
      padding: same
      pointwise_constraint: null
      pointwise_initializer:
        class_name: VarianceScaling
        config: {distribution: uniform, mode: fan_avg, scale: 1.0, seed: null}
      pointwise_regularizer: null
      strides: *id024
      trainable: true
      use_bias: false
    inbound_nodes:
    - - - activation_805
        - 0
        - 0
        - {}
    name: separable_conv_1_normal_left1_0
  - class_name: SeparableConv2D
    config:
      activation: linear
      activity_regularizer: null
      bias_constraint: null
      bias_initializer:
        class_name: Zeros
        config: {}
      bias_regularizer: null
      data_format: channels_last
      depth_multiplier: 1
      depthwise_constraint: null
      depthwise_initializer:
        class_name: VarianceScaling
        config: {distribution: uniform, mode: fan_avg, scale: 1.0, seed: null}
      depthwise_regularizer: null
      dilation_rate: *id002
      filters: 168
      kernel_size: &id049 !!python/tuple [3, 3]
      name: separable_conv_1_normal_right1_0
      padding: same
      pointwise_constraint: null
      pointwise_initializer:
        class_name: VarianceScaling
        config: {distribution: uniform, mode: fan_avg, scale: 1.0, seed: null}
      pointwise_regularizer: null
      strides: *id024
      trainable: true
      use_bias: false
    inbound_nodes:
    - - - activation_807
        - 0
        - 0
        - {}
    name: separable_conv_1_normal_right1_0
  - class_name: SeparableConv2D
    config:
      activation: linear
      activity_regularizer: null
      bias_constraint: null
      bias_initializer:
        class_name: Zeros
        config: {}
      bias_regularizer: null
      data_format: channels_last
      depth_multiplier: 1
      depthwise_constraint: null
      depthwise_initializer:
        class_name: VarianceScaling
        config: {distribution: uniform, mode: fan_avg, scale: 1.0, seed: null}
      depthwise_regularizer: null
      dilation_rate: *id002
      filters: 168
      kernel_size: &id051 !!python/tuple [5, 5]
      name: separable_conv_1_normal_left2_0
      padding: same
      pointwise_constraint: null
      pointwise_initializer:
        class_name: VarianceScaling
        config: {distribution: uniform, mode: fan_avg, scale: 1.0, seed: null}
      pointwise_regularizer: null
      strides: *id024
      trainable: true
      use_bias: false
    inbound_nodes:
    - - - activation_809
        - 0
        - 0
        - {}
    name: separable_conv_1_normal_left2_0
  - class_name: SeparableConv2D
    config:
      activation: linear
      activity_regularizer: null
      bias_constraint: null
      bias_initializer:
        class_name: Zeros
        config: {}
      bias_regularizer: null
      data_format: channels_last
      depth_multiplier: 1
      depthwise_constraint: null
      depthwise_initializer:
        class_name: VarianceScaling
        config: {distribution: uniform, mode: fan_avg, scale: 1.0, seed: null}
      depthwise_regularizer: null
      dilation_rate: *id002
      filters: 168
      kernel_size: &id052 !!python/tuple [3, 3]
      name: separable_conv_1_normal_right2_0
      padding: same
      pointwise_constraint: null
      pointwise_initializer:
        class_name: VarianceScaling
        config: {distribution: uniform, mode: fan_avg, scale: 1.0, seed: null}
      pointwise_regularizer: null
      strides: *id024
      trainable: true
      use_bias: false
    inbound_nodes:
    - - - activation_811
        - 0
        - 0
        - {}
    name: separable_conv_1_normal_right2_0
  - class_name: SeparableConv2D
    config:
      activation: linear
      activity_regularizer: null
      bias_constraint: null
      bias_initializer:
        class_name: Zeros
        config: {}
      bias_regularizer: null
      data_format: channels_last
      depth_multiplier: 1
      depthwise_constraint: null
      depthwise_initializer:
        class_name: VarianceScaling
        config: {distribution: uniform, mode: fan_avg, scale: 1.0, seed: null}
      depthwise_regularizer: null
      dilation_rate: *id002
      filters: 168
      kernel_size: *id049
      name: separable_conv_1_normal_left5_0
      padding: same
      pointwise_constraint: null
      pointwise_initializer:
        class_name: VarianceScaling
        config: {distribution: uniform, mode: fan_avg, scale: 1.0, seed: null}
      pointwise_regularizer: null
      strides: *id024
      trainable: true
      use_bias: false
    inbound_nodes:
    - - - activation_813
        - 0
        - 0
        - {}
    name: separable_conv_1_normal_left5_0
  - class_name: BatchNormalization
    config:
      axis: -1
      beta_constraint: null
      beta_initializer:
        class_name: Zeros
        config: {}
      beta_regularizer: null
      center: true
      epsilon: 0.001
      gamma_constraint: null
      gamma_initializer:
        class_name: Ones
        config: {}
      gamma_regularizer: null
      momentum: 0.9997
      moving_mean_initializer:
        class_name: Zeros
        config: {}
      moving_variance_initializer:
        class_name: Ones
        config: {}
      name: separable_conv_1_bn_normal_left1_0
      scale: true
      trainable: true
    inbound_nodes:
    - - - separable_conv_1_normal_left1_0
        - 0
        - 0
        - {}
    name: separable_conv_1_bn_normal_left1_0
  - class_name: BatchNormalization
    config:
      axis: -1
      beta_constraint: null
      beta_initializer:
        class_name: Zeros
        config: {}
      beta_regularizer: null
      center: true
      epsilon: 0.001
      gamma_constraint: null
      gamma_initializer:
        class_name: Ones
        config: {}
      gamma_regularizer: null
      momentum: 0.9997
      moving_mean_initializer:
        class_name: Zeros
        config: {}
      moving_variance_initializer:
        class_name: Ones
        config: {}
      name: separable_conv_1_bn_normal_right1_0
      scale: true
      trainable: true
    inbound_nodes:
    - - - separable_conv_1_normal_right1_0
        - 0
        - 0
        - {}
    name: separable_conv_1_bn_normal_right1_0
  - class_name: BatchNormalization
    config:
      axis: -1
      beta_constraint: null
      beta_initializer:
        class_name: Zeros
        config: {}
      beta_regularizer: null
      center: true
      epsilon: 0.001
      gamma_constraint: null
      gamma_initializer:
        class_name: Ones
        config: {}
      gamma_regularizer: null
      momentum: 0.9997
      moving_mean_initializer:
        class_name: Zeros
        config: {}
      moving_variance_initializer:
        class_name: Ones
        config: {}
      name: separable_conv_1_bn_normal_left2_0
      scale: true
      trainable: true
    inbound_nodes:
    - - - separable_conv_1_normal_left2_0
        - 0
        - 0
        - {}
    name: separable_conv_1_bn_normal_left2_0
  - class_name: BatchNormalization
    config:
      axis: -1
      beta_constraint: null
      beta_initializer:
        class_name: Zeros
        config: {}
      beta_regularizer: null
      center: true
      epsilon: 0.001
      gamma_constraint: null
      gamma_initializer:
        class_name: Ones
        config: {}
      gamma_regularizer: null
      momentum: 0.9997
      moving_mean_initializer:
        class_name: Zeros
        config: {}
      moving_variance_initializer:
        class_name: Ones
        config: {}
      name: separable_conv_1_bn_normal_right2_0
      scale: true
      trainable: true
    inbound_nodes:
    - - - separable_conv_1_normal_right2_0
        - 0
        - 0
        - {}
    name: separable_conv_1_bn_normal_right2_0
  - class_name: BatchNormalization
    config:
      axis: -1
      beta_constraint: null
      beta_initializer:
        class_name: Zeros
        config: {}
      beta_regularizer: null
      center: true
      epsilon: 0.001
      gamma_constraint: null
      gamma_initializer:
        class_name: Ones
        config: {}
      gamma_regularizer: null
      momentum: 0.9997
      moving_mean_initializer:
        class_name: Zeros
        config: {}
      moving_variance_initializer:
        class_name: Ones
        config: {}
      name: separable_conv_1_bn_normal_left5_0
      scale: true
      trainable: true
    inbound_nodes:
    - - - separable_conv_1_normal_left5_0
        - 0
        - 0
        - {}
    name: separable_conv_1_bn_normal_left5_0
  - class_name: Activation
    config: {activation: relu, name: activation_806, trainable: true}
    inbound_nodes:
    - - - separable_conv_1_bn_normal_left1_0
        - 0
        - 0
        - {}
    name: activation_806
  - class_name: Activation
    config: {activation: relu, name: activation_808, trainable: true}
    inbound_nodes:
    - - - separable_conv_1_bn_normal_right1_0
        - 0
        - 0
        - {}
    name: activation_808
  - class_name: Activation
    config: {activation: relu, name: activation_810, trainable: true}
    inbound_nodes:
    - - - separable_conv_1_bn_normal_left2_0
        - 0
        - 0
        - {}
    name: activation_810
  - class_name: Activation
    config: {activation: relu, name: activation_812, trainable: true}
    inbound_nodes:
    - - - separable_conv_1_bn_normal_right2_0
        - 0
        - 0
        - {}
    name: activation_812
  - class_name: Activation
    config: {activation: relu, name: activation_814, trainable: true}
    inbound_nodes:
    - - - separable_conv_1_bn_normal_left5_0
        - 0
        - 0
        - {}
    name: activation_814
  - class_name: SeparableConv2D
    config:
      activation: linear
      activity_regularizer: null
      bias_constraint: null
      bias_initializer:
        class_name: Zeros
        config: {}
      bias_regularizer: null
      data_format: channels_last
      depth_multiplier: 1
      depthwise_constraint: null
      depthwise_initializer:
        class_name: VarianceScaling
        config: {distribution: uniform, mode: fan_avg, scale: 1.0, seed: null}
      depthwise_regularizer: null
      dilation_rate: *id002
      filters: 168
      kernel_size: *id050
      name: separable_conv_2_normal_left1_0
      padding: same
      pointwise_constraint: null
      pointwise_initializer:
        class_name: VarianceScaling
        config: {distribution: uniform, mode: fan_avg, scale: 1.0, seed: null}
      pointwise_regularizer: null
      strides: *id005
      trainable: true
      use_bias: false
    inbound_nodes:
    - - - activation_806
        - 0
        - 0
        - {}
    name: separable_conv_2_normal_left1_0
  - class_name: SeparableConv2D
    config:
      activation: linear
      activity_regularizer: null
      bias_constraint: null
      bias_initializer:
        class_name: Zeros
        config: {}
      bias_regularizer: null
      data_format: channels_last
      depth_multiplier: 1
      depthwise_constraint: null
      depthwise_initializer:
        class_name: VarianceScaling
        config: {distribution: uniform, mode: fan_avg, scale: 1.0, seed: null}
      depthwise_regularizer: null
      dilation_rate: *id002
      filters: 168
      kernel_size: *id049
      name: separable_conv_2_normal_right1_0
      padding: same
      pointwise_constraint: null
      pointwise_initializer:
        class_name: VarianceScaling
        config: {distribution: uniform, mode: fan_avg, scale: 1.0, seed: null}
      pointwise_regularizer: null
      strides: *id005
      trainable: true
      use_bias: false
    inbound_nodes:
    - - - activation_808
        - 0
        - 0
        - {}
    name: separable_conv_2_normal_right1_0
  - class_name: SeparableConv2D
    config:
      activation: linear
      activity_regularizer: null
      bias_constraint: null
      bias_initializer:
        class_name: Zeros
        config: {}
      bias_regularizer: null
      data_format: channels_last
      depth_multiplier: 1
      depthwise_constraint: null
      depthwise_initializer:
        class_name: VarianceScaling
        config: {distribution: uniform, mode: fan_avg, scale: 1.0, seed: null}
      depthwise_regularizer: null
      dilation_rate: *id002
      filters: 168
      kernel_size: *id051
      name: separable_conv_2_normal_left2_0
      padding: same
      pointwise_constraint: null
      pointwise_initializer:
        class_name: VarianceScaling
        config: {distribution: uniform, mode: fan_avg, scale: 1.0, seed: null}
      pointwise_regularizer: null
      strides: *id005
      trainable: true
      use_bias: false
    inbound_nodes:
    - - - activation_810
        - 0
        - 0
        - {}
    name: separable_conv_2_normal_left2_0
  - class_name: SeparableConv2D
    config:
      activation: linear
      activity_regularizer: null
      bias_constraint: null
      bias_initializer:
        class_name: Zeros
        config: {}
      bias_regularizer: null
      data_format: channels_last
      depth_multiplier: 1
      depthwise_constraint: null
      depthwise_initializer:
        class_name: VarianceScaling
        config: {distribution: uniform, mode: fan_avg, scale: 1.0, seed: null}
      depthwise_regularizer: null
      dilation_rate: *id002
      filters: 168
      kernel_size: *id052
      name: separable_conv_2_normal_right2_0
      padding: same
      pointwise_constraint: null
      pointwise_initializer:
        class_name: VarianceScaling
        config: {distribution: uniform, mode: fan_avg, scale: 1.0, seed: null}
      pointwise_regularizer: null
      strides: *id005
      trainable: true
      use_bias: false
    inbound_nodes:
    - - - activation_812
        - 0
        - 0
        - {}
    name: separable_conv_2_normal_right2_0
  - class_name: SeparableConv2D
    config:
      activation: linear
      activity_regularizer: null
      bias_constraint: null
      bias_initializer:
        class_name: Zeros
        config: {}
      bias_regularizer: null
      data_format: channels_last
      depth_multiplier: 1
      depthwise_constraint: null
      depthwise_initializer:
        class_name: VarianceScaling
        config: {distribution: uniform, mode: fan_avg, scale: 1.0, seed: null}
      depthwise_regularizer: null
      dilation_rate: *id002
      filters: 168
      kernel_size: *id049
      name: separable_conv_2_normal_left5_0
      padding: same
      pointwise_constraint: null
      pointwise_initializer:
        class_name: VarianceScaling
        config: {distribution: uniform, mode: fan_avg, scale: 1.0, seed: null}
      pointwise_regularizer: null
      strides: *id005
      trainable: true
      use_bias: false
    inbound_nodes:
    - - - activation_814
        - 0
        - 0
        - {}
    name: separable_conv_2_normal_left5_0
  - class_name: BatchNormalization
    config:
      axis: -1
      beta_constraint: null
      beta_initializer:
        class_name: Zeros
        config: {}
      beta_regularizer: null
      center: true
      epsilon: 0.001
      gamma_constraint: null
      gamma_initializer:
        class_name: Ones
        config: {}
      gamma_regularizer: null
      momentum: 0.9997
      moving_mean_initializer:
        class_name: Zeros
        config: {}
      moving_variance_initializer:
        class_name: Ones
        config: {}
      name: separable_conv_2_bn_normal_left1_0
      scale: true
      trainable: true
    inbound_nodes:
    - - - separable_conv_2_normal_left1_0
        - 0
        - 0
        - {}
    name: separable_conv_2_bn_normal_left1_0
  - class_name: BatchNormalization
    config:
      axis: -1
      beta_constraint: null
      beta_initializer:
        class_name: Zeros
        config: {}
      beta_regularizer: null
      center: true
      epsilon: 0.001
      gamma_constraint: null
      gamma_initializer:
        class_name: Ones
        config: {}
      gamma_regularizer: null
      momentum: 0.9997
      moving_mean_initializer:
        class_name: Zeros
        config: {}
      moving_variance_initializer:
        class_name: Ones
        config: {}
      name: separable_conv_2_bn_normal_right1_0
      scale: true
      trainable: true
    inbound_nodes:
    - - - separable_conv_2_normal_right1_0
        - 0
        - 0
        - {}
    name: separable_conv_2_bn_normal_right1_0
  - class_name: BatchNormalization
    config:
      axis: -1
      beta_constraint: null
      beta_initializer:
        class_name: Zeros
        config: {}
      beta_regularizer: null
      center: true
      epsilon: 0.001
      gamma_constraint: null
      gamma_initializer:
        class_name: Ones
        config: {}
      gamma_regularizer: null
      momentum: 0.9997
      moving_mean_initializer:
        class_name: Zeros
        config: {}
      moving_variance_initializer:
        class_name: Ones
        config: {}
      name: separable_conv_2_bn_normal_left2_0
      scale: true
      trainable: true
    inbound_nodes:
    - - - separable_conv_2_normal_left2_0
        - 0
        - 0
        - {}
    name: separable_conv_2_bn_normal_left2_0
  - class_name: BatchNormalization
    config:
      axis: -1
      beta_constraint: null
      beta_initializer:
        class_name: Zeros
        config: {}
      beta_regularizer: null
      center: true
      epsilon: 0.001
      gamma_constraint: null
      gamma_initializer:
        class_name: Ones
        config: {}
      gamma_regularizer: null
      momentum: 0.9997
      moving_mean_initializer:
        class_name: Zeros
        config: {}
      moving_variance_initializer:
        class_name: Ones
        config: {}
      name: separable_conv_2_bn_normal_right2_0
      scale: true
      trainable: true
    inbound_nodes:
    - - - separable_conv_2_normal_right2_0
        - 0
        - 0
        - {}
    name: separable_conv_2_bn_normal_right2_0
  - class_name: AveragePooling2D
    config:
      data_format: channels_last
      name: normal_left3_0
      padding: same
      pool_size: &id061 !!python/tuple [3, 3]
      strides: &id062 !!python/tuple [1, 1]
      trainable: true
    inbound_nodes:
    - - - normal_bn_1_0
        - 0
        - 0
        - {}
    name: normal_left3_0
  - class_name: AveragePooling2D
    config:
      data_format: channels_last
      name: normal_left4_0
      padding: same
      pool_size: &id063 !!python/tuple [3, 3]
      strides: &id064 !!python/tuple [1, 1]
      trainable: true
    inbound_nodes:
    - - - adjust_bn_0
        - 0
        - 0
        - {}
    name: normal_left4_0
  - class_name: AveragePooling2D
    config:
      data_format: channels_last
      name: normal_right4_0
      padding: same
      pool_size: &id065 !!python/tuple [3, 3]
      strides: &id066 !!python/tuple [1, 1]
      trainable: true
    inbound_nodes:
    - - - adjust_bn_0
        - 0
        - 0
        - {}
    name: normal_right4_0
  - class_name: BatchNormalization
    config:
      axis: -1
      beta_constraint: null
      beta_initializer:
        class_name: Zeros
        config: {}
      beta_regularizer: null
      center: true
      epsilon: 0.001
      gamma_constraint: null
      gamma_initializer:
        class_name: Ones
        config: {}
      gamma_regularizer: null
      momentum: 0.9997
      moving_mean_initializer:
        class_name: Zeros
        config: {}
      moving_variance_initializer:
        class_name: Ones
        config: {}
      name: separable_conv_2_bn_normal_left5_0
      scale: true
      trainable: true
    inbound_nodes:
    - - - separable_conv_2_normal_left5_0
        - 0
        - 0
        - {}
    name: separable_conv_2_bn_normal_left5_0
  - class_name: Add
    config: {name: normal_add_1_0, trainable: true}
    inbound_nodes:
    - - - separable_conv_2_bn_normal_left1_0
        - 0
        - 0
        - &id053 {}
      - - separable_conv_2_bn_normal_right1_0
        - 0
        - 0
        - *id053
    name: normal_add_1_0
  - class_name: Add
    config: {name: normal_add_2_0, trainable: true}
    inbound_nodes:
    - - - separable_conv_2_bn_normal_left2_0
        - 0
        - 0
        - &id054 {}
      - - separable_conv_2_bn_normal_right2_0
        - 0
        - 0
        - *id054
    name: normal_add_2_0
  - class_name: Add
    config: {name: normal_add_3_0, trainable: true}
    inbound_nodes:
    - - - normal_left3_0
        - 0
        - 0
        - &id055 {}
      - - adjust_bn_0
        - 0
        - 0
        - *id055
    name: normal_add_3_0
  - class_name: Add
    config: {name: normal_add_4_0, trainable: true}
    inbound_nodes:
    - - - normal_left4_0
        - 0
        - 0
        - &id056 {}
      - - normal_right4_0
        - 0
        - 0
        - *id056
    name: normal_add_4_0
  - class_name: Add
    config: {name: normal_add_5_0, trainable: true}
    inbound_nodes:
    - - - separable_conv_2_bn_normal_left5_0
        - 0
        - 0
        - &id057 {}
      - - normal_bn_1_0
        - 0
        - 0
        - *id057
    name: normal_add_5_0
  - class_name: Concatenate
    config: {axis: -1, name: normal_concat_0, trainable: true}
    inbound_nodes:
    - - - adjust_bn_0
        - 0
        - 0
        - &id058 {}
      - - normal_add_1_0
        - 0
        - 0
        - *id058
      - - normal_add_2_0
        - 0
        - 0
        - *id058
      - - normal_add_3_0
        - 0
        - 0
        - *id058
      - - normal_add_4_0
        - 0
        - 0
        - *id058
      - - normal_add_5_0
        - 0
        - 0
        - *id058
    name: normal_concat_0
  - class_name: Activation
    config: {activation: relu, name: activation_815, trainable: true}
    inbound_nodes:
    - - - reduction_concat_stem_2
        - 0
        - 0
        - {}
    name: activation_815
  - class_name: Activation
    config: {activation: relu, name: activation_816, trainable: true}
    inbound_nodes:
    - - - normal_concat_0
        - 0
        - 0
        - {}
    name: activation_816
  - class_name: Conv2D
    config:
      activation: linear
      activity_regularizer: null
      bias_constraint: null
      bias_initializer:
        class_name: Zeros
        config: {}
      bias_regularizer: null
      data_format: channels_last
      dilation_rate: *id001
      filters: 168
      kernel_constraint: null
      kernel_initializer:
        class_name: VarianceScaling
        config: {distribution: normal, mode: fan_in, scale: 2.0, seed: null}
      kernel_regularizer: null
      kernel_size: &id073 !!python/tuple [1, 1]
      name: adjust_conv_projection_1
      padding: same
      strides: &id074 !!python/tuple [1, 1]
      trainable: true
      use_bias: false
    inbound_nodes:
    - - - activation_815
        - 0
        - 0
        - {}
    name: adjust_conv_projection_1
  - class_name: Conv2D
    config:
      activation: linear
      activity_regularizer: null
      bias_constraint: null
      bias_initializer:
        class_name: Zeros
        config: {}
      bias_regularizer: null
      data_format: channels_last
      dilation_rate: *id001
      filters: 168
      kernel_constraint: null
      kernel_initializer:
        class_name: VarianceScaling
        config: {distribution: normal, mode: fan_in, scale: 2.0, seed: null}
      kernel_regularizer: null
      kernel_size: *id059
      name: normal_conv_1_1
      padding: same
      strides: *id060
      trainable: true
      use_bias: false
    inbound_nodes:
    - - - activation_816
        - 0
        - 0
        - {}
    name: normal_conv_1_1
  - class_name: BatchNormalization
    config:
      axis: -1
      beta_constraint: null
      beta_initializer:
        class_name: Zeros
        config: {}
      beta_regularizer: null
      center: true
      epsilon: 0.001
      gamma_constraint: null
      gamma_initializer:
        class_name: Ones
        config: {}
      gamma_regularizer: null
      momentum: 0.9997
      moving_mean_initializer:
        class_name: Zeros
        config: {}
      moving_variance_initializer:
        class_name: Ones
        config: {}
      name: adjust_bn_1
      scale: true
      trainable: true
    inbound_nodes:
    - - - adjust_conv_projection_1
        - 0
        - 0
        - {}
    name: adjust_bn_1
  - class_name: BatchNormalization
    config:
      axis: -1
      beta_constraint: null
      beta_initializer:
        class_name: Zeros
        config: {}
      beta_regularizer: null
      center: true
      epsilon: 0.001
      gamma_constraint: null
      gamma_initializer:
        class_name: Ones
        config: {}
      gamma_regularizer: null
      momentum: 0.9997
      moving_mean_initializer:
        class_name: Zeros
        config: {}
      moving_variance_initializer:
        class_name: Ones
        config: {}
      name: normal_bn_1_1
      scale: true
      trainable: true
    inbound_nodes:
    - - - normal_conv_1_1
        - 0
        - 0
        - {}
    name: normal_bn_1_1
  - class_name: Activation
    config: {activation: relu, name: activation_817, trainable: true}
    inbound_nodes:
    - - - normal_bn_1_1
        - 0
        - 0
        - {}
    name: activation_817
  - class_name: Activation
    config: {activation: relu, name: activation_819, trainable: true}
    inbound_nodes:
    - - - adjust_bn_1
        - 0
        - 0
        - {}
    name: activation_819
  - class_name: Activation
    config: {activation: relu, name: activation_821, trainable: true}
    inbound_nodes:
    - - - adjust_bn_1
        - 0
        - 0
        - {}
    name: activation_821
  - class_name: Activation
    config: {activation: relu, name: activation_823, trainable: true}
    inbound_nodes:
    - - - adjust_bn_1
        - 0
        - 0
        - {}
    name: activation_823
  - class_name: Activation
    config: {activation: relu, name: activation_825, trainable: true}
    inbound_nodes:
    - - - normal_bn_1_1
        - 0
        - 0
        - {}
    name: activation_825
  - class_name: SeparableConv2D
    config:
      activation: linear
      activity_regularizer: null
      bias_constraint: null
      bias_initializer:
        class_name: Zeros
        config: {}
      bias_regularizer: null
      data_format: channels_last
      depth_multiplier: 1
      depthwise_constraint: null
      depthwise_initializer:
        class_name: VarianceScaling
        config: {distribution: uniform, mode: fan_avg, scale: 1.0, seed: null}
      depthwise_regularizer: null
      dilation_rate: *id002
      filters: 168
      kernel_size: *id050
      name: separable_conv_1_normal_left1_1
      padding: same
      pointwise_constraint: null
      pointwise_initializer:
        class_name: VarianceScaling
        config: {distribution: uniform, mode: fan_avg, scale: 1.0, seed: null}
      pointwise_regularizer: null
      strides: *id024
      trainable: true
      use_bias: false
    inbound_nodes:
    - - - activation_817
        - 0
        - 0
        - {}
    name: separable_conv_1_normal_left1_1
  - class_name: SeparableConv2D
    config:
      activation: linear
      activity_regularizer: null
      bias_constraint: null
      bias_initializer:
        class_name: Zeros
        config: {}
      bias_regularizer: null
      data_format: channels_last
      depth_multiplier: 1
      depthwise_constraint: null
      depthwise_initializer:
        class_name: VarianceScaling
        config: {distribution: uniform, mode: fan_avg, scale: 1.0, seed: null}
      depthwise_regularizer: null
      dilation_rate: *id002
      filters: 168
      kernel_size: *id049
      name: separable_conv_1_normal_right1_1
      padding: same
      pointwise_constraint: null
      pointwise_initializer:
        class_name: VarianceScaling
        config: {distribution: uniform, mode: fan_avg, scale: 1.0, seed: null}
      pointwise_regularizer: null
      strides: *id024
      trainable: true
      use_bias: false
    inbound_nodes:
    - - - activation_819
        - 0
        - 0
        - {}
    name: separable_conv_1_normal_right1_1
  - class_name: SeparableConv2D
    config:
      activation: linear
      activity_regularizer: null
      bias_constraint: null
      bias_initializer:
        class_name: Zeros
        config: {}
      bias_regularizer: null
      data_format: channels_last
      depth_multiplier: 1
      depthwise_constraint: null
      depthwise_initializer:
        class_name: VarianceScaling
        config: {distribution: uniform, mode: fan_avg, scale: 1.0, seed: null}
      depthwise_regularizer: null
      dilation_rate: *id002
      filters: 168
      kernel_size: *id051
      name: separable_conv_1_normal_left2_1
      padding: same
      pointwise_constraint: null
      pointwise_initializer:
        class_name: VarianceScaling
        config: {distribution: uniform, mode: fan_avg, scale: 1.0, seed: null}
      pointwise_regularizer: null
      strides: *id024
      trainable: true
      use_bias: false
    inbound_nodes:
    - - - activation_821
        - 0
        - 0
        - {}
    name: separable_conv_1_normal_left2_1
  - class_name: SeparableConv2D
    config:
      activation: linear
      activity_regularizer: null
      bias_constraint: null
      bias_initializer:
        class_name: Zeros
        config: {}
      bias_regularizer: null
      data_format: channels_last
      depth_multiplier: 1
      depthwise_constraint: null
      depthwise_initializer:
        class_name: VarianceScaling
        config: {distribution: uniform, mode: fan_avg, scale: 1.0, seed: null}
      depthwise_regularizer: null
      dilation_rate: *id002
      filters: 168
      kernel_size: *id052
      name: separable_conv_1_normal_right2_1
      padding: same
      pointwise_constraint: null
      pointwise_initializer:
        class_name: VarianceScaling
        config: {distribution: uniform, mode: fan_avg, scale: 1.0, seed: null}
      pointwise_regularizer: null
      strides: *id024
      trainable: true
      use_bias: false
    inbound_nodes:
    - - - activation_823
        - 0
        - 0
        - {}
    name: separable_conv_1_normal_right2_1
  - class_name: SeparableConv2D
    config:
      activation: linear
      activity_regularizer: null
      bias_constraint: null
      bias_initializer:
        class_name: Zeros
        config: {}
      bias_regularizer: null
      data_format: channels_last
      depth_multiplier: 1
      depthwise_constraint: null
      depthwise_initializer:
        class_name: VarianceScaling
        config: {distribution: uniform, mode: fan_avg, scale: 1.0, seed: null}
      depthwise_regularizer: null
      dilation_rate: *id002
      filters: 168
      kernel_size: *id049
      name: separable_conv_1_normal_left5_1
      padding: same
      pointwise_constraint: null
      pointwise_initializer:
        class_name: VarianceScaling
        config: {distribution: uniform, mode: fan_avg, scale: 1.0, seed: null}
      pointwise_regularizer: null
      strides: *id024
      trainable: true
      use_bias: false
    inbound_nodes:
    - - - activation_825
        - 0
        - 0
        - {}
    name: separable_conv_1_normal_left5_1
  - class_name: BatchNormalization
    config:
      axis: -1
      beta_constraint: null
      beta_initializer:
        class_name: Zeros
        config: {}
      beta_regularizer: null
      center: true
      epsilon: 0.001
      gamma_constraint: null
      gamma_initializer:
        class_name: Ones
        config: {}
      gamma_regularizer: null
      momentum: 0.9997
      moving_mean_initializer:
        class_name: Zeros
        config: {}
      moving_variance_initializer:
        class_name: Ones
        config: {}
      name: separable_conv_1_bn_normal_left1_1
      scale: true
      trainable: true
    inbound_nodes:
    - - - separable_conv_1_normal_left1_1
        - 0
        - 0
        - {}
    name: separable_conv_1_bn_normal_left1_1
  - class_name: BatchNormalization
    config:
      axis: -1
      beta_constraint: null
      beta_initializer:
        class_name: Zeros
        config: {}
      beta_regularizer: null
      center: true
      epsilon: 0.001
      gamma_constraint: null
      gamma_initializer:
        class_name: Ones
        config: {}
      gamma_regularizer: null
      momentum: 0.9997
      moving_mean_initializer:
        class_name: Zeros
        config: {}
      moving_variance_initializer:
        class_name: Ones
        config: {}
      name: separable_conv_1_bn_normal_right1_1
      scale: true
      trainable: true
    inbound_nodes:
    - - - separable_conv_1_normal_right1_1
        - 0
        - 0
        - {}
    name: separable_conv_1_bn_normal_right1_1
  - class_name: BatchNormalization
    config:
      axis: -1
      beta_constraint: null
      beta_initializer:
        class_name: Zeros
        config: {}
      beta_regularizer: null
      center: true
      epsilon: 0.001
      gamma_constraint: null
      gamma_initializer:
        class_name: Ones
        config: {}
      gamma_regularizer: null
      momentum: 0.9997
      moving_mean_initializer:
        class_name: Zeros
        config: {}
      moving_variance_initializer:
        class_name: Ones
        config: {}
      name: separable_conv_1_bn_normal_left2_1
      scale: true
      trainable: true
    inbound_nodes:
    - - - separable_conv_1_normal_left2_1
        - 0
        - 0
        - {}
    name: separable_conv_1_bn_normal_left2_1
  - class_name: BatchNormalization
    config:
      axis: -1
      beta_constraint: null
      beta_initializer:
        class_name: Zeros
        config: {}
      beta_regularizer: null
      center: true
      epsilon: 0.001
      gamma_constraint: null
      gamma_initializer:
        class_name: Ones
        config: {}
      gamma_regularizer: null
      momentum: 0.9997
      moving_mean_initializer:
        class_name: Zeros
        config: {}
      moving_variance_initializer:
        class_name: Ones
        config: {}
      name: separable_conv_1_bn_normal_right2_1
      scale: true
      trainable: true
    inbound_nodes:
    - - - separable_conv_1_normal_right2_1
        - 0
        - 0
        - {}
    name: separable_conv_1_bn_normal_right2_1
  - class_name: BatchNormalization
    config:
      axis: -1
      beta_constraint: null
      beta_initializer:
        class_name: Zeros
        config: {}
      beta_regularizer: null
      center: true
      epsilon: 0.001
      gamma_constraint: null
      gamma_initializer:
        class_name: Ones
        config: {}
      gamma_regularizer: null
      momentum: 0.9997
      moving_mean_initializer:
        class_name: Zeros
        config: {}
      moving_variance_initializer:
        class_name: Ones
        config: {}
      name: separable_conv_1_bn_normal_left5_1
      scale: true
      trainable: true
    inbound_nodes:
    - - - separable_conv_1_normal_left5_1
        - 0
        - 0
        - {}
    name: separable_conv_1_bn_normal_left5_1
  - class_name: Activation
    config: {activation: relu, name: activation_818, trainable: true}
    inbound_nodes:
    - - - separable_conv_1_bn_normal_left1_1
        - 0
        - 0
        - {}
    name: activation_818
  - class_name: Activation
    config: {activation: relu, name: activation_820, trainable: true}
    inbound_nodes:
    - - - separable_conv_1_bn_normal_right1_1
        - 0
        - 0
        - {}
    name: activation_820
  - class_name: Activation
    config: {activation: relu, name: activation_822, trainable: true}
    inbound_nodes:
    - - - separable_conv_1_bn_normal_left2_1
        - 0
        - 0
        - {}
    name: activation_822
  - class_name: Activation
    config: {activation: relu, name: activation_824, trainable: true}
    inbound_nodes:
    - - - separable_conv_1_bn_normal_right2_1
        - 0
        - 0
        - {}
    name: activation_824
  - class_name: Activation
    config: {activation: relu, name: activation_826, trainable: true}
    inbound_nodes:
    - - - separable_conv_1_bn_normal_left5_1
        - 0
        - 0
        - {}
    name: activation_826
  - class_name: SeparableConv2D
    config:
      activation: linear
      activity_regularizer: null
      bias_constraint: null
      bias_initializer:
        class_name: Zeros
        config: {}
      bias_regularizer: null
      data_format: channels_last
      depth_multiplier: 1
      depthwise_constraint: null
      depthwise_initializer:
        class_name: VarianceScaling
        config: {distribution: uniform, mode: fan_avg, scale: 1.0, seed: null}
      depthwise_regularizer: null
      dilation_rate: *id002
      filters: 168
      kernel_size: *id050
      name: separable_conv_2_normal_left1_1
      padding: same
      pointwise_constraint: null
      pointwise_initializer:
        class_name: VarianceScaling
        config: {distribution: uniform, mode: fan_avg, scale: 1.0, seed: null}
      pointwise_regularizer: null
      strides: *id005
      trainable: true
      use_bias: false
    inbound_nodes:
    - - - activation_818
        - 0
        - 0
        - {}
    name: separable_conv_2_normal_left1_1
  - class_name: SeparableConv2D
    config:
      activation: linear
      activity_regularizer: null
      bias_constraint: null
      bias_initializer:
        class_name: Zeros
        config: {}
      bias_regularizer: null
      data_format: channels_last
      depth_multiplier: 1
      depthwise_constraint: null
      depthwise_initializer:
        class_name: VarianceScaling
        config: {distribution: uniform, mode: fan_avg, scale: 1.0, seed: null}
      depthwise_regularizer: null
      dilation_rate: *id002
      filters: 168
      kernel_size: *id049
      name: separable_conv_2_normal_right1_1
      padding: same
      pointwise_constraint: null
      pointwise_initializer:
        class_name: VarianceScaling
        config: {distribution: uniform, mode: fan_avg, scale: 1.0, seed: null}
      pointwise_regularizer: null
      strides: *id005
      trainable: true
      use_bias: false
    inbound_nodes:
    - - - activation_820
        - 0
        - 0
        - {}
    name: separable_conv_2_normal_right1_1
  - class_name: SeparableConv2D
    config:
      activation: linear
      activity_regularizer: null
      bias_constraint: null
      bias_initializer:
        class_name: Zeros
        config: {}
      bias_regularizer: null
      data_format: channels_last
      depth_multiplier: 1
      depthwise_constraint: null
      depthwise_initializer:
        class_name: VarianceScaling
        config: {distribution: uniform, mode: fan_avg, scale: 1.0, seed: null}
      depthwise_regularizer: null
      dilation_rate: *id002
      filters: 168
      kernel_size: *id051
      name: separable_conv_2_normal_left2_1
      padding: same
      pointwise_constraint: null
      pointwise_initializer:
        class_name: VarianceScaling
        config: {distribution: uniform, mode: fan_avg, scale: 1.0, seed: null}
      pointwise_regularizer: null
      strides: *id005
      trainable: true
      use_bias: false
    inbound_nodes:
    - - - activation_822
        - 0
        - 0
        - {}
    name: separable_conv_2_normal_left2_1
  - class_name: SeparableConv2D
    config:
      activation: linear
      activity_regularizer: null
      bias_constraint: null
      bias_initializer:
        class_name: Zeros
        config: {}
      bias_regularizer: null
      data_format: channels_last
      depth_multiplier: 1
      depthwise_constraint: null
      depthwise_initializer:
        class_name: VarianceScaling
        config: {distribution: uniform, mode: fan_avg, scale: 1.0, seed: null}
      depthwise_regularizer: null
      dilation_rate: *id002
      filters: 168
      kernel_size: *id052
      name: separable_conv_2_normal_right2_1
      padding: same
      pointwise_constraint: null
      pointwise_initializer:
        class_name: VarianceScaling
        config: {distribution: uniform, mode: fan_avg, scale: 1.0, seed: null}
      pointwise_regularizer: null
      strides: *id005
      trainable: true
      use_bias: false
    inbound_nodes:
    - - - activation_824
        - 0
        - 0
        - {}
    name: separable_conv_2_normal_right2_1
  - class_name: SeparableConv2D
    config:
      activation: linear
      activity_regularizer: null
      bias_constraint: null
      bias_initializer:
        class_name: Zeros
        config: {}
      bias_regularizer: null
      data_format: channels_last
      depth_multiplier: 1
      depthwise_constraint: null
      depthwise_initializer:
        class_name: VarianceScaling
        config: {distribution: uniform, mode: fan_avg, scale: 1.0, seed: null}
      depthwise_regularizer: null
      dilation_rate: *id002
      filters: 168
      kernel_size: *id049
      name: separable_conv_2_normal_left5_1
      padding: same
      pointwise_constraint: null
      pointwise_initializer:
        class_name: VarianceScaling
        config: {distribution: uniform, mode: fan_avg, scale: 1.0, seed: null}
      pointwise_regularizer: null
      strides: *id005
      trainable: true
      use_bias: false
    inbound_nodes:
    - - - activation_826
        - 0
        - 0
        - {}
    name: separable_conv_2_normal_left5_1
  - class_name: BatchNormalization
    config:
      axis: -1
      beta_constraint: null
      beta_initializer:
        class_name: Zeros
        config: {}
      beta_regularizer: null
      center: true
      epsilon: 0.001
      gamma_constraint: null
      gamma_initializer:
        class_name: Ones
        config: {}
      gamma_regularizer: null
      momentum: 0.9997
      moving_mean_initializer:
        class_name: Zeros
        config: {}
      moving_variance_initializer:
        class_name: Ones
        config: {}
      name: separable_conv_2_bn_normal_left1_1
      scale: true
      trainable: true
    inbound_nodes:
    - - - separable_conv_2_normal_left1_1
        - 0
        - 0
        - {}
    name: separable_conv_2_bn_normal_left1_1
  - class_name: BatchNormalization
    config:
      axis: -1
      beta_constraint: null
      beta_initializer:
        class_name: Zeros
        config: {}
      beta_regularizer: null
      center: true
      epsilon: 0.001
      gamma_constraint: null
      gamma_initializer:
        class_name: Ones
        config: {}
      gamma_regularizer: null
      momentum: 0.9997
      moving_mean_initializer:
        class_name: Zeros
        config: {}
      moving_variance_initializer:
        class_name: Ones
        config: {}
      name: separable_conv_2_bn_normal_right1_1
      scale: true
      trainable: true
    inbound_nodes:
    - - - separable_conv_2_normal_right1_1
        - 0
        - 0
        - {}
    name: separable_conv_2_bn_normal_right1_1
  - class_name: BatchNormalization
    config:
      axis: -1
      beta_constraint: null
      beta_initializer:
        class_name: Zeros
        config: {}
      beta_regularizer: null
      center: true
      epsilon: 0.001
      gamma_constraint: null
      gamma_initializer:
        class_name: Ones
        config: {}
      gamma_regularizer: null
      momentum: 0.9997
      moving_mean_initializer:
        class_name: Zeros
        config: {}
      moving_variance_initializer:
        class_name: Ones
        config: {}
      name: separable_conv_2_bn_normal_left2_1
      scale: true
      trainable: true
    inbound_nodes:
    - - - separable_conv_2_normal_left2_1
        - 0
        - 0
        - {}
    name: separable_conv_2_bn_normal_left2_1
  - class_name: BatchNormalization
    config:
      axis: -1
      beta_constraint: null
      beta_initializer:
        class_name: Zeros
        config: {}
      beta_regularizer: null
      center: true
      epsilon: 0.001
      gamma_constraint: null
      gamma_initializer:
        class_name: Ones
        config: {}
      gamma_regularizer: null
      momentum: 0.9997
      moving_mean_initializer:
        class_name: Zeros
        config: {}
      moving_variance_initializer:
        class_name: Ones
        config: {}
      name: separable_conv_2_bn_normal_right2_1
      scale: true
      trainable: true
    inbound_nodes:
    - - - separable_conv_2_normal_right2_1
        - 0
        - 0
        - {}
    name: separable_conv_2_bn_normal_right2_1
  - class_name: AveragePooling2D
    config:
      data_format: channels_last
      name: normal_left3_1
      padding: same
      pool_size: *id061
      strides: *id062
      trainable: true
    inbound_nodes:
    - - - normal_bn_1_1
        - 0
        - 0
        - {}
    name: normal_left3_1
  - class_name: AveragePooling2D
    config:
      data_format: channels_last
      name: normal_left4_1
      padding: same
      pool_size: *id063
      strides: *id064
      trainable: true
    inbound_nodes:
    - - - adjust_bn_1
        - 0
        - 0
        - {}
    name: normal_left4_1
  - class_name: AveragePooling2D
    config:
      data_format: channels_last
      name: normal_right4_1
      padding: same
      pool_size: *id065
      strides: *id066
      trainable: true
    inbound_nodes:
    - - - adjust_bn_1
        - 0
        - 0
        - {}
    name: normal_right4_1
  - class_name: BatchNormalization
    config:
      axis: -1
      beta_constraint: null
      beta_initializer:
        class_name: Zeros
        config: {}
      beta_regularizer: null
      center: true
      epsilon: 0.001
      gamma_constraint: null
      gamma_initializer:
        class_name: Ones
        config: {}
      gamma_regularizer: null
      momentum: 0.9997
      moving_mean_initializer:
        class_name: Zeros
        config: {}
      moving_variance_initializer:
        class_name: Ones
        config: {}
      name: separable_conv_2_bn_normal_left5_1
      scale: true
      trainable: true
    inbound_nodes:
    - - - separable_conv_2_normal_left5_1
        - 0
        - 0
        - {}
    name: separable_conv_2_bn_normal_left5_1
  - class_name: Add
    config: {name: normal_add_1_1, trainable: true}
    inbound_nodes:
    - - - separable_conv_2_bn_normal_left1_1
        - 0
        - 0
        - &id067 {}
      - - separable_conv_2_bn_normal_right1_1
        - 0
        - 0
        - *id067
    name: normal_add_1_1
  - class_name: Add
    config: {name: normal_add_2_1, trainable: true}
    inbound_nodes:
    - - - separable_conv_2_bn_normal_left2_1
        - 0
        - 0
        - &id068 {}
      - - separable_conv_2_bn_normal_right2_1
        - 0
        - 0
        - *id068
    name: normal_add_2_1
  - class_name: Add
    config: {name: normal_add_3_1, trainable: true}
    inbound_nodes:
    - - - normal_left3_1
        - 0
        - 0
        - &id069 {}
      - - adjust_bn_1
        - 0
        - 0
        - *id069
    name: normal_add_3_1
  - class_name: Add
    config: {name: normal_add_4_1, trainable: true}
    inbound_nodes:
    - - - normal_left4_1
        - 0
        - 0
        - &id070 {}
      - - normal_right4_1
        - 0
        - 0
        - *id070
    name: normal_add_4_1
  - class_name: Add
    config: {name: normal_add_5_1, trainable: true}
    inbound_nodes:
    - - - separable_conv_2_bn_normal_left5_1
        - 0
        - 0
        - &id071 {}
      - - normal_bn_1_1
        - 0
        - 0
        - *id071
    name: normal_add_5_1
  - class_name: Concatenate
    config: {axis: -1, name: normal_concat_1, trainable: true}
    inbound_nodes:
    - - - adjust_bn_1
        - 0
        - 0
        - &id072 {}
      - - normal_add_1_1
        - 0
        - 0
        - *id072
      - - normal_add_2_1
        - 0
        - 0
        - *id072
      - - normal_add_3_1
        - 0
        - 0
        - *id072
      - - normal_add_4_1
        - 0
        - 0
        - *id072
      - - normal_add_5_1
        - 0
        - 0
        - *id072
    name: normal_concat_1
  - class_name: Activation
    config: {activation: relu, name: activation_827, trainable: true}
    inbound_nodes:
    - - - normal_concat_0
        - 0
        - 0
        - {}
    name: activation_827
  - class_name: Activation
    config: {activation: relu, name: activation_828, trainable: true}
    inbound_nodes:
    - - - normal_concat_1
        - 0
        - 0
        - {}
    name: activation_828
  - class_name: Conv2D
    config:
      activation: linear
      activity_regularizer: null
      bias_constraint: null
      bias_initializer:
        class_name: Zeros
        config: {}
      bias_regularizer: null
      data_format: channels_last
      dilation_rate: *id001
      filters: 168
      kernel_constraint: null
      kernel_initializer:
        class_name: VarianceScaling
        config: {distribution: normal, mode: fan_in, scale: 2.0, seed: null}
      kernel_regularizer: null
      kernel_size: *id073
      name: adjust_conv_projection_2
      padding: same
      strides: *id074
      trainable: true
      use_bias: false
    inbound_nodes:
    - - - activation_827
        - 0
        - 0
        - {}
    name: adjust_conv_projection_2
  - class_name: Conv2D
    config:
      activation: linear
      activity_regularizer: null
      bias_constraint: null
      bias_initializer:
        class_name: Zeros
        config: {}
      bias_regularizer: null
      data_format: channels_last
      dilation_rate: *id001
      filters: 168
      kernel_constraint: null
      kernel_initializer:
        class_name: VarianceScaling
        config: {distribution: normal, mode: fan_in, scale: 2.0, seed: null}
      kernel_regularizer: null
      kernel_size: *id059
      name: normal_conv_1_2
      padding: same
      strides: *id060
      trainable: true
      use_bias: false
    inbound_nodes:
    - - - activation_828
        - 0
        - 0
        - {}
    name: normal_conv_1_2
  - class_name: BatchNormalization
    config:
      axis: -1
      beta_constraint: null
      beta_initializer:
        class_name: Zeros
        config: {}
      beta_regularizer: null
      center: true
      epsilon: 0.001
      gamma_constraint: null
      gamma_initializer:
        class_name: Ones
        config: {}
      gamma_regularizer: null
      momentum: 0.9997
      moving_mean_initializer:
        class_name: Zeros
        config: {}
      moving_variance_initializer:
        class_name: Ones
        config: {}
      name: adjust_bn_2
      scale: true
      trainable: true
    inbound_nodes:
    - - - adjust_conv_projection_2
        - 0
        - 0
        - {}
    name: adjust_bn_2
  - class_name: BatchNormalization
    config:
      axis: -1
      beta_constraint: null
      beta_initializer:
        class_name: Zeros
        config: {}
      beta_regularizer: null
      center: true
      epsilon: 0.001
      gamma_constraint: null
      gamma_initializer:
        class_name: Ones
        config: {}
      gamma_regularizer: null
      momentum: 0.9997
      moving_mean_initializer:
        class_name: Zeros
        config: {}
      moving_variance_initializer:
        class_name: Ones
        config: {}
      name: normal_bn_1_2
      scale: true
      trainable: true
    inbound_nodes:
    - - - normal_conv_1_2
        - 0
        - 0
        - {}
    name: normal_bn_1_2
  - class_name: Activation
    config: {activation: relu, name: activation_829, trainable: true}
    inbound_nodes:
    - - - normal_bn_1_2
        - 0
        - 0
        - {}
    name: activation_829
  - class_name: Activation
    config: {activation: relu, name: activation_831, trainable: true}
    inbound_nodes:
    - - - adjust_bn_2
        - 0
        - 0
        - {}
    name: activation_831
  - class_name: Activation
    config: {activation: relu, name: activation_833, trainable: true}
    inbound_nodes:
    - - - adjust_bn_2
        - 0
        - 0
        - {}
    name: activation_833
  - class_name: Activation
    config: {activation: relu, name: activation_835, trainable: true}
    inbound_nodes:
    - - - adjust_bn_2
        - 0
        - 0
        - {}
    name: activation_835
  - class_name: Activation
    config: {activation: relu, name: activation_837, trainable: true}
    inbound_nodes:
    - - - normal_bn_1_2
        - 0
        - 0
        - {}
    name: activation_837
  - class_name: SeparableConv2D
    config:
      activation: linear
      activity_regularizer: null
      bias_constraint: null
      bias_initializer:
        class_name: Zeros
        config: {}
      bias_regularizer: null
      data_format: channels_last
      depth_multiplier: 1
      depthwise_constraint: null
      depthwise_initializer:
        class_name: VarianceScaling
        config: {distribution: uniform, mode: fan_avg, scale: 1.0, seed: null}
      depthwise_regularizer: null
      dilation_rate: *id002
      filters: 168
      kernel_size: *id050
      name: separable_conv_1_normal_left1_2
      padding: same
      pointwise_constraint: null
      pointwise_initializer:
        class_name: VarianceScaling
        config: {distribution: uniform, mode: fan_avg, scale: 1.0, seed: null}
      pointwise_regularizer: null
      strides: *id024
      trainable: true
      use_bias: false
    inbound_nodes:
    - - - activation_829
        - 0
        - 0
        - {}
    name: separable_conv_1_normal_left1_2
  - class_name: SeparableConv2D
    config:
      activation: linear
      activity_regularizer: null
      bias_constraint: null
      bias_initializer:
        class_name: Zeros
        config: {}
      bias_regularizer: null
      data_format: channels_last
      depth_multiplier: 1
      depthwise_constraint: null
      depthwise_initializer:
        class_name: VarianceScaling
        config: {distribution: uniform, mode: fan_avg, scale: 1.0, seed: null}
      depthwise_regularizer: null
      dilation_rate: *id002
      filters: 168
      kernel_size: *id049
      name: separable_conv_1_normal_right1_2
      padding: same
      pointwise_constraint: null
      pointwise_initializer:
        class_name: VarianceScaling
        config: {distribution: uniform, mode: fan_avg, scale: 1.0, seed: null}
      pointwise_regularizer: null
      strides: *id024
      trainable: true
      use_bias: false
    inbound_nodes:
    - - - activation_831
        - 0
        - 0
        - {}
    name: separable_conv_1_normal_right1_2
  - class_name: SeparableConv2D
    config:
      activation: linear
      activity_regularizer: null
      bias_constraint: null
      bias_initializer:
        class_name: Zeros
        config: {}
      bias_regularizer: null
      data_format: channels_last
      depth_multiplier: 1
      depthwise_constraint: null
      depthwise_initializer:
        class_name: VarianceScaling
        config: {distribution: uniform, mode: fan_avg, scale: 1.0, seed: null}
      depthwise_regularizer: null
      dilation_rate: *id002
      filters: 168
      kernel_size: *id051
      name: separable_conv_1_normal_left2_2
      padding: same
      pointwise_constraint: null
      pointwise_initializer:
        class_name: VarianceScaling
        config: {distribution: uniform, mode: fan_avg, scale: 1.0, seed: null}
      pointwise_regularizer: null
      strides: *id024
      trainable: true
      use_bias: false
    inbound_nodes:
    - - - activation_833
        - 0
        - 0
        - {}
    name: separable_conv_1_normal_left2_2
  - class_name: SeparableConv2D
    config:
      activation: linear
      activity_regularizer: null
      bias_constraint: null
      bias_initializer:
        class_name: Zeros
        config: {}
      bias_regularizer: null
      data_format: channels_last
      depth_multiplier: 1
      depthwise_constraint: null
      depthwise_initializer:
        class_name: VarianceScaling
        config: {distribution: uniform, mode: fan_avg, scale: 1.0, seed: null}
      depthwise_regularizer: null
      dilation_rate: *id002
      filters: 168
      kernel_size: *id052
      name: separable_conv_1_normal_right2_2
      padding: same
      pointwise_constraint: null
      pointwise_initializer:
        class_name: VarianceScaling
        config: {distribution: uniform, mode: fan_avg, scale: 1.0, seed: null}
      pointwise_regularizer: null
      strides: *id024
      trainable: true
      use_bias: false
    inbound_nodes:
    - - - activation_835
        - 0
        - 0
        - {}
    name: separable_conv_1_normal_right2_2
  - class_name: SeparableConv2D
    config:
      activation: linear
      activity_regularizer: null
      bias_constraint: null
      bias_initializer:
        class_name: Zeros
        config: {}
      bias_regularizer: null
      data_format: channels_last
      depth_multiplier: 1
      depthwise_constraint: null
      depthwise_initializer:
        class_name: VarianceScaling
        config: {distribution: uniform, mode: fan_avg, scale: 1.0, seed: null}
      depthwise_regularizer: null
      dilation_rate: *id002
      filters: 168
      kernel_size: *id049
      name: separable_conv_1_normal_left5_2
      padding: same
      pointwise_constraint: null
      pointwise_initializer:
        class_name: VarianceScaling
        config: {distribution: uniform, mode: fan_avg, scale: 1.0, seed: null}
      pointwise_regularizer: null
      strides: *id024
      trainable: true
      use_bias: false
    inbound_nodes:
    - - - activation_837
        - 0
        - 0
        - {}
    name: separable_conv_1_normal_left5_2
  - class_name: BatchNormalization
    config:
      axis: -1
      beta_constraint: null
      beta_initializer:
        class_name: Zeros
        config: {}
      beta_regularizer: null
      center: true
      epsilon: 0.001
      gamma_constraint: null
      gamma_initializer:
        class_name: Ones
        config: {}
      gamma_regularizer: null
      momentum: 0.9997
      moving_mean_initializer:
        class_name: Zeros
        config: {}
      moving_variance_initializer:
        class_name: Ones
        config: {}
      name: separable_conv_1_bn_normal_left1_2
      scale: true
      trainable: true
    inbound_nodes:
    - - - separable_conv_1_normal_left1_2
        - 0
        - 0
        - {}
    name: separable_conv_1_bn_normal_left1_2
  - class_name: BatchNormalization
    config:
      axis: -1
      beta_constraint: null
      beta_initializer:
        class_name: Zeros
        config: {}
      beta_regularizer: null
      center: true
      epsilon: 0.001
      gamma_constraint: null
      gamma_initializer:
        class_name: Ones
        config: {}
      gamma_regularizer: null
      momentum: 0.9997
      moving_mean_initializer:
        class_name: Zeros
        config: {}
      moving_variance_initializer:
        class_name: Ones
        config: {}
      name: separable_conv_1_bn_normal_right1_2
      scale: true
      trainable: true
    inbound_nodes:
    - - - separable_conv_1_normal_right1_2
        - 0
        - 0
        - {}
    name: separable_conv_1_bn_normal_right1_2
  - class_name: BatchNormalization
    config:
      axis: -1
      beta_constraint: null
      beta_initializer:
        class_name: Zeros
        config: {}
      beta_regularizer: null
      center: true
      epsilon: 0.001
      gamma_constraint: null
      gamma_initializer:
        class_name: Ones
        config: {}
      gamma_regularizer: null
      momentum: 0.9997
      moving_mean_initializer:
        class_name: Zeros
        config: {}
      moving_variance_initializer:
        class_name: Ones
        config: {}
      name: separable_conv_1_bn_normal_left2_2
      scale: true
      trainable: true
    inbound_nodes:
    - - - separable_conv_1_normal_left2_2
        - 0
        - 0
        - {}
    name: separable_conv_1_bn_normal_left2_2
  - class_name: BatchNormalization
    config:
      axis: -1
      beta_constraint: null
      beta_initializer:
        class_name: Zeros
        config: {}
      beta_regularizer: null
      center: true
      epsilon: 0.001
      gamma_constraint: null
      gamma_initializer:
        class_name: Ones
        config: {}
      gamma_regularizer: null
      momentum: 0.9997
      moving_mean_initializer:
        class_name: Zeros
        config: {}
      moving_variance_initializer:
        class_name: Ones
        config: {}
      name: separable_conv_1_bn_normal_right2_2
      scale: true
      trainable: true
    inbound_nodes:
    - - - separable_conv_1_normal_right2_2
        - 0
        - 0
        - {}
    name: separable_conv_1_bn_normal_right2_2
  - class_name: BatchNormalization
    config:
      axis: -1
      beta_constraint: null
      beta_initializer:
        class_name: Zeros
        config: {}
      beta_regularizer: null
      center: true
      epsilon: 0.001
      gamma_constraint: null
      gamma_initializer:
        class_name: Ones
        config: {}
      gamma_regularizer: null
      momentum: 0.9997
      moving_mean_initializer:
        class_name: Zeros
        config: {}
      moving_variance_initializer:
        class_name: Ones
        config: {}
      name: separable_conv_1_bn_normal_left5_2
      scale: true
      trainable: true
    inbound_nodes:
    - - - separable_conv_1_normal_left5_2
        - 0
        - 0
        - {}
    name: separable_conv_1_bn_normal_left5_2
  - class_name: Activation
    config: {activation: relu, name: activation_830, trainable: true}
    inbound_nodes:
    - - - separable_conv_1_bn_normal_left1_2
        - 0
        - 0
        - {}
    name: activation_830
  - class_name: Activation
    config: {activation: relu, name: activation_832, trainable: true}
    inbound_nodes:
    - - - separable_conv_1_bn_normal_right1_2
        - 0
        - 0
        - {}
    name: activation_832
  - class_name: Activation
    config: {activation: relu, name: activation_834, trainable: true}
    inbound_nodes:
    - - - separable_conv_1_bn_normal_left2_2
        - 0
        - 0
        - {}
    name: activation_834
  - class_name: Activation
    config: {activation: relu, name: activation_836, trainable: true}
    inbound_nodes:
    - - - separable_conv_1_bn_normal_right2_2
        - 0
        - 0
        - {}
    name: activation_836
  - class_name: Activation
    config: {activation: relu, name: activation_838, trainable: true}
    inbound_nodes:
    - - - separable_conv_1_bn_normal_left5_2
        - 0
        - 0
        - {}
    name: activation_838
  - class_name: SeparableConv2D
    config:
      activation: linear
      activity_regularizer: null
      bias_constraint: null
      bias_initializer:
        class_name: Zeros
        config: {}
      bias_regularizer: null
      data_format: channels_last
      depth_multiplier: 1
      depthwise_constraint: null
      depthwise_initializer:
        class_name: VarianceScaling
        config: {distribution: uniform, mode: fan_avg, scale: 1.0, seed: null}
      depthwise_regularizer: null
      dilation_rate: *id002
      filters: 168
      kernel_size: *id050
      name: separable_conv_2_normal_left1_2
      padding: same
      pointwise_constraint: null
      pointwise_initializer:
        class_name: VarianceScaling
        config: {distribution: uniform, mode: fan_avg, scale: 1.0, seed: null}
      pointwise_regularizer: null
      strides: *id005
      trainable: true
      use_bias: false
    inbound_nodes:
    - - - activation_830
        - 0
        - 0
        - {}
    name: separable_conv_2_normal_left1_2
  - class_name: SeparableConv2D
    config:
      activation: linear
      activity_regularizer: null
      bias_constraint: null
      bias_initializer:
        class_name: Zeros
        config: {}
      bias_regularizer: null
      data_format: channels_last
      depth_multiplier: 1
      depthwise_constraint: null
      depthwise_initializer:
        class_name: VarianceScaling
        config: {distribution: uniform, mode: fan_avg, scale: 1.0, seed: null}
      depthwise_regularizer: null
      dilation_rate: *id002
      filters: 168
      kernel_size: *id049
      name: separable_conv_2_normal_right1_2
      padding: same
      pointwise_constraint: null
      pointwise_initializer:
        class_name: VarianceScaling
        config: {distribution: uniform, mode: fan_avg, scale: 1.0, seed: null}
      pointwise_regularizer: null
      strides: *id005
      trainable: true
      use_bias: false
    inbound_nodes:
    - - - activation_832
        - 0
        - 0
        - {}
    name: separable_conv_2_normal_right1_2
  - class_name: SeparableConv2D
    config:
      activation: linear
      activity_regularizer: null
      bias_constraint: null
      bias_initializer:
        class_name: Zeros
        config: {}
      bias_regularizer: null
      data_format: channels_last
      depth_multiplier: 1
      depthwise_constraint: null
      depthwise_initializer:
        class_name: VarianceScaling
        config: {distribution: uniform, mode: fan_avg, scale: 1.0, seed: null}
      depthwise_regularizer: null
      dilation_rate: *id002
      filters: 168
      kernel_size: *id051
      name: separable_conv_2_normal_left2_2
      padding: same
      pointwise_constraint: null
      pointwise_initializer:
        class_name: VarianceScaling
        config: {distribution: uniform, mode: fan_avg, scale: 1.0, seed: null}
      pointwise_regularizer: null
      strides: *id005
      trainable: true
      use_bias: false
    inbound_nodes:
    - - - activation_834
        - 0
        - 0
        - {}
    name: separable_conv_2_normal_left2_2
  - class_name: SeparableConv2D
    config:
      activation: linear
      activity_regularizer: null
      bias_constraint: null
      bias_initializer:
        class_name: Zeros
        config: {}
      bias_regularizer: null
      data_format: channels_last
      depth_multiplier: 1
      depthwise_constraint: null
      depthwise_initializer:
        class_name: VarianceScaling
        config: {distribution: uniform, mode: fan_avg, scale: 1.0, seed: null}
      depthwise_regularizer: null
      dilation_rate: *id002
      filters: 168
      kernel_size: *id052
      name: separable_conv_2_normal_right2_2
      padding: same
      pointwise_constraint: null
      pointwise_initializer:
        class_name: VarianceScaling
        config: {distribution: uniform, mode: fan_avg, scale: 1.0, seed: null}
      pointwise_regularizer: null
      strides: *id005
      trainable: true
      use_bias: false
    inbound_nodes:
    - - - activation_836
        - 0
        - 0
        - {}
    name: separable_conv_2_normal_right2_2
  - class_name: SeparableConv2D
    config:
      activation: linear
      activity_regularizer: null
      bias_constraint: null
      bias_initializer:
        class_name: Zeros
        config: {}
      bias_regularizer: null
      data_format: channels_last
      depth_multiplier: 1
      depthwise_constraint: null
      depthwise_initializer:
        class_name: VarianceScaling
        config: {distribution: uniform, mode: fan_avg, scale: 1.0, seed: null}
      depthwise_regularizer: null
      dilation_rate: *id002
      filters: 168
      kernel_size: *id049
      name: separable_conv_2_normal_left5_2
      padding: same
      pointwise_constraint: null
      pointwise_initializer:
        class_name: VarianceScaling
        config: {distribution: uniform, mode: fan_avg, scale: 1.0, seed: null}
      pointwise_regularizer: null
      strides: *id005
      trainable: true
      use_bias: false
    inbound_nodes:
    - - - activation_838
        - 0
        - 0
        - {}
    name: separable_conv_2_normal_left5_2
  - class_name: BatchNormalization
    config:
      axis: -1
      beta_constraint: null
      beta_initializer:
        class_name: Zeros
        config: {}
      beta_regularizer: null
      center: true
      epsilon: 0.001
      gamma_constraint: null
      gamma_initializer:
        class_name: Ones
        config: {}
      gamma_regularizer: null
      momentum: 0.9997
      moving_mean_initializer:
        class_name: Zeros
        config: {}
      moving_variance_initializer:
        class_name: Ones
        config: {}
      name: separable_conv_2_bn_normal_left1_2
      scale: true
      trainable: true
    inbound_nodes:
    - - - separable_conv_2_normal_left1_2
        - 0
        - 0
        - {}
    name: separable_conv_2_bn_normal_left1_2
  - class_name: BatchNormalization
    config:
      axis: -1
      beta_constraint: null
      beta_initializer:
        class_name: Zeros
        config: {}
      beta_regularizer: null
      center: true
      epsilon: 0.001
      gamma_constraint: null
      gamma_initializer:
        class_name: Ones
        config: {}
      gamma_regularizer: null
      momentum: 0.9997
      moving_mean_initializer:
        class_name: Zeros
        config: {}
      moving_variance_initializer:
        class_name: Ones
        config: {}
      name: separable_conv_2_bn_normal_right1_2
      scale: true
      trainable: true
    inbound_nodes:
    - - - separable_conv_2_normal_right1_2
        - 0
        - 0
        - {}
    name: separable_conv_2_bn_normal_right1_2
  - class_name: BatchNormalization
    config:
      axis: -1
      beta_constraint: null
      beta_initializer:
        class_name: Zeros
        config: {}
      beta_regularizer: null
      center: true
      epsilon: 0.001
      gamma_constraint: null
      gamma_initializer:
        class_name: Ones
        config: {}
      gamma_regularizer: null
      momentum: 0.9997
      moving_mean_initializer:
        class_name: Zeros
        config: {}
      moving_variance_initializer:
        class_name: Ones
        config: {}
      name: separable_conv_2_bn_normal_left2_2
      scale: true
      trainable: true
    inbound_nodes:
    - - - separable_conv_2_normal_left2_2
        - 0
        - 0
        - {}
    name: separable_conv_2_bn_normal_left2_2
  - class_name: BatchNormalization
    config:
      axis: -1
      beta_constraint: null
      beta_initializer:
        class_name: Zeros
        config: {}
      beta_regularizer: null
      center: true
      epsilon: 0.001
      gamma_constraint: null
      gamma_initializer:
        class_name: Ones
        config: {}
      gamma_regularizer: null
      momentum: 0.9997
      moving_mean_initializer:
        class_name: Zeros
        config: {}
      moving_variance_initializer:
        class_name: Ones
        config: {}
      name: separable_conv_2_bn_normal_right2_2
      scale: true
      trainable: true
    inbound_nodes:
    - - - separable_conv_2_normal_right2_2
        - 0
        - 0
        - {}
    name: separable_conv_2_bn_normal_right2_2
  - class_name: AveragePooling2D
    config:
      data_format: channels_last
      name: normal_left3_2
      padding: same
      pool_size: *id061
      strides: *id062
      trainable: true
    inbound_nodes:
    - - - normal_bn_1_2
        - 0
        - 0
        - {}
    name: normal_left3_2
  - class_name: AveragePooling2D
    config:
      data_format: channels_last
      name: normal_left4_2
      padding: same
      pool_size: *id063
      strides: *id064
      trainable: true
    inbound_nodes:
    - - - adjust_bn_2
        - 0
        - 0
        - {}
    name: normal_left4_2
  - class_name: AveragePooling2D
    config:
      data_format: channels_last
      name: normal_right4_2
      padding: same
      pool_size: *id065
      strides: *id066
      trainable: true
    inbound_nodes:
    - - - adjust_bn_2
        - 0
        - 0
        - {}
    name: normal_right4_2
  - class_name: BatchNormalization
    config:
      axis: -1
      beta_constraint: null
      beta_initializer:
        class_name: Zeros
        config: {}
      beta_regularizer: null
      center: true
      epsilon: 0.001
      gamma_constraint: null
      gamma_initializer:
        class_name: Ones
        config: {}
      gamma_regularizer: null
      momentum: 0.9997
      moving_mean_initializer:
        class_name: Zeros
        config: {}
      moving_variance_initializer:
        class_name: Ones
        config: {}
      name: separable_conv_2_bn_normal_left5_2
      scale: true
      trainable: true
    inbound_nodes:
    - - - separable_conv_2_normal_left5_2
        - 0
        - 0
        - {}
    name: separable_conv_2_bn_normal_left5_2
  - class_name: Add
    config: {name: normal_add_1_2, trainable: true}
    inbound_nodes:
    - - - separable_conv_2_bn_normal_left1_2
        - 0
        - 0
        - &id075 {}
      - - separable_conv_2_bn_normal_right1_2
        - 0
        - 0
        - *id075
    name: normal_add_1_2
  - class_name: Add
    config: {name: normal_add_2_2, trainable: true}
    inbound_nodes:
    - - - separable_conv_2_bn_normal_left2_2
        - 0
        - 0
        - &id076 {}
      - - separable_conv_2_bn_normal_right2_2
        - 0
        - 0
        - *id076
    name: normal_add_2_2
  - class_name: Add
    config: {name: normal_add_3_2, trainable: true}
    inbound_nodes:
    - - - normal_left3_2
        - 0
        - 0
        - &id077 {}
      - - adjust_bn_2
        - 0
        - 0
        - *id077
    name: normal_add_3_2
  - class_name: Add
    config: {name: normal_add_4_2, trainable: true}
    inbound_nodes:
    - - - normal_left4_2
        - 0
        - 0
        - &id078 {}
      - - normal_right4_2
        - 0
        - 0
        - *id078
    name: normal_add_4_2
  - class_name: Add
    config: {name: normal_add_5_2, trainable: true}
    inbound_nodes:
    - - - separable_conv_2_bn_normal_left5_2
        - 0
        - 0
        - &id079 {}
      - - normal_bn_1_2
        - 0
        - 0
        - *id079
    name: normal_add_5_2
  - class_name: Concatenate
    config: {axis: -1, name: normal_concat_2, trainable: true}
    inbound_nodes:
    - - - adjust_bn_2
        - 0
        - 0
        - &id080 {}
      - - normal_add_1_2
        - 0
        - 0
        - *id080
      - - normal_add_2_2
        - 0
        - 0
        - *id080
      - - normal_add_3_2
        - 0
        - 0
        - *id080
      - - normal_add_4_2
        - 0
        - 0
        - *id080
      - - normal_add_5_2
        - 0
        - 0
        - *id080
    name: normal_concat_2
  - class_name: Activation
    config: {activation: relu, name: activation_839, trainable: true}
    inbound_nodes:
    - - - normal_concat_1
        - 0
        - 0
        - {}
    name: activation_839
  - class_name: Activation
    config: {activation: relu, name: activation_840, trainable: true}
    inbound_nodes:
    - - - normal_concat_2
        - 0
        - 0
        - {}
    name: activation_840
  - class_name: Conv2D
    config:
      activation: linear
      activity_regularizer: null
      bias_constraint: null
      bias_initializer:
        class_name: Zeros
        config: {}
      bias_regularizer: null
      data_format: channels_last
      dilation_rate: *id001
      filters: 168
      kernel_constraint: null
      kernel_initializer:
        class_name: VarianceScaling
        config: {distribution: normal, mode: fan_in, scale: 2.0, seed: null}
      kernel_regularizer: null
      kernel_size: *id073
      name: adjust_conv_projection_3
      padding: same
      strides: *id074
      trainable: true
      use_bias: false
    inbound_nodes:
    - - - activation_839
        - 0
        - 0
        - {}
    name: adjust_conv_projection_3
  - class_name: Conv2D
    config:
      activation: linear
      activity_regularizer: null
      bias_constraint: null
      bias_initializer:
        class_name: Zeros
        config: {}
      bias_regularizer: null
      data_format: channels_last
      dilation_rate: *id001
      filters: 168
      kernel_constraint: null
      kernel_initializer:
        class_name: VarianceScaling
        config: {distribution: normal, mode: fan_in, scale: 2.0, seed: null}
      kernel_regularizer: null
      kernel_size: *id059
      name: normal_conv_1_3
      padding: same
      strides: *id060
      trainable: true
      use_bias: false
    inbound_nodes:
    - - - activation_840
        - 0
        - 0
        - {}
    name: normal_conv_1_3
  - class_name: BatchNormalization
    config:
      axis: -1
      beta_constraint: null
      beta_initializer:
        class_name: Zeros
        config: {}
      beta_regularizer: null
      center: true
      epsilon: 0.001
      gamma_constraint: null
      gamma_initializer:
        class_name: Ones
        config: {}
      gamma_regularizer: null
      momentum: 0.9997
      moving_mean_initializer:
        class_name: Zeros
        config: {}
      moving_variance_initializer:
        class_name: Ones
        config: {}
      name: adjust_bn_3
      scale: true
      trainable: true
    inbound_nodes:
    - - - adjust_conv_projection_3
        - 0
        - 0
        - {}
    name: adjust_bn_3
  - class_name: BatchNormalization
    config:
      axis: -1
      beta_constraint: null
      beta_initializer:
        class_name: Zeros
        config: {}
      beta_regularizer: null
      center: true
      epsilon: 0.001
      gamma_constraint: null
      gamma_initializer:
        class_name: Ones
        config: {}
      gamma_regularizer: null
      momentum: 0.9997
      moving_mean_initializer:
        class_name: Zeros
        config: {}
      moving_variance_initializer:
        class_name: Ones
        config: {}
      name: normal_bn_1_3
      scale: true
      trainable: true
    inbound_nodes:
    - - - normal_conv_1_3
        - 0
        - 0
        - {}
    name: normal_bn_1_3
  - class_name: Activation
    config: {activation: relu, name: activation_841, trainable: true}
    inbound_nodes:
    - - - normal_bn_1_3
        - 0
        - 0
        - {}
    name: activation_841
  - class_name: Activation
    config: {activation: relu, name: activation_843, trainable: true}
    inbound_nodes:
    - - - adjust_bn_3
        - 0
        - 0
        - {}
    name: activation_843
  - class_name: Activation
    config: {activation: relu, name: activation_845, trainable: true}
    inbound_nodes:
    - - - adjust_bn_3
        - 0
        - 0
        - {}
    name: activation_845
  - class_name: Activation
    config: {activation: relu, name: activation_847, trainable: true}
    inbound_nodes:
    - - - adjust_bn_3
        - 0
        - 0
        - {}
    name: activation_847
  - class_name: Activation
    config: {activation: relu, name: activation_849, trainable: true}
    inbound_nodes:
    - - - normal_bn_1_3
        - 0
        - 0
        - {}
    name: activation_849
  - class_name: SeparableConv2D
    config:
      activation: linear
      activity_regularizer: null
      bias_constraint: null
      bias_initializer:
        class_name: Zeros
        config: {}
      bias_regularizer: null
      data_format: channels_last
      depth_multiplier: 1
      depthwise_constraint: null
      depthwise_initializer:
        class_name: VarianceScaling
        config: {distribution: uniform, mode: fan_avg, scale: 1.0, seed: null}
      depthwise_regularizer: null
      dilation_rate: *id002
      filters: 168
      kernel_size: *id050
      name: separable_conv_1_normal_left1_3
      padding: same
      pointwise_constraint: null
      pointwise_initializer:
        class_name: VarianceScaling
        config: {distribution: uniform, mode: fan_avg, scale: 1.0, seed: null}
      pointwise_regularizer: null
      strides: *id024
      trainable: true
      use_bias: false
    inbound_nodes:
    - - - activation_841
        - 0
        - 0
        - {}
    name: separable_conv_1_normal_left1_3
  - class_name: SeparableConv2D
    config:
      activation: linear
      activity_regularizer: null
      bias_constraint: null
      bias_initializer:
        class_name: Zeros
        config: {}
      bias_regularizer: null
      data_format: channels_last
      depth_multiplier: 1
      depthwise_constraint: null
      depthwise_initializer:
        class_name: VarianceScaling
        config: {distribution: uniform, mode: fan_avg, scale: 1.0, seed: null}
      depthwise_regularizer: null
      dilation_rate: *id002
      filters: 168
      kernel_size: *id049
      name: separable_conv_1_normal_right1_3
      padding: same
      pointwise_constraint: null
      pointwise_initializer:
        class_name: VarianceScaling
        config: {distribution: uniform, mode: fan_avg, scale: 1.0, seed: null}
      pointwise_regularizer: null
      strides: *id024
      trainable: true
      use_bias: false
    inbound_nodes:
    - - - activation_843
        - 0
        - 0
        - {}
    name: separable_conv_1_normal_right1_3
  - class_name: SeparableConv2D
    config:
      activation: linear
      activity_regularizer: null
      bias_constraint: null
      bias_initializer:
        class_name: Zeros
        config: {}
      bias_regularizer: null
      data_format: channels_last
      depth_multiplier: 1
      depthwise_constraint: null
      depthwise_initializer:
        class_name: VarianceScaling
        config: {distribution: uniform, mode: fan_avg, scale: 1.0, seed: null}
      depthwise_regularizer: null
      dilation_rate: *id002
      filters: 168
      kernel_size: *id051
      name: separable_conv_1_normal_left2_3
      padding: same
      pointwise_constraint: null
      pointwise_initializer:
        class_name: VarianceScaling
        config: {distribution: uniform, mode: fan_avg, scale: 1.0, seed: null}
      pointwise_regularizer: null
      strides: *id024
      trainable: true
      use_bias: false
    inbound_nodes:
    - - - activation_845
        - 0
        - 0
        - {}
    name: separable_conv_1_normal_left2_3
  - class_name: SeparableConv2D
    config:
      activation: linear
      activity_regularizer: null
      bias_constraint: null
      bias_initializer:
        class_name: Zeros
        config: {}
      bias_regularizer: null
      data_format: channels_last
      depth_multiplier: 1
      depthwise_constraint: null
      depthwise_initializer:
        class_name: VarianceScaling
        config: {distribution: uniform, mode: fan_avg, scale: 1.0, seed: null}
      depthwise_regularizer: null
      dilation_rate: *id002
      filters: 168
      kernel_size: *id052
      name: separable_conv_1_normal_right2_3
      padding: same
      pointwise_constraint: null
      pointwise_initializer:
        class_name: VarianceScaling
        config: {distribution: uniform, mode: fan_avg, scale: 1.0, seed: null}
      pointwise_regularizer: null
      strides: *id024
      trainable: true
      use_bias: false
    inbound_nodes:
    - - - activation_847
        - 0
        - 0
        - {}
    name: separable_conv_1_normal_right2_3
  - class_name: SeparableConv2D
    config:
      activation: linear
      activity_regularizer: null
      bias_constraint: null
      bias_initializer:
        class_name: Zeros
        config: {}
      bias_regularizer: null
      data_format: channels_last
      depth_multiplier: 1
      depthwise_constraint: null
      depthwise_initializer:
        class_name: VarianceScaling
        config: {distribution: uniform, mode: fan_avg, scale: 1.0, seed: null}
      depthwise_regularizer: null
      dilation_rate: *id002
      filters: 168
      kernel_size: *id049
      name: separable_conv_1_normal_left5_3
      padding: same
      pointwise_constraint: null
      pointwise_initializer:
        class_name: VarianceScaling
        config: {distribution: uniform, mode: fan_avg, scale: 1.0, seed: null}
      pointwise_regularizer: null
      strides: *id024
      trainable: true
      use_bias: false
    inbound_nodes:
    - - - activation_849
        - 0
        - 0
        - {}
    name: separable_conv_1_normal_left5_3
  - class_name: BatchNormalization
    config:
      axis: -1
      beta_constraint: null
      beta_initializer:
        class_name: Zeros
        config: {}
      beta_regularizer: null
      center: true
      epsilon: 0.001
      gamma_constraint: null
      gamma_initializer:
        class_name: Ones
        config: {}
      gamma_regularizer: null
      momentum: 0.9997
      moving_mean_initializer:
        class_name: Zeros
        config: {}
      moving_variance_initializer:
        class_name: Ones
        config: {}
      name: separable_conv_1_bn_normal_left1_3
      scale: true
      trainable: true
    inbound_nodes:
    - - - separable_conv_1_normal_left1_3
        - 0
        - 0
        - {}
    name: separable_conv_1_bn_normal_left1_3
  - class_name: BatchNormalization
    config:
      axis: -1
      beta_constraint: null
      beta_initializer:
        class_name: Zeros
        config: {}
      beta_regularizer: null
      center: true
      epsilon: 0.001
      gamma_constraint: null
      gamma_initializer:
        class_name: Ones
        config: {}
      gamma_regularizer: null
      momentum: 0.9997
      moving_mean_initializer:
        class_name: Zeros
        config: {}
      moving_variance_initializer:
        class_name: Ones
        config: {}
      name: separable_conv_1_bn_normal_right1_3
      scale: true
      trainable: true
    inbound_nodes:
    - - - separable_conv_1_normal_right1_3
        - 0
        - 0
        - {}
    name: separable_conv_1_bn_normal_right1_3
  - class_name: BatchNormalization
    config:
      axis: -1
      beta_constraint: null
      beta_initializer:
        class_name: Zeros
        config: {}
      beta_regularizer: null
      center: true
      epsilon: 0.001
      gamma_constraint: null
…
        - {}
    name: activation_1023
  - class_name: Activation
    config: {activation: relu, name: activation_1025, trainable: true}
    inbound_nodes:
    - - - adjust_bn_17
        - 0
        - 0
        - {}
    name: activation_1025
  - class_name: Activation
    config: {activation: relu, name: activation_1027, trainable: true}
    inbound_nodes:
    - - - normal_bn_1_17
        - 0
        - 0
        - {}
    name: activation_1027
  - class_name: SeparableConv2D
    config:
      activation: linear
      activity_regularizer: null
      bias_constraint: null
      bias_initializer:
        class_name: Zeros
        config: {}
      bias_regularizer: null
      data_format: channels_last
      depth_multiplier: 1
      depthwise_constraint: null
      depthwise_initializer:
        class_name: VarianceScaling
        config: {distribution: uniform, mode: fan_avg, scale: 1.0, seed: null}
      depthwise_regularizer: null
      dilation_rate: *id002
      filters: 672
      kernel_size: *id050
      name: separable_conv_1_normal_left1_17
      padding: same
      pointwise_constraint: null
      pointwise_initializer:
        class_name: VarianceScaling
        config: {distribution: uniform, mode: fan_avg, scale: 1.0, seed: null}
      pointwise_regularizer: null
      strides: *id024
      trainable: true
      use_bias: false
    inbound_nodes:
    - - - activation_1019
        - 0
        - 0
        - {}
    name: separable_conv_1_normal_left1_17
  - class_name: SeparableConv2D
    config:
      activation: linear
      activity_regularizer: null
      bias_constraint: null
      bias_initializer:
        class_name: Zeros
        config: {}
      bias_regularizer: null
      data_format: channels_last
      depth_multiplier: 1
      depthwise_constraint: null
      depthwise_initializer:
        class_name: VarianceScaling
        config: {distribution: uniform, mode: fan_avg, scale: 1.0, seed: null}
      depthwise_regularizer: null
      dilation_rate: *id002
      filters: 672
      kernel_size: *id049
      name: separable_conv_1_normal_right1_17
      padding: same
      pointwise_constraint: null
      pointwise_initializer:
        class_name: VarianceScaling
        config: {distribution: uniform, mode: fan_avg, scale: 1.0, seed: null}
      pointwise_regularizer: null
      strides: *id024
      trainable: true
      use_bias: false
    inbound_nodes:
    - - - activation_1021
        - 0
        - 0
        - {}
    name: separable_conv_1_normal_right1_17
  - class_name: SeparableConv2D
    config:
      activation: linear
      activity_regularizer: null
      bias_constraint: null
      bias_initializer:
        class_name: Zeros
        config: {}
      bias_regularizer: null
      data_format: channels_last
      depth_multiplier: 1
      depthwise_constraint: null
      depthwise_initializer:
        class_name: VarianceScaling
        config: {distribution: uniform, mode: fan_avg, scale: 1.0, seed: null}
      depthwise_regularizer: null
      dilation_rate: *id002
      filters: 672
      kernel_size: *id051
      name: separable_conv_1_normal_left2_17
      padding: same
      pointwise_constraint: null
      pointwise_initializer:
        class_name: VarianceScaling
        config: {distribution: uniform, mode: fan_avg, scale: 1.0, seed: null}
      pointwise_regularizer: null
      strides: *id024
      trainable: true
      use_bias: false
    inbound_nodes:
    - - - activation_1023
        - 0
        - 0
        - {}
    name: separable_conv_1_normal_left2_17
  - class_name: SeparableConv2D
    config:
      activation: linear
      activity_regularizer: null
      bias_constraint: null
      bias_initializer:
        class_name: Zeros
        config: {}
      bias_regularizer: null
      data_format: channels_last
      depth_multiplier: 1
      depthwise_constraint: null
      depthwise_initializer:
        class_name: VarianceScaling
        config: {distribution: uniform, mode: fan_avg, scale: 1.0, seed: null}
      depthwise_regularizer: null
      dilation_rate: *id002
      filters: 672
      kernel_size: *id052
      name: separable_conv_1_normal_right2_17
      padding: same
      pointwise_constraint: null
      pointwise_initializer:
        class_name: VarianceScaling
        config: {distribution: uniform, mode: fan_avg, scale: 1.0, seed: null}
      pointwise_regularizer: null
      strides: *id024
      trainable: true
      use_bias: false
    inbound_nodes:
    - - - activation_1025
        - 0
        - 0
        - {}
    name: separable_conv_1_normal_right2_17
  - class_name: SeparableConv2D
    config:
      activation: linear
      activity_regularizer: null
      bias_constraint: null
      bias_initializer:
        class_name: Zeros
        config: {}
      bias_regularizer: null
      data_format: channels_last
      depth_multiplier: 1
      depthwise_constraint: null
      depthwise_initializer:
        class_name: VarianceScaling
        config: {distribution: uniform, mode: fan_avg, scale: 1.0, seed: null}
      depthwise_regularizer: null
      dilation_rate: *id002
      filters: 672
      kernel_size: *id049
      name: separable_conv_1_normal_left5_17
      padding: same
      pointwise_constraint: null
      pointwise_initializer:
        class_name: VarianceScaling
        config: {distribution: uniform, mode: fan_avg, scale: 1.0, seed: null}
      pointwise_regularizer: null
      strides: *id024
      trainable: true
      use_bias: false
    inbound_nodes:
    - - - activation_1027
        - 0
        - 0
        - {}
    name: separable_conv_1_normal_left5_17
  - class_name: BatchNormalization
    config:
      axis: -1
      beta_constraint: null
      beta_initializer:
        class_name: Zeros
        config: {}
      beta_regularizer: null
      center: true
      epsilon: 0.001
      gamma_constraint: null
      gamma_initializer:
        class_name: Ones
        config: {}
      gamma_regularizer: null
      momentum: 0.9997
      moving_mean_initializer:
        class_name: Zeros
        config: {}
      moving_variance_initializer:
        class_name: Ones
        config: {}
      name: separable_conv_1_bn_normal_left1_17
      scale: true
      trainable: true
    inbound_nodes:
    - - - separable_conv_1_normal_left1_17
        - 0
        - 0
        - {}
    name: separable_conv_1_bn_normal_left1_17
  - class_name: BatchNormalization
    config:
      axis: -1
      beta_constraint: null
      beta_initializer:
        class_name: Zeros
        config: {}
      beta_regularizer: null
      center: true
      epsilon: 0.001
      gamma_constraint: null
      gamma_initializer:
        class_name: Ones
        config: {}
      gamma_regularizer: null
      momentum: 0.9997
      moving_mean_initializer:
        class_name: Zeros
        config: {}
      moving_variance_initializer:
        class_name: Ones
        config: {}
      name: separable_conv_1_bn_normal_right1_17
      scale: true
      trainable: true
    inbound_nodes:
    - - - separable_conv_1_normal_right1_17
        - 0
        - 0
        - {}
    name: separable_conv_1_bn_normal_right1_17
  - class_name: BatchNormalization
    config:
      axis: -1
      beta_constraint: null
      beta_initializer:
        class_name: Zeros
        config: {}
      beta_regularizer: null
      center: true
      epsilon: 0.001
      gamma_constraint: null
      gamma_initializer:
        class_name: Ones
        config: {}
      gamma_regularizer: null
      momentum: 0.9997
      moving_mean_initializer:
        class_name: Zeros
        config: {}
      moving_variance_initializer:
        class_name: Ones
        config: {}
      name: separable_conv_1_bn_normal_left2_17
      scale: true
      trainable: true
    inbound_nodes:
    - - - separable_conv_1_normal_left2_17
        - 0
        - 0
        - {}
    name: separable_conv_1_bn_normal_left2_17
  - class_name: BatchNormalization
    config:
      axis: -1
      beta_constraint: null
      beta_initializer:
        class_name: Zeros
        config: {}
      beta_regularizer: null
      center: true
      epsilon: 0.001
      gamma_constraint: null
      gamma_initializer:
        class_name: Ones
        config: {}
      gamma_regularizer: null
      momentum: 0.9997
      moving_mean_initializer:
        class_name: Zeros
        config: {}
      moving_variance_initializer:
        class_name: Ones
        config: {}
      name: separable_conv_1_bn_normal_right2_17
      scale: true
      trainable: true
    inbound_nodes:
    - - - separable_conv_1_normal_right2_17
        - 0
        - 0
        - {}
    name: separable_conv_1_bn_normal_right2_17
  - class_name: BatchNormalization
    config:
      axis: -1
      beta_constraint: null
      beta_initializer:
        class_name: Zeros
        config: {}
      beta_regularizer: null
      center: true
      epsilon: 0.001
      gamma_constraint: null
      gamma_initializer:
        class_name: Ones
        config: {}
      gamma_regularizer: null
      momentum: 0.9997
      moving_mean_initializer:
        class_name: Zeros
        config: {}
      moving_variance_initializer:
        class_name: Ones
        config: {}
      name: separable_conv_1_bn_normal_left5_17
      scale: true
      trainable: true
    inbound_nodes:
    - - - separable_conv_1_normal_left5_17
        - 0
        - 0
        - {}
    name: separable_conv_1_bn_normal_left5_17
  - class_name: Activation
    config: {activation: relu, name: activation_1020, trainable: true}
    inbound_nodes:
    - - - separable_conv_1_bn_normal_left1_17
        - 0
        - 0
        - {}
    name: activation_1020
  - class_name: Activation
    config: {activation: relu, name: activation_1022, trainable: true}
    inbound_nodes:
    - - - separable_conv_1_bn_normal_right1_17
        - 0
        - 0
        - {}
    name: activation_1022
  - class_name: Activation
    config: {activation: relu, name: activation_1024, trainable: true}
    inbound_nodes:
    - - - separable_conv_1_bn_normal_left2_17
        - 0
        - 0
        - {}
    name: activation_1024
  - class_name: Activation
    config: {activation: relu, name: activation_1026, trainable: true}
    inbound_nodes:
    - - - separable_conv_1_bn_normal_right2_17
        - 0
        - 0
        - {}
    name: activation_1026
  - class_name: Activation
    config: {activation: relu, name: activation_1028, trainable: true}
    inbound_nodes:
    - - - separable_conv_1_bn_normal_left5_17
        - 0
        - 0
        - {}
    name: activation_1028
  - class_name: SeparableConv2D
    config:
      activation: linear
      activity_regularizer: null
      bias_constraint: null
      bias_initializer:
        class_name: Zeros
        config: {}
      bias_regularizer: null
      data_format: channels_last
      depth_multiplier: 1
      depthwise_constraint: null
      depthwise_initializer:
        class_name: VarianceScaling
        config: {distribution: uniform, mode: fan_avg, scale: 1.0, seed: null}
      depthwise_regularizer: null
      dilation_rate: *id002
      filters: 672
      kernel_size: *id050
      name: separable_conv_2_normal_left1_17
      padding: same
      pointwise_constraint: null
      pointwise_initializer:
        class_name: VarianceScaling
        config: {distribution: uniform, mode: fan_avg, scale: 1.0, seed: null}
      pointwise_regularizer: null
      strides: *id005
      trainable: true
      use_bias: false
    inbound_nodes:
    - - - activation_1020
        - 0
        - 0
        - {}
    name: separable_conv_2_normal_left1_17
  - class_name: SeparableConv2D
    config:
      activation: linear
      activity_regularizer: null
      bias_constraint: null
      bias_initializer:
        class_name: Zeros
        config: {}
      bias_regularizer: null
      data_format: channels_last
      depth_multiplier: 1
      depthwise_constraint: null
      depthwise_initializer:
        class_name: VarianceScaling
        config: {distribution: uniform, mode: fan_avg, scale: 1.0, seed: null}
      depthwise_regularizer: null
      dilation_rate: *id002
      filters: 672
      kernel_size: *id049
      name: separable_conv_2_normal_right1_17
      padding: same
      pointwise_constraint: null
      pointwise_initializer:
        class_name: VarianceScaling
        config: {distribution: uniform, mode: fan_avg, scale: 1.0, seed: null}
      pointwise_regularizer: null
      strides: *id005
      trainable: true
      use_bias: false
    inbound_nodes:
    - - - activation_1022
        - 0
        - 0
        - {}
    name: separable_conv_2_normal_right1_17
  - class_name: SeparableConv2D
    config:
      activation: linear
      activity_regularizer: null
      bias_constraint: null
      bias_initializer:
        class_name: Zeros
        config: {}
      bias_regularizer: null
      data_format: channels_last
      depth_multiplier: 1
      depthwise_constraint: null
      depthwise_initializer:
        class_name: VarianceScaling
        config: {distribution: uniform, mode: fan_avg, scale: 1.0, seed: null}
      depthwise_regularizer: null
      dilation_rate: *id002
      filters: 672
      kernel_size: *id051
      name: separable_conv_2_normal_left2_17
      padding: same
      pointwise_constraint: null
      pointwise_initializer:
        class_name: VarianceScaling
        config: {distribution: uniform, mode: fan_avg, scale: 1.0, seed: null}
      pointwise_regularizer: null
      strides: *id005
      trainable: true
      use_bias: false
    inbound_nodes:
    - - - activation_1024
        - 0
        - 0
        - {}
    name: separable_conv_2_normal_left2_17
  - class_name: SeparableConv2D
    config:
      activation: linear
      activity_regularizer: null
      bias_constraint: null
      bias_initializer:
        class_name: Zeros
        config: {}
      bias_regularizer: null
      data_format: channels_last
      depth_multiplier: 1
      depthwise_constraint: null
      depthwise_initializer:
        class_name: VarianceScaling
        config: {distribution: uniform, mode: fan_avg, scale: 1.0, seed: null}
      depthwise_regularizer: null
      dilation_rate: *id002
      filters: 672
      kernel_size: *id052
      name: separable_conv_2_normal_right2_17
      padding: same
      pointwise_constraint: null
      pointwise_initializer:
        class_name: VarianceScaling
        config: {distribution: uniform, mode: fan_avg, scale: 1.0, seed: null}
      pointwise_regularizer: null
      strides: *id005
      trainable: true
      use_bias: false
    inbound_nodes:
    - - - activation_1026
        - 0
        - 0
        - {}
    name: separable_conv_2_normal_right2_17
  - class_name: SeparableConv2D
    config:
      activation: linear
      activity_regularizer: null
      bias_constraint: null
      bias_initializer:
        class_name: Zeros
        config: {}
      bias_regularizer: null
      data_format: channels_last
      depth_multiplier: 1
      depthwise_constraint: null
      depthwise_initializer:
        class_name: VarianceScaling
        config: {distribution: uniform, mode: fan_avg, scale: 1.0, seed: null}
      depthwise_regularizer: null
      dilation_rate: *id002
      filters: 672
      kernel_size: *id049
      name: separable_conv_2_normal_left5_17
      padding: same
      pointwise_constraint: null
      pointwise_initializer:
        class_name: VarianceScaling
        config: {distribution: uniform, mode: fan_avg, scale: 1.0, seed: null}
      pointwise_regularizer: null
      strides: *id005
      trainable: true
      use_bias: false
    inbound_nodes:
    - - - activation_1028
        - 0
        - 0
        - {}
    name: separable_conv_2_normal_left5_17
  - class_name: BatchNormalization
    config:
      axis: -1
      beta_constraint: null
      beta_initializer:
        class_name: Zeros
        config: {}
      beta_regularizer: null
      center: true
      epsilon: 0.001
      gamma_constraint: null
      gamma_initializer:
        class_name: Ones
        config: {}
      gamma_regularizer: null
      momentum: 0.9997
      moving_mean_initializer:
        class_name: Zeros
        config: {}
      moving_variance_initializer:
        class_name: Ones
        config: {}
      name: separable_conv_2_bn_normal_left1_17
      scale: true
      trainable: true
    inbound_nodes:
    - - - separable_conv_2_normal_left1_17
        - 0
        - 0
        - {}
    name: separable_conv_2_bn_normal_left1_17
  - class_name: BatchNormalization
    config:
      axis: -1
      beta_constraint: null
      beta_initializer:
        class_name: Zeros
        config: {}
      beta_regularizer: null
      center: true
      epsilon: 0.001
      gamma_constraint: null
      gamma_initializer:
        class_name: Ones
        config: {}
      gamma_regularizer: null
      momentum: 0.9997
      moving_mean_initializer:
        class_name: Zeros
        config: {}
      moving_variance_initializer:
        class_name: Ones
        config: {}
      name: separable_conv_2_bn_normal_right1_17
      scale: true
      trainable: true
    inbound_nodes:
    - - - separable_conv_2_normal_right1_17
        - 0
        - 0
        - {}
    name: separable_conv_2_bn_normal_right1_17
  - class_name: BatchNormalization
    config:
      axis: -1
      beta_constraint: null
      beta_initializer:
        class_name: Zeros
        config: {}
      beta_regularizer: null
      center: true
      epsilon: 0.001
      gamma_constraint: null
      gamma_initializer:
        class_name: Ones
        config: {}
      gamma_regularizer: null
      momentum: 0.9997
      moving_mean_initializer:
        class_name: Zeros
        config: {}
      moving_variance_initializer:
        class_name: Ones
        config: {}
      name: separable_conv_2_bn_normal_left2_17
      scale: true
      trainable: true
    inbound_nodes:
    - - - separable_conv_2_normal_left2_17
        - 0
        - 0
        - {}
    name: separable_conv_2_bn_normal_left2_17
  - class_name: BatchNormalization
    config:
      axis: -1
      beta_constraint: null
      beta_initializer:
        class_name: Zeros
        config: {}
      beta_regularizer: null
      center: true
      epsilon: 0.001
      gamma_constraint: null
      gamma_initializer:
        class_name: Ones
        config: {}
      gamma_regularizer: null
      momentum: 0.9997
      moving_mean_initializer:
        class_name: Zeros
        config: {}
      moving_variance_initializer:
        class_name: Ones
        config: {}
      name: separable_conv_2_bn_normal_right2_17
      scale: true
      trainable: true
    inbound_nodes:
    - - - separable_conv_2_normal_right2_17
        - 0
        - 0
        - {}
    name: separable_conv_2_bn_normal_right2_17
  - class_name: AveragePooling2D
    config:
      data_format: channels_last
      name: normal_left3_17
      padding: same
      pool_size: *id061
      strides: *id062
      trainable: true
    inbound_nodes:
    - - - normal_bn_1_17
        - 0
        - 0
        - {}
    name: normal_left3_17
  - class_name: AveragePooling2D
    config:
      data_format: channels_last
      name: normal_left4_17
      padding: same
      pool_size: *id063
      strides: *id064
      trainable: true
    inbound_nodes:
    - - - adjust_bn_17
        - 0
        - 0
        - {}
    name: normal_left4_17
  - class_name: AveragePooling2D
    config:
      data_format: channels_last
      name: normal_right4_17
      padding: same
      pool_size: *id065
      strides: *id066
      trainable: true
    inbound_nodes:
    - - - adjust_bn_17
        - 0
        - 0
        - {}
    name: normal_right4_17
  - class_name: BatchNormalization
    config:
      axis: -1
      beta_constraint: null
      beta_initializer:
        class_name: Zeros
        config: {}
      beta_regularizer: null
      center: true
      epsilon: 0.001
      gamma_constraint: null
      gamma_initializer:
        class_name: Ones
        config: {}
      gamma_regularizer: null
      momentum: 0.9997
      moving_mean_initializer:
        class_name: Zeros
        config: {}
      moving_variance_initializer:
        class_name: Ones
        config: {}
      name: separable_conv_2_bn_normal_left5_17
      scale: true
      trainable: true
    inbound_nodes:
    - - - separable_conv_2_normal_left5_17
        - 0
        - 0
        - {}
    name: separable_conv_2_bn_normal_left5_17
  - class_name: Add
    config: {name: normal_add_1_17, trainable: true}
    inbound_nodes:
    - - - separable_conv_2_bn_normal_left1_17
        - 0
        - 0
        - &id173 {}
      - - separable_conv_2_bn_normal_right1_17
        - 0
        - 0
        - *id173
    name: normal_add_1_17
  - class_name: Add
    config: {name: normal_add_2_17, trainable: true}
    inbound_nodes:
    - - - separable_conv_2_bn_normal_left2_17
        - 0
        - 0
        - &id174 {}
      - - separable_conv_2_bn_normal_right2_17
        - 0
        - 0
        - *id174
    name: normal_add_2_17
  - class_name: Add
    config: {name: normal_add_3_17, trainable: true}
    inbound_nodes:
    - - - normal_left3_17
        - 0
        - 0
        - &id175 {}
      - - adjust_bn_17
        - 0
        - 0
        - *id175
    name: normal_add_3_17
  - class_name: Add
    config: {name: normal_add_4_17, trainable: true}
    inbound_nodes:
    - - - normal_left4_17
        - 0
        - 0
        - &id176 {}
      - - normal_right4_17
        - 0
        - 0
        - *id176
    name: normal_add_4_17
  - class_name: Add
    config: {name: normal_add_5_17, trainable: true}
    inbound_nodes:
    - - - separable_conv_2_bn_normal_left5_17
        - 0
        - 0
        - &id177 {}
      - - normal_bn_1_17
        - 0
        - 0
        - *id177
    name: normal_add_5_17
  - class_name: Concatenate
    config: {axis: -1, name: normal_concat_17, trainable: true}
    inbound_nodes:
    - - - adjust_bn_17
        - 0
        - 0
        - &id178 {}
      - - normal_add_1_17
        - 0
        - 0
        - *id178
      - - normal_add_2_17
        - 0
        - 0
        - *id178
      - - normal_add_3_17
        - 0
        - 0
        - *id178
      - - normal_add_4_17
        - 0
        - 0
        - *id178
      - - normal_add_5_17
        - 0
        - 0
        - *id178
    name: normal_concat_17
  - class_name: Activation
    config: {activation: relu, name: activation_1029, trainable: true}
    inbound_nodes:
    - - - normal_concat_16
        - 0
        - 0
        - {}
    name: activation_1029
  - class_name: Activation
    config: {activation: relu, name: activation_1030, trainable: true}
    inbound_nodes:
    - - - normal_concat_17
        - 0
        - 0
        - {}
    name: activation_1030
  - class_name: Conv2D
    config:
      activation: linear
      activity_regularizer: null
      bias_constraint: null
      bias_initializer:
        class_name: Zeros
        config: {}
      bias_regularizer: null
      data_format: channels_last
      dilation_rate: *id001
      filters: 672
      kernel_constraint: null
      kernel_initializer:
        class_name: VarianceScaling
        config: {distribution: normal, mode: fan_in, scale: 2.0, seed: null}
      kernel_regularizer: null
      kernel_size: *id073
      name: adjust_conv_projection_18
      padding: same
      strides: *id074
      trainable: true
      use_bias: false
    inbound_nodes:
    - - - activation_1029
        - 0
        - 0
        - {}
    name: adjust_conv_projection_18
  - class_name: Conv2D
    config:
      activation: linear
      activity_regularizer: null
      bias_constraint: null
      bias_initializer:
        class_name: Zeros
        config: {}
      bias_regularizer: null
      data_format: channels_last
      dilation_rate: *id001
      filters: 672
      kernel_constraint: null
      kernel_initializer:
        class_name: VarianceScaling
        config: {distribution: normal, mode: fan_in, scale: 2.0, seed: null}
      kernel_regularizer: null
      kernel_size: *id059
      name: normal_conv_1_18
      padding: same
      strides: *id060
      trainable: true
      use_bias: false
    inbound_nodes:
    - - - activation_1030
        - 0
        - 0
        - {}
    name: normal_conv_1_18
  - class_name: BatchNormalization
    config:
      axis: -1
      beta_constraint: null
      beta_initializer:
        class_name: Zeros
        config: {}
      beta_regularizer: null
      center: true
      epsilon: 0.001
      gamma_constraint: null
      gamma_initializer:
        class_name: Ones
        config: {}
      gamma_regularizer: null
      momentum: 0.9997
      moving_mean_initializer:
        class_name: Zeros
        config: {}
      moving_variance_initializer:
        class_name: Ones
        config: {}
      name: adjust_bn_18
      scale: true
      trainable: true
    inbound_nodes:
    - - - adjust_conv_projection_18
        - 0
        - 0
        - {}
    name: adjust_bn_18
  - class_name: BatchNormalization
    config:
      axis: -1
      beta_constraint: null
      beta_initializer:
        class_name: Zeros
        config: {}
      beta_regularizer: null
      center: true
      epsilon: 0.001
      gamma_constraint: null
      gamma_initializer:
        class_name: Ones
        config: {}
      gamma_regularizer: null
      momentum: 0.9997
      moving_mean_initializer:
        class_name: Zeros
        config: {}
      moving_variance_initializer:
        class_name: Ones
        config: {}
      name: normal_bn_1_18
      scale: true
      trainable: true
    inbound_nodes:
    - - - normal_conv_1_18
        - 0
        - 0
        - {}
    name: normal_bn_1_18
  - class_name: Activation
    config: {activation: relu, name: activation_1031, trainable: true}
    inbound_nodes:
    - - - normal_bn_1_18
        - 0
        - 0
        - {}
    name: activation_1031
  - class_name: Activation
    config: {activation: relu, name: activation_1033, trainable: true}
    inbound_nodes:
    - - - adjust_bn_18
        - 0
        - 0
        - {}
    name: activation_1033
  - class_name: Activation
    config: {activation: relu, name: activation_1035, trainable: true}
    inbound_nodes:
    - - - adjust_bn_18
        - 0
        - 0
        - {}
    name: activation_1035
  - class_name: Activation
    config: {activation: relu, name: activation_1037, trainable: true}
    inbound_nodes:
    - - - adjust_bn_18
        - 0
        - 0
        - {}
    name: activation_1037
  - class_name: Activation
    config: {activation: relu, name: activation_1039, trainable: true}
    inbound_nodes:
    - - - normal_bn_1_18
        - 0
        - 0
        - {}
    name: activation_1039
  - class_name: SeparableConv2D
    config:
      activation: linear
      activity_regularizer: null
      bias_constraint: null
      bias_initializer:
        class_name: Zeros
        config: {}
      bias_regularizer: null
      data_format: channels_last
      depth_multiplier: 1
      depthwise_constraint: null
      depthwise_initializer:
        class_name: VarianceScaling
        config: {distribution: uniform, mode: fan_avg, scale: 1.0, seed: null}
      depthwise_regularizer: null
      dilation_rate: *id002
      filters: 672
      kernel_size: *id050
      name: separable_conv_1_normal_left1_18
      padding: same
      pointwise_constraint: null
      pointwise_initializer:
        class_name: VarianceScaling
        config: {distribution: uniform, mode: fan_avg, scale: 1.0, seed: null}
      pointwise_regularizer: null
      strides: *id024
      trainable: true
      use_bias: false
    inbound_nodes:
    - - - activation_1031
        - 0
        - 0
        - {}
    name: separable_conv_1_normal_left1_18
  - class_name: SeparableConv2D
    config:
      activation: linear
      activity_regularizer: null
      bias_constraint: null
      bias_initializer:
        class_name: Zeros
        config: {}
      bias_regularizer: null
      data_format: channels_last
      depth_multiplier: 1
      depthwise_constraint: null
      depthwise_initializer:
        class_name: VarianceScaling
        config: {distribution: uniform, mode: fan_avg, scale: 1.0, seed: null}
      depthwise_regularizer: null
      dilation_rate: *id002
      filters: 672
      kernel_size: *id049
      name: separable_conv_1_normal_right1_18
      padding: same
      pointwise_constraint: null
      pointwise_initializer:
        class_name: VarianceScaling
        config: {distribution: uniform, mode: fan_avg, scale: 1.0, seed: null}
      pointwise_regularizer: null
      strides: *id024
      trainable: true
      use_bias: false
    inbound_nodes:
    - - - activation_1033
        - 0
        - 0
        - {}
    name: separable_conv_1_normal_right1_18
  - class_name: SeparableConv2D
    config:
      activation: linear
      activity_regularizer: null
      bias_constraint: null
      bias_initializer:
        class_name: Zeros
        config: {}
      bias_regularizer: null
      data_format: channels_last
      depth_multiplier: 1
      depthwise_constraint: null
      depthwise_initializer:
        class_name: VarianceScaling
        config: {distribution: uniform, mode: fan_avg, scale: 1.0, seed: null}
      depthwise_regularizer: null
      dilation_rate: *id002
      filters: 672
      kernel_size: *id051
      name: separable_conv_1_normal_left2_18
      padding: same
      pointwise_constraint: null
      pointwise_initializer:
        class_name: VarianceScaling
        config: {distribution: uniform, mode: fan_avg, scale: 1.0, seed: null}
      pointwise_regularizer: null
      strides: *id024
      trainable: true
      use_bias: false
    inbound_nodes:
    - - - activation_1035
        - 0
        - 0
        - {}
    name: separable_conv_1_normal_left2_18
  - class_name: SeparableConv2D
    config:
      activation: linear
      activity_regularizer: null
      bias_constraint: null
      bias_initializer:
        class_name: Zeros
        config: {}
      bias_regularizer: null
      data_format: channels_last
      depth_multiplier: 1
      depthwise_constraint: null
      depthwise_initializer:
        class_name: VarianceScaling
        config: {distribution: uniform, mode: fan_avg, scale: 1.0, seed: null}
      depthwise_regularizer: null
      dilation_rate: *id002
      filters: 672
      kernel_size: *id052
      name: separable_conv_1_normal_right2_18
      padding: same
      pointwise_constraint: null
      pointwise_initializer:
        class_name: VarianceScaling
        config: {distribution: uniform, mode: fan_avg, scale: 1.0, seed: null}
      pointwise_regularizer: null
      strides: *id024
      trainable: true
      use_bias: false
    inbound_nodes:
    - - - activation_1037
        - 0
        - 0
        - {}
    name: separable_conv_1_normal_right2_18
  - class_name: SeparableConv2D
    config:
      activation: linear
      activity_regularizer: null
      bias_constraint: null
      bias_initializer:
        class_name: Zeros
        config: {}
      bias_regularizer: null
      data_format: channels_last
      depth_multiplier: 1
      depthwise_constraint: null
      depthwise_initializer:
        class_name: VarianceScaling
        config: {distribution: uniform, mode: fan_avg, scale: 1.0, seed: null}
      depthwise_regularizer: null
      dilation_rate: *id002
      filters: 672
      kernel_size: *id049
      name: separable_conv_1_normal_left5_18
      padding: same
      pointwise_constraint: null
      pointwise_initializer:
        class_name: VarianceScaling
        config: {distribution: uniform, mode: fan_avg, scale: 1.0, seed: null}
      pointwise_regularizer: null
      strides: *id024
      trainable: true
      use_bias: false
    inbound_nodes:
    - - - activation_1039
        - 0
        - 0
        - {}
    name: separable_conv_1_normal_left5_18
  - class_name: BatchNormalization
    config:
      axis: -1
      beta_constraint: null
      beta_initializer:
        class_name: Zeros
        config: {}
      beta_regularizer: null
      center: true
      epsilon: 0.001
      gamma_constraint: null
      gamma_initializer:
        class_name: Ones
        config: {}
      gamma_regularizer: null
      momentum: 0.9997
      moving_mean_initializer:
        class_name: Zeros
        config: {}
      moving_variance_initializer:
        class_name: Ones
        config: {}
      name: separable_conv_1_bn_normal_left1_18
      scale: true
      trainable: true
    inbound_nodes:
    - - - separable_conv_1_normal_left1_18
        - 0
        - 0
        - {}
    name: separable_conv_1_bn_normal_left1_18
  - class_name: BatchNormalization
    config:
      axis: -1
      beta_constraint: null
      beta_initializer:
        class_name: Zeros
        config: {}
      beta_regularizer: null
      center: true
      epsilon: 0.001
      gamma_constraint: null
      gamma_initializer:
        class_name: Ones
        config: {}
      gamma_regularizer: null
      momentum: 0.9997
      moving_mean_initializer:
        class_name: Zeros
        config: {}
      moving_variance_initializer:
        class_name: Ones
        config: {}
      name: separable_conv_1_bn_normal_right1_18
      scale: true
      trainable: true
    inbound_nodes:
    - - - separable_conv_1_normal_right1_18
        - 0
        - 0
        - {}
    name: separable_conv_1_bn_normal_right1_18
  - class_name: BatchNormalization
    config:
      axis: -1
      beta_constraint: null
      beta_initializer:
        class_name: Zeros
        config: {}
      beta_regularizer: null
      center: true
      epsilon: 0.001
      gamma_constraint: null
      gamma_initializer:
        class_name: Ones
        config: {}
      gamma_regularizer: null
      momentum: 0.9997
      moving_mean_initializer:
        class_name: Zeros
        config: {}
      moving_variance_initializer:
        class_name: Ones
        config: {}
      name: separable_conv_1_bn_normal_left2_18
      scale: true
      trainable: true
    inbound_nodes:
    - - - separable_conv_1_normal_left2_18
        - 0
        - 0
        - {}
    name: separable_conv_1_bn_normal_left2_18
  - class_name: BatchNormalization
    config:
      axis: -1
      beta_constraint: null
      beta_initializer:
        class_name: Zeros
        config: {}
      beta_regularizer: null
      center: true
      epsilon: 0.001
      gamma_constraint: null
      gamma_initializer:
        class_name: Ones
        config: {}
      gamma_regularizer: null
      momentum: 0.9997
      moving_mean_initializer:
        class_name: Zeros
        config: {}
      moving_variance_initializer:
        class_name: Ones
        config: {}
      name: separable_conv_1_bn_normal_right2_18
      scale: true
      trainable: true
    inbound_nodes:
    - - - separable_conv_1_normal_right2_18
        - 0
        - 0
        - {}
    name: separable_conv_1_bn_normal_right2_18
  - class_name: BatchNormalization
    config:
      axis: -1
      beta_constraint: null
      beta_initializer:
        class_name: Zeros
        config: {}
      beta_regularizer: null
      center: true
      epsilon: 0.001
      gamma_constraint: null
      gamma_initializer:
        class_name: Ones
        config: {}
      gamma_regularizer: null
      momentum: 0.9997
      moving_mean_initializer:
        class_name: Zeros
        config: {}
      moving_variance_initializer:
        class_name: Ones
        config: {}
      name: separable_conv_1_bn_normal_left5_18
      scale: true
      trainable: true
    inbound_nodes:
    - - - separable_conv_1_normal_left5_18
        - 0
        - 0
        - {}
    name: separable_conv_1_bn_normal_left5_18
  - class_name: Activation
    config: {activation: relu, name: activation_1032, trainable: true}
    inbound_nodes:
    - - - separable_conv_1_bn_normal_left1_18
        - 0
        - 0
        - {}
    name: activation_1032
  - class_name: Activation
    config: {activation: relu, name: activation_1034, trainable: true}
    inbound_nodes:
    - - - separable_conv_1_bn_normal_right1_18
        - 0
        - 0
        - {}
    name: activation_1034
  - class_name: Activation
    config: {activation: relu, name: activation_1036, trainable: true}
    inbound_nodes:
    - - - separable_conv_1_bn_normal_left2_18
        - 0
        - 0
        - {}
    name: activation_1036
  - class_name: Activation
    config: {activation: relu, name: activation_1038, trainable: true}
    inbound_nodes:
    - - - separable_conv_1_bn_normal_right2_18
        - 0
        - 0
        - {}
    name: activation_1038
  - class_name: Activation
    config: {activation: relu, name: activation_1040, trainable: true}
    inbound_nodes:
    - - - separable_conv_1_bn_normal_left5_18
        - 0
        - 0
        - {}
    name: activation_1040
  - class_name: SeparableConv2D
    config:
      activation: linear
      activity_regularizer: null
      bias_constraint: null
      bias_initializer:
        class_name: Zeros
        config: {}
      bias_regularizer: null
      data_format: channels_last
      depth_multiplier: 1
      depthwise_constraint: null
      depthwise_initializer:
        class_name: VarianceScaling
        config: {distribution: uniform, mode: fan_avg, scale: 1.0, seed: null}
      depthwise_regularizer: null
      dilation_rate: *id002
      filters: 672
      kernel_size: *id050
      name: separable_conv_2_normal_left1_18
      padding: same
      pointwise_constraint: null
      pointwise_initializer:
        class_name: VarianceScaling
        config: {distribution: uniform, mode: fan_avg, scale: 1.0, seed: null}
      pointwise_regularizer: null
      strides: *id005
      trainable: true
      use_bias: false
    inbound_nodes:
    - - - activation_1032
        - 0
        - 0
        - {}
    name: separable_conv_2_normal_left1_18
  - class_name: SeparableConv2D
    config:
      activation: linear
      activity_regularizer: null
      bias_constraint: null
      bias_initializer:
        class_name: Zeros
        config: {}
      bias_regularizer: null
      data_format: channels_last
      depth_multiplier: 1
      depthwise_constraint: null
      depthwise_initializer:
        class_name: VarianceScaling
        config: {distribution: uniform, mode: fan_avg, scale: 1.0, seed: null}
      depthwise_regularizer: null
      dilation_rate: *id002
      filters: 672
      kernel_size: *id049
      name: separable_conv_2_normal_right1_18
      padding: same
      pointwise_constraint: null
      pointwise_initializer:
        class_name: VarianceScaling
        config: {distribution: uniform, mode: fan_avg, scale: 1.0, seed: null}
      pointwise_regularizer: null
      strides: *id005
      trainable: true
      use_bias: false
    inbound_nodes:
    - - - activation_1034
        - 0
        - 0
        - {}
    name: separable_conv_2_normal_right1_18
  - class_name: SeparableConv2D
    config:
      activation: linear
      activity_regularizer: null
      bias_constraint: null
      bias_initializer:
        class_name: Zeros
        config: {}
      bias_regularizer: null
      data_format: channels_last
      depth_multiplier: 1
      depthwise_constraint: null
      depthwise_initializer:
        class_name: VarianceScaling
        config: {distribution: uniform, mode: fan_avg, scale: 1.0, seed: null}
      depthwise_regularizer: null
      dilation_rate: *id002
      filters: 672
      kernel_size: *id051
      name: separable_conv_2_normal_left2_18
      padding: same
      pointwise_constraint: null
      pointwise_initializer:
        class_name: VarianceScaling
        config: {distribution: uniform, mode: fan_avg, scale: 1.0, seed: null}
      pointwise_regularizer: null
      strides: *id005
      trainable: true
      use_bias: false
    inbound_nodes:
    - - - activation_1036
        - 0
        - 0
        - {}
    name: separable_conv_2_normal_left2_18
  - class_name: SeparableConv2D
    config:
      activation: linear
      activity_regularizer: null
      bias_constraint: null
      bias_initializer:
        class_name: Zeros
        config: {}
      bias_regularizer: null
      data_format: channels_last
      depth_multiplier: 1
      depthwise_constraint: null
      depthwise_initializer:
        class_name: VarianceScaling
        config: {distribution: uniform, mode: fan_avg, scale: 1.0, seed: null}
      depthwise_regularizer: null
      dilation_rate: *id002
      filters: 672
      kernel_size: *id052
      name: separable_conv_2_normal_right2_18
      padding: same
      pointwise_constraint: null
      pointwise_initializer:
        class_name: VarianceScaling
        config: {distribution: uniform, mode: fan_avg, scale: 1.0, seed: null}
      pointwise_regularizer: null
      strides: *id005
      trainable: true
      use_bias: false
    inbound_nodes:
    - - - activation_1038
        - 0
        - 0
        - {}
    name: separable_conv_2_normal_right2_18
  - class_name: SeparableConv2D
    config:
      activation: linear
      activity_regularizer: null
      bias_constraint: null
      bias_initializer:
        class_name: Zeros
        config: {}
      bias_regularizer: null
      data_format: channels_last
      depth_multiplier: 1
      depthwise_constraint: null
      depthwise_initializer:
        class_name: VarianceScaling
        config: {distribution: uniform, mode: fan_avg, scale: 1.0, seed: null}
      depthwise_regularizer: null
      dilation_rate: *id002
      filters: 672
      kernel_size: *id049
      name: separable_conv_2_normal_left5_18
      padding: same
      pointwise_constraint: null
      pointwise_initializer:
        class_name: VarianceScaling
        config: {distribution: uniform, mode: fan_avg, scale: 1.0, seed: null}
      pointwise_regularizer: null
      strides: *id005
      trainable: true
      use_bias: false
    inbound_nodes:
    - - - activation_1040
        - 0
        - 0
        - {}
    name: separable_conv_2_normal_left5_18
  - class_name: BatchNormalization
    config:
      axis: -1
      beta_constraint: null
      beta_initializer:
        class_name: Zeros
        config: {}
      beta_regularizer: null
      center: true
      epsilon: 0.001
      gamma_constraint: null
      gamma_initializer:
        class_name: Ones
        config: {}
      gamma_regularizer: null
      momentum: 0.9997
      moving_mean_initializer:
        class_name: Zeros
        config: {}
      moving_variance_initializer:
        class_name: Ones
        config: {}
      name: separable_conv_2_bn_normal_left1_18
      scale: true
      trainable: true
    inbound_nodes:
    - - - separable_conv_2_normal_left1_18
        - 0
        - 0
        - {}
    name: separable_conv_2_bn_normal_left1_18
  - class_name: BatchNormalization
    config:
      axis: -1
      beta_constraint: null
      beta_initializer:
        class_name: Zeros
        config: {}
      beta_regularizer: null
      center: true
      epsilon: 0.001
      gamma_constraint: null
      gamma_initializer:
        class_name: Ones
        config: {}
      gamma_regularizer: null
      momentum: 0.9997
      moving_mean_initializer:
        class_name: Zeros
        config: {}
      moving_variance_initializer:
        class_name: Ones
        config: {}
      name: separable_conv_2_bn_normal_right1_18
      scale: true
      trainable: true
    inbound_nodes:
    - - - separable_conv_2_normal_right1_18
        - 0
        - 0
        - {}
    name: separable_conv_2_bn_normal_right1_18
  - class_name: BatchNormalization
    config:
      axis: -1
      beta_constraint: null
      beta_initializer:
        class_name: Zeros
        config: {}
      beta_regularizer: null
      center: true
      epsilon: 0.001
      gamma_constraint: null
      gamma_initializer:
        class_name: Ones
        config: {}
      gamma_regularizer: null
      momentum: 0.9997
      moving_mean_initializer:
        class_name: Zeros
        config: {}
      moving_variance_initializer:
        class_name: Ones
        config: {}
      name: separable_conv_2_bn_normal_left2_18
      scale: true
      trainable: true
    inbound_nodes:
    - - - separable_conv_2_normal_left2_18
        - 0
        - 0
        - {}
    name: separable_conv_2_bn_normal_left2_18
  - class_name: BatchNormalization
    config:
      axis: -1
      beta_constraint: null
      beta_initializer:
        class_name: Zeros
        config: {}
      beta_regularizer: null
      center: true
      epsilon: 0.001
      gamma_constraint: null
      gamma_initializer:
        class_name: Ones
        config: {}
      gamma_regularizer: null
      momentum: 0.9997
      moving_mean_initializer:
        class_name: Zeros
        config: {}
      moving_variance_initializer:
        class_name: Ones
        config: {}
      name: separable_conv_2_bn_normal_right2_18
      scale: true
      trainable: true
    inbound_nodes:
    - - - separable_conv_2_normal_right2_18
        - 0
        - 0
        - {}
    name: separable_conv_2_bn_normal_right2_18
  - class_name: AveragePooling2D
    config:
      data_format: channels_last
      name: normal_left3_18
      padding: same
      pool_size: *id061
      strides: *id062
      trainable: true
    inbound_nodes:
    - - - normal_bn_1_18
        - 0
        - 0
        - {}
    name: normal_left3_18
  - class_name: AveragePooling2D
    config:
      data_format: channels_last
      name: normal_left4_18
      padding: same
      pool_size: *id063
      strides: *id064
      trainable: true
    inbound_nodes:
    - - - adjust_bn_18
        - 0
        - 0
        - {}
    name: normal_left4_18
  - class_name: AveragePooling2D
    config:
      data_format: channels_last
      name: normal_right4_18
      padding: same
      pool_size: *id065
      strides: *id066
      trainable: true
    inbound_nodes:
    - - - adjust_bn_18
        - 0
        - 0
        - {}
    name: normal_right4_18
  - class_name: BatchNormalization
    config:
      axis: -1
      beta_constraint: null
      beta_initializer:
        class_name: Zeros
        config: {}
      beta_regularizer: null
      center: true
      epsilon: 0.001
      gamma_constraint: null
      gamma_initializer:
        class_name: Ones
        config: {}
      gamma_regularizer: null
      momentum: 0.9997
      moving_mean_initializer:
        class_name: Zeros
        config: {}
      moving_variance_initializer:
        class_name: Ones
        config: {}
      name: separable_conv_2_bn_normal_left5_18
      scale: true
      trainable: true
    inbound_nodes:
    - - - separable_conv_2_normal_left5_18
        - 0
        - 0
        - {}
    name: separable_conv_2_bn_normal_left5_18
  - class_name: Add
    config: {name: normal_add_1_18, trainable: true}
    inbound_nodes:
    - - - separable_conv_2_bn_normal_left1_18
        - 0
        - 0
        - &id179 {}
      - - separable_conv_2_bn_normal_right1_18
        - 0
        - 0
        - *id179
    name: normal_add_1_18
  - class_name: Add
    config: {name: normal_add_2_18, trainable: true}
    inbound_nodes:
    - - - separable_conv_2_bn_normal_left2_18
        - 0
        - 0
        - &id180 {}
      - - separable_conv_2_bn_normal_right2_18
        - 0
        - 0
        - *id180
    name: normal_add_2_18
  - class_name: Add
    config: {name: normal_add_3_18, trainable: true}
    inbound_nodes:
    - - - normal_left3_18
        - 0
        - 0
        - &id181 {}
      - - adjust_bn_18
        - 0
        - 0
        - *id181
    name: normal_add_3_18
  - class_name: Add
    config: {name: normal_add_4_18, trainable: true}
    inbound_nodes:
    - - - normal_left4_18
        - 0
        - 0
        - &id182 {}
      - - normal_right4_18
        - 0
        - 0
        - *id182
    name: normal_add_4_18
  - class_name: Add
    config: {name: normal_add_5_18, trainable: true}
    inbound_nodes:
    - - - separable_conv_2_bn_normal_left5_18
        - 0
        - 0
        - &id183 {}
      - - normal_bn_1_18
        - 0
        - 0
        - *id183
    name: normal_add_5_18
  - class_name: Concatenate
    config: {axis: -1, name: normal_concat_18, trainable: true}
    inbound_nodes:
    - - - adjust_bn_18
        - 0
        - 0
        - &id184 {}
      - - normal_add_1_18
        - 0
        - 0
        - *id184
      - - normal_add_2_18
        - 0
        - 0
        - *id184
      - - normal_add_3_18
        - 0
        - 0
        - *id184
      - - normal_add_4_18
        - 0
        - 0
        - *id184
      - - normal_add_5_18
        - 0
        - 0
        - *id184
    name: normal_concat_18
  - class_name: Activation
    config: {activation: relu, name: activation_1041, trainable: true}
    inbound_nodes:
    - - - normal_concat_18
        - 0
        - 0
        - {}
    name: activation_1041
  - class_name: GlobalAveragePooling2D
    config: {data_format: channels_last, name: global_average_pooling2d_5, trainable: true}
    inbound_nodes:
    - - - activation_1041
        - 0
        - 0
        - {}
    name: global_average_pooling2d_5
  - class_name: Dense
    config:
      activation: softmax
      activity_regularizer: null
      bias_constraint: null
      bias_initializer:
        class_name: Zeros
        config: {}
      bias_regularizer: null
      kernel_constraint: null
      kernel_initializer:
        class_name: VarianceScaling
        config: {distribution: uniform, mode: fan_avg, scale: 1.0, seed: null}
      kernel_regularizer: null
      name: predictions
      trainable: true
      units: 1000
      use_bias: true
    inbound_nodes:
    - - - global_average_pooling2d_5
        - 0
        - 0
        - {}
    name: predictions
  name: NASNet
  output_layers:
  - [predictions, 0, 0]
keras_version: 2.2.4
