backend: tensorflow
class_name: Model
config:
  input_layers:
  - [input_17, 0, 0]
  layers:
  - class_name: InputLayer
    config:
      batch_input_shape: !!python/tuple [null, 224, 224, 3]
      dtype: float32
      name: input_17
      sparse: false
    inbound_nodes: []
    name: input_17
  - class_name: Conv2D
    config:
      activation: linear
      activity_regularizer: null
      bias_constraint: null
      bias_initializer:
        class_name: Zeros
        config: {}
      bias_regularizer: null
      data_format: channels_last
      dilation_rate: &id001 !!python/tuple [1, 1]
      filters: 32
      kernel_constraint: null
      kernel_initializer:
        class_name: VarianceScaling
        config: {distribution: normal, mode: fan_in, scale: 2.0, seed: null}
      kernel_regularizer: null
      kernel_size: !!python/tuple [3, 3]
      name: stem_conv1
      padding: valid
      strides: !!python/tuple [2, 2]
      trainable: true
      use_bias: false
    inbound_nodes:
    - - - input_17
        - 0
        - 0
        - {}
    name: stem_conv1
  - class_name: BatchNormalization
    config:
      axis: -1
      beta_constraint: null
      beta_initializer:
        class_name: Zeros
        config: {}
      beta_regularizer: null
      center: true
      epsilon: 0.001
      gamma_constraint: null
      gamma_initializer:
        class_name: Ones
        config: {}
      gamma_regularizer: null
      momentum: 0.9997
      moving_mean_initializer:
        class_name: Zeros
        config: {}
      moving_variance_initializer:
        class_name: Ones
        config: {}
      name: stem_bn1
      scale: true
      trainable: true
    inbound_nodes:
    - - - stem_conv1
        - 0
        - 0
        - {}
    name: stem_bn1
  - class_name: Activation
    config: {activation: relu, name: activation_1042, trainable: true}
    inbound_nodes:
    - - - stem_bn1
        - 0
        - 0
        - {}
    name: activation_1042
  - class_name: Conv2D
    config:
      activation: linear
      activity_regularizer: null
      bias_constraint: null
      bias_initializer:
        class_name: Zeros
        config: {}
      bias_regularizer: null
      data_format: channels_last
      dilation_rate: *id001
      filters: 11
      kernel_constraint: null
      kernel_initializer:
        class_name: VarianceScaling
        config: {distribution: normal, mode: fan_in, scale: 2.0, seed: null}
      kernel_regularizer: null
      kernel_size: &id016 !!python/tuple [1, 1]
      name: reduction_conv_1_stem_1
      padding: same
      strides: &id017 !!python/tuple [1, 1]
      trainable: true
      use_bias: false
    inbound_nodes:
    - - - activation_1042
        - 0
        - 0
        - {}
    name: reduction_conv_1_stem_1
  - class_name: BatchNormalization
    config:
      axis: -1
      beta_constraint: null
      beta_initializer:
        class_name: Zeros
        config: {}
      beta_regularizer: null
      center: true
      epsilon: 0.001
      gamma_constraint: null
      gamma_initializer:
        class_name: Ones
        config: {}
      gamma_regularizer: null
      momentum: 0.9997
      moving_mean_initializer:
        class_name: Zeros
        config: {}
      moving_variance_initializer:
        class_name: Ones
        config: {}
      name: reduction_bn_1_stem_1
      scale: true
      trainable: true
    inbound_nodes:
    - - - reduction_conv_1_stem_1
        - 0
        - 0
        - {}
    name: reduction_bn_1_stem_1
  - class_name: Activation
    config: {activation: relu, name: activation_1043, trainable: true}
    inbound_nodes:
    - - - reduction_bn_1_stem_1
        - 0
        - 0
        - {}
    name: activation_1043
  - class_name: Activation
    config: {activation: relu, name: activation_1045, trainable: true}
    inbound_nodes:
    - - - stem_bn1
        - 0
        - 0
        - {}
    name: activation_1045
  - class_name: SeparableConv2D
    config:
      activation: linear
      activity_regularizer: null
      bias_constraint: null
      bias_initializer:
        class_name: Zeros
        config: {}
      bias_regularizer: null
      data_format: channels_last
      depth_multiplier: 1
      depthwise_constraint: null
      depthwise_initializer:
        class_name: VarianceScaling
        config: {distribution: uniform, mode: fan_avg, scale: 1.0, seed: null}
      depthwise_regularizer: null
      dilation_rate: &id002 !!python/tuple [1, 1]
      filters: 11
      kernel_size: &id003 !!python/tuple [5, 5]
      name: separable_conv_1_reduction_left1_stem_1
      padding: same
      pointwise_constraint: null
      pointwise_initializer:
        class_name: VarianceScaling
        config: {distribution: uniform, mode: fan_avg, scale: 1.0, seed: null}
      pointwise_regularizer: null
      strides: &id019 !!python/tuple [2, 2]
      trainable: true
      use_bias: false
    inbound_nodes:
    - - - activation_1043
        - 0
        - 0
        - {}
    name: separable_conv_1_reduction_left1_stem_1
  - class_name: SeparableConv2D
    config:
      activation: linear
      activity_regularizer: null
      bias_constraint: null
      bias_initializer:
        class_name: Zeros
        config: {}
      bias_regularizer: null
      data_format: channels_last
      depth_multiplier: 1
      depthwise_constraint: null
      depthwise_initializer:
        class_name: VarianceScaling
        config: {distribution: uniform, mode: fan_avg, scale: 1.0, seed: null}
      depthwise_regularizer: null
      dilation_rate: *id002
      filters: 11
      kernel_size: &id004 !!python/tuple [7, 7]
      name: separable_conv_1_reduction_right1_stem_1
      padding: same
      pointwise_constraint: null
      pointwise_initializer:
        class_name: VarianceScaling
        config: {distribution: uniform, mode: fan_avg, scale: 1.0, seed: null}
      pointwise_regularizer: null
      strides: &id020 !!python/tuple [2, 2]
      trainable: true
      use_bias: false
    inbound_nodes:
    - - - activation_1045
        - 0
        - 0
        - {}
    name: separable_conv_1_reduction_right1_stem_1
  - class_name: BatchNormalization
    config:
      axis: -1
      beta_constraint: null
      beta_initializer:
        class_name: Zeros
        config: {}
      beta_regularizer: null
      center: true
      epsilon: 0.001
      gamma_constraint: null
      gamma_initializer:
        class_name: Ones
        config: {}
      gamma_regularizer: null
      momentum: 0.9997
      moving_mean_initializer:
        class_name: Zeros
        config: {}
      moving_variance_initializer:
        class_name: Ones
        config: {}
      name: separable_conv_1_bn_reduction_left1_stem_1
      scale: true
      trainable: true
    inbound_nodes:
    - - - separable_conv_1_reduction_left1_stem_1
        - 0
        - 0
        - {}
    name: separable_conv_1_bn_reduction_left1_stem_1
  - class_name: BatchNormalization
    config:
      axis: -1
      beta_constraint: null
      beta_initializer:
        class_name: Zeros
        config: {}
      beta_regularizer: null
      center: true
      epsilon: 0.001
      gamma_constraint: null
      gamma_initializer:
        class_name: Ones
        config: {}
      gamma_regularizer: null
      momentum: 0.9997
      moving_mean_initializer:
        class_name: Zeros
        config: {}
      moving_variance_initializer:
        class_name: Ones
        config: {}
      name: separable_conv_1_bn_reduction_right1_stem_1
      scale: true
      trainable: true
    inbound_nodes:
    - - - separable_conv_1_reduction_right1_stem_1
        - 0
        - 0
        - {}
    name: separable_conv_1_bn_reduction_right1_stem_1
  - class_name: Activation
    config: {activation: relu, name: activation_1044, trainable: true}
    inbound_nodes:
    - - - separable_conv_1_bn_reduction_left1_stem_1
        - 0
        - 0
        - {}
    name: activation_1044
  - class_name: Activation
    config: {activation: relu, name: activation_1046, trainable: true}
    inbound_nodes:
    - - - separable_conv_1_bn_reduction_right1_stem_1
        - 0
        - 0
        - {}
    name: activation_1046
  - class_name: SeparableConv2D
    config:
      activation: linear
      activity_regularizer: null
      bias_constraint: null
      bias_initializer:
        class_name: Zeros
        config: {}
      bias_regularizer: null
      data_format: channels_last
      depth_multiplier: 1
      depthwise_constraint: null
      depthwise_initializer:
        class_name: VarianceScaling
        config: {distribution: uniform, mode: fan_avg, scale: 1.0, seed: null}
      depthwise_regularizer: null
      dilation_rate: *id002
      filters: 11
      kernel_size: *id003
      name: separable_conv_2_reduction_left1_stem_1
      padding: same
      pointwise_constraint: null
      pointwise_initializer:
        class_name: VarianceScaling
        config: {distribution: uniform, mode: fan_avg, scale: 1.0, seed: null}
      pointwise_regularizer: null
      strides: &id005 !!python/tuple [1, 1]
      trainable: true
      use_bias: false
    inbound_nodes:
    - - - activation_1044
        - 0
        - 0
        - {}
    name: separable_conv_2_reduction_left1_stem_1
  - class_name: SeparableConv2D
    config:
      activation: linear
      activity_regularizer: null
      bias_constraint: null
      bias_initializer:
        class_name: Zeros
        config: {}
      bias_regularizer: null
      data_format: channels_last
      depth_multiplier: 1
      depthwise_constraint: null
      depthwise_initializer:
        class_name: VarianceScaling
        config: {distribution: uniform, mode: fan_avg, scale: 1.0, seed: null}
      depthwise_regularizer: null
      dilation_rate: *id002
      filters: 11
      kernel_size: *id004
      name: separable_conv_2_reduction_right1_stem_1
      padding: same
      pointwise_constraint: null
      pointwise_initializer:
        class_name: VarianceScaling
        config: {distribution: uniform, mode: fan_avg, scale: 1.0, seed: null}
      pointwise_regularizer: null
      strides: *id005
      trainable: true
      use_bias: false
    inbound_nodes:
    - - - activation_1046
        - 0
        - 0
        - {}
    name: separable_conv_2_reduction_right1_stem_1
  - class_name: BatchNormalization
    config:
      axis: -1
      beta_constraint: null
      beta_initializer:
        class_name: Zeros
        config: {}
      beta_regularizer: null
      center: true
      epsilon: 0.001
      gamma_constraint: null
      gamma_initializer:
        class_name: Ones
        config: {}
      gamma_regularizer: null
      momentum: 0.9997
      moving_mean_initializer:
        class_name: Zeros
        config: {}
      moving_variance_initializer:
        class_name: Ones
        config: {}
      name: separable_conv_2_bn_reduction_left1_stem_1
      scale: true
      trainable: true
    inbound_nodes:
    - - - separable_conv_2_reduction_left1_stem_1
        - 0
        - 0
        - {}
    name: separable_conv_2_bn_reduction_left1_stem_1
  - class_name: BatchNormalization
    config:
      axis: -1
      beta_constraint: null
      beta_initializer:
        class_name: Zeros
        config: {}
      beta_regularizer: null
      center: true
      epsilon: 0.001
      gamma_constraint: null
      gamma_initializer:
        class_name: Ones
        config: {}
      gamma_regularizer: null
      momentum: 0.9997
      moving_mean_initializer:
        class_name: Zeros
        config: {}
      moving_variance_initializer:
        class_name: Ones
        config: {}
      name: separable_conv_2_bn_reduction_right1_stem_1
      scale: true
      trainable: true
    inbound_nodes:
    - - - separable_conv_2_reduction_right1_stem_1
        - 0
        - 0
        - {}
    name: separable_conv_2_bn_reduction_right1_stem_1
  - class_name: Activation
    config: {activation: relu, name: activation_1047, trainable: true}
    inbound_nodes:
    - - - stem_bn1
        - 0
        - 0
        - {}
    name: activation_1047
  - class_name: Add
    config: {name: reduction_add_1_stem_1, trainable: true}
    inbound_nodes:
    - - - separable_conv_2_bn_reduction_left1_stem_1
        - 0
        - 0
        - &id006 {}
      - - separable_conv_2_bn_reduction_right1_stem_1
        - 0
        - 0
        - *id006
    name: reduction_add_1_stem_1
  - class_name: SeparableConv2D
    config:
      activation: linear
      activity_regularizer: null
      bias_constraint: null
      bias_initializer:
        class_name: Zeros
        config: {}
      bias_regularizer: null
      data_format: channels_last
      depth_multiplier: 1
      depthwise_constraint: null
      depthwise_initializer:
        class_name: VarianceScaling
        config: {distribution: uniform, mode: fan_avg, scale: 1.0, seed: null}
      depthwise_regularizer: null
      dilation_rate: *id002
      filters: 11
      kernel_size: &id007 !!python/tuple [7, 7]
      name: separable_conv_1_reduction_right2_stem_1
      padding: same
      pointwise_constraint: null
      pointwise_initializer:
        class_name: VarianceScaling
        config: {distribution: uniform, mode: fan_avg, scale: 1.0, seed: null}
      pointwise_regularizer: null
      strides: &id022 !!python/tuple [2, 2]
      trainable: true
      use_bias: false
    inbound_nodes:
    - - - activation_1047
        - 0
        - 0
        - {}
    name: separable_conv_1_reduction_right2_stem_1
  - class_name: Activation
    config: {activation: relu, name: activation_1049, trainable: true}
    inbound_nodes:
    - - - stem_bn1
        - 0
        - 0
        - {}
    name: activation_1049
  - class_name: Activation
    config: {activation: relu, name: activation_1051, trainable: true}
    inbound_nodes:
    - - - reduction_add_1_stem_1
        - 0
        - 0
        - {}
    name: activation_1051
  - class_name: BatchNormalization
    config:
      axis: -1
      beta_constraint: null
      beta_initializer:
        class_name: Zeros
        config: {}
      beta_regularizer: null
      center: true
      epsilon: 0.001
      gamma_constraint: null
      gamma_initializer:
        class_name: Ones
        config: {}
      gamma_regularizer: null
      momentum: 0.9997
      moving_mean_initializer:
        class_name: Zeros
        config: {}
      moving_variance_initializer:
        class_name: Ones
        config: {}
      name: separable_conv_1_bn_reduction_right2_stem_1
      scale: true
      trainable: true
    inbound_nodes:
    - - - separable_conv_1_reduction_right2_stem_1
        - 0
        - 0
        - {}
    name: separable_conv_1_bn_reduction_right2_stem_1
  - class_name: SeparableConv2D
    config:
      activation: linear
      activity_regularizer: null
      bias_constraint: null
      bias_initializer:
        class_name: Zeros
        config: {}
      bias_regularizer: null
      data_format: channels_last
      depth_multiplier: 1
      depthwise_constraint: null
      depthwise_initializer:
        class_name: VarianceScaling
        config: {distribution: uniform, mode: fan_avg, scale: 1.0, seed: null}
      depthwise_regularizer: null
      dilation_rate: *id002
      filters: 11
      kernel_size: &id008 !!python/tuple [5, 5]
      name: separable_conv_1_reduction_right3_stem_1
      padding: same
      pointwise_constraint: null
      pointwise_initializer:
        class_name: VarianceScaling
        config: {distribution: uniform, mode: fan_avg, scale: 1.0, seed: null}
      pointwise_regularizer: null
      strides: &id023 !!python/tuple [2, 2]
      trainable: true
      use_bias: false
    inbound_nodes:
    - - - activation_1049
        - 0
        - 0
        - {}
    name: separable_conv_1_reduction_right3_stem_1
  - class_name: SeparableConv2D
    config:
      activation: linear
      activity_regularizer: null
      bias_constraint: null
      bias_initializer:
        class_name: Zeros
        config: {}
      bias_regularizer: null
      data_format: channels_last
      depth_multiplier: 1
      depthwise_constraint: null
      depthwise_initializer:
        class_name: VarianceScaling
        config: {distribution: uniform, mode: fan_avg, scale: 1.0, seed: null}
      depthwise_regularizer: null
      dilation_rate: *id002
      filters: 11
      kernel_size: &id009 !!python/tuple [3, 3]
      name: separable_conv_1_reduction_left4_stem_1
      padding: same
      pointwise_constraint: null
      pointwise_initializer:
        class_name: VarianceScaling
        config: {distribution: uniform, mode: fan_avg, scale: 1.0, seed: null}
      pointwise_regularizer: null
      strides: &id024 !!python/tuple [1, 1]
      trainable: true
      use_bias: false
    inbound_nodes:
    - - - activation_1051
        - 0
        - 0
        - {}
    name: separable_conv_1_reduction_left4_stem_1
  - class_name: Activation
    config: {activation: relu, name: activation_1048, trainable: true}
    inbound_nodes:
    - - - separable_conv_1_bn_reduction_right2_stem_1
        - 0
        - 0
        - {}
    name: activation_1048
  - class_name: BatchNormalization
    config:
      axis: -1
      beta_constraint: null
      beta_initializer:
        class_name: Zeros
        config: {}
      beta_regularizer: null
      center: true
      epsilon: 0.001
      gamma_constraint: null
      gamma_initializer:
        class_name: Ones
        config: {}
      gamma_regularizer: null
      momentum: 0.9997
      moving_mean_initializer:
        class_name: Zeros
        config: {}
      moving_variance_initializer:
        class_name: Ones
        config: {}
      name: separable_conv_1_bn_reduction_right3_stem_1
      scale: true
      trainable: true
    inbound_nodes:
    - - - separable_conv_1_reduction_right3_stem_1
        - 0
        - 0
        - {}
    name: separable_conv_1_bn_reduction_right3_stem_1
  - class_name: BatchNormalization
    config:
      axis: -1
      beta_constraint: null
      beta_initializer:
        class_name: Zeros
        config: {}
      beta_regularizer: null
      center: true
      epsilon: 0.001
      gamma_constraint: null
      gamma_initializer:
        class_name: Ones
        config: {}
      gamma_regularizer: null
      momentum: 0.9997
      moving_mean_initializer:
        class_name: Zeros
        config: {}
      moving_variance_initializer:
        class_name: Ones
        config: {}
      name: separable_conv_1_bn_reduction_left4_stem_1
      scale: true
      trainable: true
    inbound_nodes:
    - - - separable_conv_1_reduction_left4_stem_1
        - 0
        - 0
        - {}
    name: separable_conv_1_bn_reduction_left4_stem_1
  - class_name: SeparableConv2D
    config:
      activation: linear
      activity_regularizer: null
      bias_constraint: null
      bias_initializer:
        class_name: Zeros
        config: {}
      bias_regularizer: null
      data_format: channels_last
      depth_multiplier: 1
      depthwise_constraint: null
      depthwise_initializer:
        class_name: VarianceScaling
        config: {distribution: uniform, mode: fan_avg, scale: 1.0, seed: null}
      depthwise_regularizer: null
      dilation_rate: *id002
      filters: 11
      kernel_size: *id007
      name: separable_conv_2_reduction_right2_stem_1
      padding: same
      pointwise_constraint: null
      pointwise_initializer:
        class_name: VarianceScaling
        config: {distribution: uniform, mode: fan_avg, scale: 1.0, seed: null}
      pointwise_regularizer: null
      strides: *id005
      trainable: true
      use_bias: false
    inbound_nodes:
    - - - activation_1048
        - 0
        - 0
        - {}
    name: separable_conv_2_reduction_right2_stem_1
  - class_name: Activation
    config: {activation: relu, name: activation_1050, trainable: true}
    inbound_nodes:
    - - - separable_conv_1_bn_reduction_right3_stem_1
        - 0
        - 0
        - {}
    name: activation_1050
  - class_name: Activation
    config: {activation: relu, name: activation_1052, trainable: true}
    inbound_nodes:
    - - - separable_conv_1_bn_reduction_left4_stem_1
        - 0
        - 0
        - {}
    name: activation_1052
  - class_name: MaxPooling2D
    config:
      data_format: channels_last
      name: reduction_left2_stem_1
      padding: same
      pool_size: &id025 !!python/tuple [3, 3]
      strides: &id026 !!python/tuple [2, 2]
      trainable: true
    inbound_nodes:
    - - - reduction_bn_1_stem_1
        - 0
        - 0
        - {}
    name: reduction_left2_stem_1
  - class_name: BatchNormalization
    config:
      axis: -1
      beta_constraint: null
      beta_initializer:
        class_name: Zeros
        config: {}
      beta_regularizer: null
      center: true
      epsilon: 0.001
      gamma_constraint: null
      gamma_initializer:
        class_name: Ones
        config: {}
      gamma_regularizer: null
      momentum: 0.9997
      moving_mean_initializer:
        class_name: Zeros
        config: {}
      moving_variance_initializer:
        class_name: Ones
        config: {}
      name: separable_conv_2_bn_reduction_right2_stem_1
      scale: true
      trainable: true
    inbound_nodes:
    - - - separable_conv_2_reduction_right2_stem_1
        - 0
        - 0
        - {}
    name: separable_conv_2_bn_reduction_right2_stem_1
  - class_name: SeparableConv2D
    config:
      activation: linear
      activity_regularizer: null
      bias_constraint: null
      bias_initializer:
        class_name: Zeros
        config: {}
      bias_regularizer: null
      data_format: channels_last
      depth_multiplier: 1
      depthwise_constraint: null
      depthwise_initializer:
        class_name: VarianceScaling
        config: {distribution: uniform, mode: fan_avg, scale: 1.0, seed: null}
      depthwise_regularizer: null
      dilation_rate: *id002
      filters: 11
      kernel_size: *id008
      name: separable_conv_2_reduction_right3_stem_1
      padding: same
      pointwise_constraint: null
      pointwise_initializer:
        class_name: VarianceScaling
        config: {distribution: uniform, mode: fan_avg, scale: 1.0, seed: null}
      pointwise_regularizer: null
      strides: *id005
      trainable: true
      use_bias: false
    inbound_nodes:
    - - - activation_1050
        - 0
        - 0
        - {}
    name: separable_conv_2_reduction_right3_stem_1
  - class_name: SeparableConv2D
    config:
      activation: linear
      activity_regularizer: null
      bias_constraint: null
      bias_initializer:
        class_name: Zeros
        config: {}
      bias_regularizer: null
      data_format: channels_last
      depth_multiplier: 1
      depthwise_constraint: null
      depthwise_initializer:
        class_name: VarianceScaling
        config: {distribution: uniform, mode: fan_avg, scale: 1.0, seed: null}
      depthwise_regularizer: null
      dilation_rate: *id002
      filters: 11
      kernel_size: *id009
      name: separable_conv_2_reduction_left4_stem_1
      padding: same
      pointwise_constraint: null
      pointwise_initializer:
        class_name: VarianceScaling
        config: {distribution: uniform, mode: fan_avg, scale: 1.0, seed: null}
      pointwise_regularizer: null
      strides: *id005
      trainable: true
      use_bias: false
    inbound_nodes:
    - - - activation_1052
        - 0
        - 0
        - {}
    name: separable_conv_2_reduction_left4_stem_1
  - class_name: Activation
    config: {activation: relu, name: adjust_relu_1_stem_2, trainable: true}
    inbound_nodes:
    - - - stem_bn1
        - 0
        - 0
        - {}
    name: adjust_relu_1_stem_2
  - class_name: Add
    config: {name: reduction_add_2_stem_1, trainable: true}
    inbound_nodes:
    - - - reduction_left2_stem_1
        - 0
        - 0
        - &id010 {}
      - - separable_conv_2_bn_reduction_right2_stem_1
        - 0
        - 0
        - *id010
    name: reduction_add_2_stem_1
  - class_name: AveragePooling2D
    config:
      data_format: channels_last
      name: reduction_left3_stem_1
      padding: same
      pool_size: &id028 !!python/tuple [3, 3]
      strides: &id029 !!python/tuple [2, 2]
      trainable: true
    inbound_nodes:
    - - - reduction_bn_1_stem_1
        - 0
        - 0
        - {}
    name: reduction_left3_stem_1
  - class_name: BatchNormalization
    config:
      axis: -1
      beta_constraint: null
      beta_initializer:
        class_name: Zeros
        config: {}
      beta_regularizer: null
      center: true
      epsilon: 0.001
      gamma_constraint: null
      gamma_initializer:
        class_name: Ones
        config: {}
      gamma_regularizer: null
      momentum: 0.9997
      moving_mean_initializer:
        class_name: Zeros
        config: {}
      moving_variance_initializer:
        class_name: Ones
        config: {}
      name: separable_conv_2_bn_reduction_right3_stem_1
      scale: true
      trainable: true
    inbound_nodes:
    - - - separable_conv_2_reduction_right3_stem_1
        - 0
        - 0
        - {}
    name: separable_conv_2_bn_reduction_right3_stem_1
  - class_name: AveragePooling2D
    config:
      data_format: channels_last
      name: reduction_left4_stem_1
      padding: same
      pool_size: &id030 !!python/tuple [3, 3]
      strides: &id031 !!python/tuple [1, 1]
      trainable: true
    inbound_nodes:
    - - - reduction_add_1_stem_1
        - 0
        - 0
        - {}
    name: reduction_left4_stem_1
  - class_name: BatchNormalization
    config:
      axis: -1
      beta_constraint: null
      beta_initializer:
        class_name: Zeros
        config: {}
      beta_regularizer: null
      center: true
      epsilon: 0.001
      gamma_constraint: null
      gamma_initializer:
        class_name: Ones
        config: {}
      gamma_regularizer: null
      momentum: 0.9997
      moving_mean_initializer:
        class_name: Zeros
        config: {}
      moving_variance_initializer:
        class_name: Ones
        config: {}
      name: separable_conv_2_bn_reduction_left4_stem_1
      scale: true
      trainable: true
    inbound_nodes:
    - - - separable_conv_2_reduction_left4_stem_1
        - 0
        - 0
        - {}
    name: separable_conv_2_bn_reduction_left4_stem_1
  - class_name: MaxPooling2D
    config:
      data_format: channels_last
      name: reduction_right5_stem_1
      padding: same
      pool_size: &id032 !!python/tuple [3, 3]
      strides: &id033 !!python/tuple [2, 2]
      trainable: true
    inbound_nodes:
    - - - reduction_bn_1_stem_1
        - 0
        - 0
        - {}
    name: reduction_right5_stem_1
  - class_name: ZeroPadding2D
    config:
      data_format: channels_last
      name: zero_padding2d_20
      padding: !!python/tuple
      - &id034 !!python/tuple [0, 1]
      - &id035 !!python/tuple [0, 1]
      trainable: true
    inbound_nodes:
    - - - adjust_relu_1_stem_2
        - 0
        - 0
        - {}
    name: zero_padding2d_20
  - class_name: Add
    config: {name: reduction_add3_stem_1, trainable: true}
    inbound_nodes:
    - - - reduction_left3_stem_1
        - 0
        - 0
        - &id011 {}
      - - separable_conv_2_bn_reduction_right3_stem_1
        - 0
        - 0
        - *id011
    name: reduction_add3_stem_1
  - class_name: Add
    config: {name: add_9, trainable: true}
    inbound_nodes:
    - - - reduction_add_2_stem_1
        - 0
        - 0
        - &id012 {}
      - - reduction_left4_stem_1
        - 0
        - 0
        - *id012
    name: add_9
  - class_name: Add
    config: {name: reduction_add4_stem_1, trainable: true}
    inbound_nodes:
    - - - separable_conv_2_bn_reduction_left4_stem_1
        - 0
        - 0
        - &id013 {}
      - - reduction_right5_stem_1
        - 0
        - 0
        - *id013
    name: reduction_add4_stem_1
  - class_name: Cropping2D
    config:
      cropping: !!python/tuple
      - &id039 !!python/tuple [1, 0]
      - &id040 !!python/tuple [1, 0]
      data_format: channels_last
      name: cropping2d_8
      trainable: true
    inbound_nodes:
    - - - zero_padding2d_20
        - 0
        - 0
        - {}
    name: cropping2d_8
  - class_name: Concatenate
    config: {axis: -1, name: reduction_concat_stem_1, trainable: true}
    inbound_nodes:
    - - - reduction_add_2_stem_1
        - 0
        - 0
        - &id014 {}
      - - reduction_add3_stem_1
        - 0
        - 0
        - *id014
      - - add_9
        - 0
        - 0
        - *id014
      - - reduction_add4_stem_1
        - 0
        - 0
        - *id014
    name: reduction_concat_stem_1
  - class_name: AveragePooling2D
    config:
      data_format: channels_last
      name: adjust_avg_pool_1_stem_2
      padding: valid
      pool_size: &id042 !!python/tuple [1, 1]
      strides: &id043 !!python/tuple [2, 2]
      trainable: true
    inbound_nodes:
    - - - adjust_relu_1_stem_2
        - 0
        - 0
        - {}
    name: adjust_avg_pool_1_stem_2
  - class_name: AveragePooling2D
    config:
      data_format: channels_last
      name: adjust_avg_pool_2_stem_2
      padding: valid
      pool_size: &id044 !!python/tuple [1, 1]
      strides: &id045 !!python/tuple [2, 2]
      trainable: true
    inbound_nodes:
    - - - cropping2d_8
        - 0
        - 0
        - {}
    name: adjust_avg_pool_2_stem_2
  - class_name: Activation
    config: {activation: relu, name: activation_1053, trainable: true}
    inbound_nodes:
    - - - reduction_concat_stem_1
        - 0
        - 0
        - {}
    name: activation_1053
  - class_name: Conv2D
    config:
      activation: linear
      activity_regularizer: null
      bias_constraint: null
      bias_initializer:
        class_name: Zeros
        config: {}
      bias_regularizer: null
      data_format: channels_last
      dilation_rate: *id001
      filters: 11
      kernel_constraint: null
      kernel_initializer:
        class_name: VarianceScaling
        config: {distribution: normal, mode: fan_in, scale: 2.0, seed: null}
      kernel_regularizer: null
      kernel_size: &id046 !!python/tuple [1, 1]
      name: adjust_conv_1_stem_2
      padding: same
      strides: &id015 !!python/tuple [1, 1]
      trainable: true
      use_bias: false
    inbound_nodes:
    - - - adjust_avg_pool_1_stem_2
        - 0
        - 0
        - {}
    name: adjust_conv_1_stem_2
  - class_name: Conv2D
    config:
      activation: linear
      activity_regularizer: null
      bias_constraint: null
      bias_initializer:
        class_name: Zeros
        config: {}
      bias_regularizer: null
      data_format: channels_last
      dilation_rate: *id001
      filters: 11
      kernel_constraint: null
      kernel_initializer:
        class_name: VarianceScaling
        config: {distribution: normal, mode: fan_in, scale: 2.0, seed: null}
      kernel_regularizer: null
      kernel_size: &id047 !!python/tuple [1, 1]
      name: adjust_conv_2_stem_2
      padding: same
      strides: *id015
      trainable: true
      use_bias: false
    inbound_nodes:
    - - - adjust_avg_pool_2_stem_2
        - 0
        - 0
        - {}
    name: adjust_conv_2_stem_2
  - class_name: Conv2D
    config:
      activation: linear
      activity_regularizer: null
      bias_constraint: null
      bias_initializer:
        class_name: Zeros
        config: {}
      bias_regularizer: null
      data_format: channels_last
      dilation_rate: *id001
      filters: 22
      kernel_constraint: null
      kernel_initializer:
        class_name: VarianceScaling
        config: {distribution: normal, mode: fan_in, scale: 2.0, seed: null}
      kernel_regularizer: null
      kernel_size: *id016
      name: reduction_conv_1_stem_2
      padding: same
      strides: *id017
      trainable: true
      use_bias: false
    inbound_nodes:
    - - - activation_1053
        - 0
        - 0
        - {}
    name: reduction_conv_1_stem_2
  - class_name: Concatenate
    config: {axis: -1, name: concatenate_12, trainable: true}
    inbound_nodes:
    - - - adjust_conv_1_stem_2
        - 0
        - 0
        - &id018 {}
      - - adjust_conv_2_stem_2
        - 0
        - 0
        - *id018
    name: concatenate_12
  - class_name: BatchNormalization
    config:
      axis: -1
      beta_constraint: null
      beta_initializer:
        class_name: Zeros
        config: {}
      beta_regularizer: null
      center: true
      epsilon: 0.001
      gamma_constraint: null
      gamma_initializer:
        class_name: Ones
        config: {}
      gamma_regularizer: null
      momentum: 0.9997
      moving_mean_initializer:
        class_name: Zeros
        config: {}
      moving_variance_initializer:
        class_name: Ones
        config: {}
      name: reduction_bn_1_stem_2
      scale: true
      trainable: true
    inbound_nodes:
    - - - reduction_conv_1_stem_2
        - 0
        - 0
        - {}
    name: reduction_bn_1_stem_2
  - class_name: BatchNormalization
    config:
      axis: -1
      beta_constraint: null
      beta_initializer:
        class_name: Zeros
        config: {}
      beta_regularizer: null
      center: true
      epsilon: 0.001
      gamma_constraint: null
      gamma_initializer:
        class_name: Ones
        config: {}
      gamma_regularizer: null
      momentum: 0.9997
      moving_mean_initializer:
        class_name: Zeros
        config: {}
      moving_variance_initializer:
        class_name: Ones
        config: {}
      name: adjust_bn_stem_2
      scale: true
      trainable: true
    inbound_nodes:
    - - - concatenate_12
        - 0
        - 0
        - {}
    name: adjust_bn_stem_2
  - class_name: Activation
    config: {activation: relu, name: activation_1054, trainable: true}
    inbound_nodes:
    - - - reduction_bn_1_stem_2
        - 0
        - 0
        - {}
    name: activation_1054
  - class_name: Activation
    config: {activation: relu, name: activation_1056, trainable: true}
    inbound_nodes:
    - - - adjust_bn_stem_2
        - 0
        - 0
        - {}
    name: activation_1056
  - class_name: SeparableConv2D
    config:
      activation: linear
      activity_regularizer: null
      bias_constraint: null
      bias_initializer:
        class_name: Zeros
        config: {}
      bias_regularizer: null
      data_format: channels_last
      depth_multiplier: 1
      depthwise_constraint: null
      depthwise_initializer:
        class_name: VarianceScaling
        config: {distribution: uniform, mode: fan_avg, scale: 1.0, seed: null}
      depthwise_regularizer: null
      dilation_rate: *id002
      filters: 22
      kernel_size: *id003
      name: separable_conv_1_reduction_left1_stem_2
      padding: same
      pointwise_constraint: null
      pointwise_initializer:
        class_name: VarianceScaling
        config: {distribution: uniform, mode: fan_avg, scale: 1.0, seed: null}
      pointwise_regularizer: null
      strides: *id019
      trainable: true
      use_bias: false
    inbound_nodes:
    - - - activation_1054
        - 0
        - 0
        - {}
    name: separable_conv_1_reduction_left1_stem_2
  - class_name: SeparableConv2D
    config:
      activation: linear
      activity_regularizer: null
      bias_constraint: null
      bias_initializer:
        class_name: Zeros
        config: {}
      bias_regularizer: null
      data_format: channels_last
      depth_multiplier: 1
      depthwise_constraint: null
      depthwise_initializer:
        class_name: VarianceScaling
        config: {distribution: uniform, mode: fan_avg, scale: 1.0, seed: null}
      depthwise_regularizer: null
      dilation_rate: *id002
      filters: 22
      kernel_size: *id004
      name: separable_conv_1_reduction_right1_stem_2
      padding: same
      pointwise_constraint: null
      pointwise_initializer:
        class_name: VarianceScaling
        config: {distribution: uniform, mode: fan_avg, scale: 1.0, seed: null}
      pointwise_regularizer: null
      strides: *id020
      trainable: true
      use_bias: false
    inbound_nodes:
    - - - activation_1056
        - 0
        - 0
        - {}
    name: separable_conv_1_reduction_right1_stem_2
  - class_name: BatchNormalization
    config:
      axis: -1
      beta_constraint: null
      beta_initializer:
        class_name: Zeros
        config: {}
      beta_regularizer: null
      center: true
      epsilon: 0.001
      gamma_constraint: null
      gamma_initializer:
        class_name: Ones
        config: {}
      gamma_regularizer: null
      momentum: 0.9997
      moving_mean_initializer:
        class_name: Zeros
        config: {}
      moving_variance_initializer:
        class_name: Ones
        config: {}
      name: separable_conv_1_bn_reduction_left1_stem_2
      scale: true
      trainable: true
    inbound_nodes:
    - - - separable_conv_1_reduction_left1_stem_2
        - 0
        - 0
        - {}
    name: separable_conv_1_bn_reduction_left1_stem_2
  - class_name: BatchNormalization
    config:
      axis: -1
      beta_constraint: null
      beta_initializer:
        class_name: Zeros
        config: {}
      beta_regularizer: null
      center: true
      epsilon: 0.001
      gamma_constraint: null
      gamma_initializer:
        class_name: Ones
        config: {}
      gamma_regularizer: null
      momentum: 0.9997
      moving_mean_initializer:
        class_name: Zeros
        config: {}
      moving_variance_initializer:
        class_name: Ones
        config: {}
      name: separable_conv_1_bn_reduction_right1_stem_2
      scale: true
      trainable: true
    inbound_nodes:
    - - - separable_conv_1_reduction_right1_stem_2
        - 0
        - 0
        - {}
    name: separable_conv_1_bn_reduction_right1_stem_2
  - class_name: Activation
    config: {activation: relu, name: activation_1055, trainable: true}
    inbound_nodes:
    - - - separable_conv_1_bn_reduction_left1_stem_2
        - 0
        - 0
        - {}
    name: activation_1055
  - class_name: Activation
    config: {activation: relu, name: activation_1057, trainable: true}
    inbound_nodes:
    - - - separable_conv_1_bn_reduction_right1_stem_2
        - 0
        - 0
        - {}
    name: activation_1057
  - class_name: SeparableConv2D
    config:
      activation: linear
      activity_regularizer: null
      bias_constraint: null
      bias_initializer:
        class_name: Zeros
        config: {}
      bias_regularizer: null
      data_format: channels_last
      depth_multiplier: 1
      depthwise_constraint: null
      depthwise_initializer:
        class_name: VarianceScaling
        config: {distribution: uniform, mode: fan_avg, scale: 1.0, seed: null}
      depthwise_regularizer: null
      dilation_rate: *id002
      filters: 22
      kernel_size: *id003
      name: separable_conv_2_reduction_left1_stem_2
      padding: same
      pointwise_constraint: null
      pointwise_initializer:
        class_name: VarianceScaling
        config: {distribution: uniform, mode: fan_avg, scale: 1.0, seed: null}
      pointwise_regularizer: null
      strides: *id005
      trainable: true
      use_bias: false
    inbound_nodes:
    - - - activation_1055
        - 0
        - 0
        - {}
    name: separable_conv_2_reduction_left1_stem_2
  - class_name: SeparableConv2D
    config:
      activation: linear
      activity_regularizer: null
      bias_constraint: null
      bias_initializer:
        class_name: Zeros
        config: {}
      bias_regularizer: null
      data_format: channels_last
      depth_multiplier: 1
      depthwise_constraint: null
      depthwise_initializer:
        class_name: VarianceScaling
        config: {distribution: uniform, mode: fan_avg, scale: 1.0, seed: null}
      depthwise_regularizer: null
      dilation_rate: *id002
      filters: 22
      kernel_size: *id004
      name: separable_conv_2_reduction_right1_stem_2
      padding: same
      pointwise_constraint: null
      pointwise_initializer:
        class_name: VarianceScaling
        config: {distribution: uniform, mode: fan_avg, scale: 1.0, seed: null}
      pointwise_regularizer: null
      strides: *id005
      trainable: true
      use_bias: false
    inbound_nodes:
    - - - activation_1057
        - 0
        - 0
        - {}
    name: separable_conv_2_reduction_right1_stem_2
  - class_name: BatchNormalization
    config:
      axis: -1
      beta_constraint: null
      beta_initializer:
        class_name: Zeros
        config: {}
      beta_regularizer: null
      center: true
      epsilon: 0.001
      gamma_constraint: null
      gamma_initializer:
        class_name: Ones
        config: {}
      gamma_regularizer: null
      momentum: 0.9997
      moving_mean_initializer:
        class_name: Zeros
        config: {}
      moving_variance_initializer:
        class_name: Ones
        config: {}
      name: separable_conv_2_bn_reduction_left1_stem_2
      scale: true
      trainable: true
    inbound_nodes:
    - - - separable_conv_2_reduction_left1_stem_2
        - 0
        - 0
        - {}
    name: separable_conv_2_bn_reduction_left1_stem_2
  - class_name: BatchNormalization
    config:
      axis: -1
      beta_constraint: null
      beta_initializer:
        class_name: Zeros
        config: {}
      beta_regularizer: null
      center: true
      epsilon: 0.001
      gamma_constraint: null
      gamma_initializer:
        class_name: Ones
        config: {}
      gamma_regularizer: null
      momentum: 0.9997
      moving_mean_initializer:
        class_name: Zeros
        config: {}
      moving_variance_initializer:
        class_name: Ones
        config: {}
      name: separable_conv_2_bn_reduction_right1_stem_2
      scale: true
      trainable: true
    inbound_nodes:
    - - - separable_conv_2_reduction_right1_stem_2
        - 0
        - 0
        - {}
    name: separable_conv_2_bn_reduction_right1_stem_2
  - class_name: Activation
    config: {activation: relu, name: activation_1058, trainable: true}
    inbound_nodes:
    - - - adjust_bn_stem_2
        - 0
        - 0
        - {}
    name: activation_1058
  - class_name: Add
    config: {name: reduction_add_1_stem_2, trainable: true}
    inbound_nodes:
    - - - separable_conv_2_bn_reduction_left1_stem_2
        - 0
        - 0
        - &id021 {}
      - - separable_conv_2_bn_reduction_right1_stem_2
        - 0
        - 0
        - *id021
    name: reduction_add_1_stem_2
  - class_name: SeparableConv2D
    config:
      activation: linear
      activity_regularizer: null
      bias_constraint: null
      bias_initializer:
        class_name: Zeros
        config: {}
      bias_regularizer: null
      data_format: channels_last
      depth_multiplier: 1
      depthwise_constraint: null
      depthwise_initializer:
        class_name: VarianceScaling
        config: {distribution: uniform, mode: fan_avg, scale: 1.0, seed: null}
      depthwise_regularizer: null
      dilation_rate: *id002
      filters: 22
      kernel_size: *id007
      name: separable_conv_1_reduction_right2_stem_2
      padding: same
      pointwise_constraint: null
      pointwise_initializer:
        class_name: VarianceScaling
        config: {distribution: uniform, mode: fan_avg, scale: 1.0, seed: null}
      pointwise_regularizer: null
      strides: *id022
      trainable: true
      use_bias: false
    inbound_nodes:
    - - - activation_1058
        - 0
        - 0
        - {}
    name: separable_conv_1_reduction_right2_stem_2
  - class_name: Activation
    config: {activation: relu, name: activation_1060, trainable: true}
    inbound_nodes:
    - - - adjust_bn_stem_2
        - 0
        - 0
        - {}
    name: activation_1060
  - class_name: Activation
    config: {activation: relu, name: activation_1062, trainable: true}
    inbound_nodes:
    - - - reduction_add_1_stem_2
        - 0
        - 0
        - {}
    name: activation_1062
  - class_name: BatchNormalization
    config:
      axis: -1
      beta_constraint: null
      beta_initializer:
        class_name: Zeros
        config: {}
      beta_regularizer: null
      center: true
      epsilon: 0.001
      gamma_constraint: null
      gamma_initializer:
        class_name: Ones
        config: {}
      gamma_regularizer: null
      momentum: 0.9997
      moving_mean_initializer:
        class_name: Zeros
        config: {}
      moving_variance_initializer:
        class_name: Ones
        config: {}
      name: separable_conv_1_bn_reduction_right2_stem_2
      scale: true
      trainable: true
    inbound_nodes:
    - - - separable_conv_1_reduction_right2_stem_2
        - 0
        - 0
        - {}
    name: separable_conv_1_bn_reduction_right2_stem_2
  - class_name: SeparableConv2D
    config:
      activation: linear
      activity_regularizer: null
      bias_constraint: null
      bias_initializer:
        class_name: Zeros
        config: {}
      bias_regularizer: null
      data_format: channels_last
      depth_multiplier: 1
      depthwise_constraint: null
      depthwise_initializer:
        class_name: VarianceScaling
        config: {distribution: uniform, mode: fan_avg, scale: 1.0, seed: null}
      depthwise_regularizer: null
      dilation_rate: *id002
      filters: 22
      kernel_size: *id008
      name: separable_conv_1_reduction_right3_stem_2
      padding: same
      pointwise_constraint: null
      pointwise_initializer:
        class_name: VarianceScaling
        config: {distribution: uniform, mode: fan_avg, scale: 1.0, seed: null}
      pointwise_regularizer: null
      strides: *id023
      trainable: true
      use_bias: false
    inbound_nodes:
    - - - activation_1060
        - 0
        - 0
        - {}
    name: separable_conv_1_reduction_right3_stem_2
  - class_name: SeparableConv2D
    config:
      activation: linear
      activity_regularizer: null
      bias_constraint: null
      bias_initializer:
        class_name: Zeros
        config: {}
      bias_regularizer: null
      data_format: channels_last
      depth_multiplier: 1
      depthwise_constraint: null
      depthwise_initializer:
        class_name: VarianceScaling
        config: {distribution: uniform, mode: fan_avg, scale: 1.0, seed: null}
      depthwise_regularizer: null
      dilation_rate: *id002
      filters: 22
      kernel_size: *id009
      name: separable_conv_1_reduction_left4_stem_2
      padding: same
      pointwise_constraint: null
      pointwise_initializer:
        class_name: VarianceScaling
        config: {distribution: uniform, mode: fan_avg, scale: 1.0, seed: null}
      pointwise_regularizer: null
      strides: *id024
      trainable: true
      use_bias: false
    inbound_nodes:
    - - - activation_1062
        - 0
        - 0
        - {}
    name: separable_conv_1_reduction_left4_stem_2
  - class_name: Activation
    config: {activation: relu, name: activation_1059, trainable: true}
    inbound_nodes:
    - - - separable_conv_1_bn_reduction_right2_stem_2
        - 0
        - 0
        - {}
    name: activation_1059
  - class_name: BatchNormalization
    config:
      axis: -1
      beta_constraint: null
      beta_initializer:
        class_name: Zeros
        config: {}
      beta_regularizer: null
      center: true
      epsilon: 0.001
      gamma_constraint: null
      gamma_initializer:
        class_name: Ones
        config: {}
      gamma_regularizer: null
      momentum: 0.9997
      moving_mean_initializer:
        class_name: Zeros
        config: {}
      moving_variance_initializer:
        class_name: Ones
        config: {}
      name: separable_conv_1_bn_reduction_right3_stem_2
      scale: true
      trainable: true
    inbound_nodes:
    - - - separable_conv_1_reduction_right3_stem_2
        - 0
        - 0
        - {}
    name: separable_conv_1_bn_reduction_right3_stem_2
  - class_name: BatchNormalization
    config:
      axis: -1
      beta_constraint: null
      beta_initializer:
        class_name: Zeros
        config: {}
      beta_regularizer: null
      center: true
      epsilon: 0.001
      gamma_constraint: null
      gamma_initializer:
        class_name: Ones
        config: {}
      gamma_regularizer: null
      momentum: 0.9997
      moving_mean_initializer:
        class_name: Zeros
        config: {}
      moving_variance_initializer:
        class_name: Ones
        config: {}
      name: separable_conv_1_bn_reduction_left4_stem_2
      scale: true
      trainable: true
    inbound_nodes:
    - - - separable_conv_1_reduction_left4_stem_2
        - 0
        - 0
        - {}
    name: separable_conv_1_bn_reduction_left4_stem_2
  - class_name: SeparableConv2D
    config:
      activation: linear
      activity_regularizer: null
      bias_constraint: null
      bias_initializer:
        class_name: Zeros
        config: {}
      bias_regularizer: null
      data_format: channels_last
      depth_multiplier: 1
      depthwise_constraint: null
      depthwise_initializer:
        class_name: VarianceScaling
        config: {distribution: uniform, mode: fan_avg, scale: 1.0, seed: null}
      depthwise_regularizer: null
      dilation_rate: *id002
      filters: 22
      kernel_size: *id007
      name: separable_conv_2_reduction_right2_stem_2
      padding: same
      pointwise_constraint: null
      pointwise_initializer:
        class_name: VarianceScaling
        config: {distribution: uniform, mode: fan_avg, scale: 1.0, seed: null}
      pointwise_regularizer: null
      strides: *id005
      trainable: true
      use_bias: false
    inbound_nodes:
    - - - activation_1059
        - 0
        - 0
        - {}
    name: separable_conv_2_reduction_right2_stem_2
  - class_name: Activation
    config: {activation: relu, name: activation_1061, trainable: true}
    inbound_nodes:
    - - - separable_conv_1_bn_reduction_right3_stem_2
        - 0
        - 0
        - {}
    name: activation_1061
  - class_name: Activation
    config: {activation: relu, name: activation_1063, trainable: true}
    inbound_nodes:
    - - - separable_conv_1_bn_reduction_left4_stem_2
        - 0
        - 0
        - {}
    name: activation_1063
  - class_name: MaxPooling2D
    config:
      data_format: channels_last
      name: reduction_left2_stem_2
      padding: same
      pool_size: *id025
      strides: *id026
      trainable: true
    inbound_nodes:
    - - - reduction_bn_1_stem_2
        - 0
        - 0
        - {}
    name: reduction_left2_stem_2
  - class_name: BatchNormalization
    config:
      axis: -1
      beta_constraint: null
      beta_initializer:
        class_name: Zeros
        config: {}
      beta_regularizer: null
      center: true
      epsilon: 0.001
      gamma_constraint: null
      gamma_initializer:
        class_name: Ones
        config: {}
      gamma_regularizer: null
      momentum: 0.9997
      moving_mean_initializer:
        class_name: Zeros
        config: {}
      moving_variance_initializer:
        class_name: Ones
        config: {}
      name: separable_conv_2_bn_reduction_right2_stem_2
      scale: true
      trainable: true
    inbound_nodes:
    - - - separable_conv_2_reduction_right2_stem_2
        - 0
        - 0
        - {}
    name: separable_conv_2_bn_reduction_right2_stem_2
  - class_name: SeparableConv2D
    config:
      activation: linear
      activity_regularizer: null
      bias_constraint: null
      bias_initializer:
        class_name: Zeros
        config: {}
      bias_regularizer: null
      data_format: channels_last
      depth_multiplier: 1
      depthwise_constraint: null
      depthwise_initializer:
        class_name: VarianceScaling
        config: {distribution: uniform, mode: fan_avg, scale: 1.0, seed: null}
      depthwise_regularizer: null
      dilation_rate: *id002
      filters: 22
      kernel_size: *id008
      name: separable_conv_2_reduction_right3_stem_2
      padding: same
      pointwise_constraint: null
      pointwise_initializer:
        class_name: VarianceScaling
        config: {distribution: uniform, mode: fan_avg, scale: 1.0, seed: null}
      pointwise_regularizer: null
      strides: *id005
      trainable: true
      use_bias: false
    inbound_nodes:
    - - - activation_1061
        - 0
        - 0
        - {}
    name: separable_conv_2_reduction_right3_stem_2
  - class_name: SeparableConv2D
    config:
      activation: linear
      activity_regularizer: null
      bias_constraint: null
      bias_initializer:
        class_name: Zeros
        config: {}
      bias_regularizer: null
      data_format: channels_last
      depth_multiplier: 1
      depthwise_constraint: null
      depthwise_initializer:
        class_name: VarianceScaling
        config: {distribution: uniform, mode: fan_avg, scale: 1.0, seed: null}
      depthwise_regularizer: null
      dilation_rate: *id002
      filters: 22
      kernel_size: *id009
      name: separable_conv_2_reduction_left4_stem_2
      padding: same
      pointwise_constraint: null
      pointwise_initializer:
        class_name: VarianceScaling
        config: {distribution: uniform, mode: fan_avg, scale: 1.0, seed: null}
      pointwise_regularizer: null
      strides: *id005
      trainable: true
      use_bias: false
    inbound_nodes:
    - - - activation_1063
        - 0
        - 0
        - {}
    name: separable_conv_2_reduction_left4_stem_2
  - class_name: Activation
    config: {activation: relu, name: adjust_relu_1_0, trainable: true}
    inbound_nodes:
    - - - reduction_concat_stem_1
        - 0
        - 0
        - {}
    name: adjust_relu_1_0
  - class_name: Add
    config: {name: reduction_add_2_stem_2, trainable: true}
    inbound_nodes:
    - - - reduction_left2_stem_2
        - 0
        - 0
        - &id027 {}
      - - separable_conv_2_bn_reduction_right2_stem_2
        - 0
        - 0
        - *id027
    name: reduction_add_2_stem_2
  - class_name: AveragePooling2D
    config:
      data_format: channels_last
      name: reduction_left3_stem_2
      padding: same
      pool_size: *id028
      strides: *id029
      trainable: true
    inbound_nodes:
    - - - reduction_bn_1_stem_2
        - 0
        - 0
        - {}
    name: reduction_left3_stem_2
  - class_name: BatchNormalization
    config:
      axis: -1
      beta_constraint: null
      beta_initializer:
        class_name: Zeros
        config: {}
      beta_regularizer: null
      center: true
      epsilon: 0.001
      gamma_constraint: null
      gamma_initializer:
        class_name: Ones
        config: {}
      gamma_regularizer: null
      momentum: 0.9997
      moving_mean_initializer:
        class_name: Zeros
        config: {}
      moving_variance_initializer:
        class_name: Ones
        config: {}
      name: separable_conv_2_bn_reduction_right3_stem_2
      scale: true
      trainable: true
    inbound_nodes:
    - - - separable_conv_2_reduction_right3_stem_2
        - 0
        - 0
        - {}
    name: separable_conv_2_bn_reduction_right3_stem_2
  - class_name: AveragePooling2D
    config:
      data_format: channels_last
      name: reduction_left4_stem_2
      padding: same
      pool_size: *id030
      strides: *id031
      trainable: true
    inbound_nodes:
    - - - reduction_add_1_stem_2
        - 0
        - 0
        - {}
    name: reduction_left4_stem_2
  - class_name: BatchNormalization
    config:
      axis: -1
      beta_constraint: null
      beta_initializer:
        class_name: Zeros
        config: {}
      beta_regularizer: null
      center: true
      epsilon: 0.001
      gamma_constraint: null
      gamma_initializer:
        class_name: Ones
        config: {}
      gamma_regularizer: null
      momentum: 0.9997
      moving_mean_initializer:
        class_name: Zeros
        config: {}
      moving_variance_initializer:
        class_name: Ones
        config: {}
      name: separable_conv_2_bn_reduction_left4_stem_2
      scale: true
      trainable: true
    inbound_nodes:
    - - - separable_conv_2_reduction_left4_stem_2
        - 0
        - 0
        - {}
    name: separable_conv_2_bn_reduction_left4_stem_2
  - class_name: MaxPooling2D
    config:
      data_format: channels_last
      name: reduction_right5_stem_2
      padding: same
      pool_size: *id032
      strides: *id033
      trainable: true
    inbound_nodes:
    - - - reduction_bn_1_stem_2
        - 0
        - 0
        - {}
    name: reduction_right5_stem_2
  - class_name: ZeroPadding2D
    config:
      data_format: channels_last
      name: zero_padding2d_21
      padding: !!python/tuple
      - *id034
      - *id035
      trainable: true
    inbound_nodes:
    - - - adjust_relu_1_0
        - 0
        - 0
        - {}
    name: zero_padding2d_21
  - class_name: Add
    config: {name: reduction_add3_stem_2, trainable: true}
    inbound_nodes:
    - - - reduction_left3_stem_2
        - 0
        - 0
        - &id036 {}
      - - separable_conv_2_bn_reduction_right3_stem_2
        - 0
        - 0
        - *id036
    name: reduction_add3_stem_2
  - class_name: Add
    config: {name: add_10, trainable: true}
    inbound_nodes:
    - - - reduction_add_2_stem_2
        - 0
        - 0
        - &id037 {}
      - - reduction_left4_stem_2
        - 0
        - 0
        - *id037
    name: add_10
  - class_name: Add
    config: {name: reduction_add4_stem_2, trainable: true}
    inbound_nodes:
    - - - separable_conv_2_bn_reduction_left4_stem_2
        - 0
        - 0
        - &id038 {}
      - - reduction_right5_stem_2
        - 0
        - 0
        - *id038
    name: reduction_add4_stem_2
  - class_name: Cropping2D
    config:
      cropping: !!python/tuple
      - *id039
      - *id040
      data_format: channels_last
      name: cropping2d_9
      trainable: true
    inbound_nodes:
    - - - zero_padding2d_21
        - 0
        - 0
        - {}
    name: cropping2d_9
  - class_name: Concatenate
    config: {axis: -1, name: reduction_concat_stem_2, trainable: true}
    inbound_nodes:
    - - - reduction_add_2_stem_2
        - 0
        - 0
        - &id041 {}
      - - reduction_add3_stem_2
        - 0
        - 0
        - *id041
      - - add_10
        - 0
        - 0
        - *id041
      - - reduction_add4_stem_2
        - 0
        - 0
        - *id041
    name: reduction_concat_stem_2
  - class_name: AveragePooling2D
    config:
      data_format: channels_last
      name: adjust_avg_pool_1_0
      padding: valid
      pool_size: *id042
      strides: *id043
      trainable: true
    inbound_nodes:
    - - - adjust_relu_1_0
        - 0
        - 0
        - {}
    name: adjust_avg_pool_1_0
  - class_name: AveragePooling2D
    config:
      data_format: channels_last
      name: adjust_avg_pool_2_0
      padding: valid
      pool_size: *id044
      strides: *id045
      trainable: true
    inbound_nodes:
    - - - cropping2d_9
        - 0
        - 0
        - {}
    name: adjust_avg_pool_2_0
  - class_name: Conv2D
    config:
      activation: linear
      activity_regularizer: null
      bias_constraint: null
      bias_initializer:
        class_name: Zeros
        config: {}
      bias_regularizer: null
      data_format: channels_last
      dilation_rate: *id001
      filters: 22
      kernel_constraint: null
      kernel_initializer:
        class_name: VarianceScaling
        config: {distribution: normal, mode: fan_in, scale: 2.0, seed: null}
      kernel_regularizer: null
      kernel_size: *id046
      name: adjust_conv_1_0
      padding: same
      strides: *id015
      trainable: true
      use_bias: false
    inbound_nodes:
    - - - adjust_avg_pool_1_0
        - 0
        - 0
        - {}
    name: adjust_conv_1_0
  - class_name: Conv2D
    config:
      activation: linear
      activity_regularizer: null
      bias_constraint: null
      bias_initializer:
        class_name: Zeros
        config: {}
      bias_regularizer: null
      data_format: channels_last
      dilation_rate: *id001
      filters: 22
      kernel_constraint: null
      kernel_initializer:
        class_name: VarianceScaling
        config: {distribution: normal, mode: fan_in, scale: 2.0, seed: null}
      kernel_regularizer: null
      kernel_size: *id047
      name: adjust_conv_2_0
      padding: same
      strides: *id015
      trainable: true
      use_bias: false
    inbound_nodes:
    - - - adjust_avg_pool_2_0
        - 0
        - 0
        - {}
    name: adjust_conv_2_0
  - class_name: Activation
    config: {activation: relu, name: activation_1064, trainable: true}
    inbound_nodes:
    - - - reduction_concat_stem_2
        - 0
        - 0
        - {}
    name: activation_1064
  - class_name: Concatenate
    config: {axis: -1, name: concatenate_13, trainable: true}
    inbound_nodes:
    - - - adjust_conv_1_0
        - 0
        - 0
        - &id048 {}
      - - adjust_conv_2_0
        - 0
        - 0
        - *id048
    name: concatenate_13
  - class_name: Conv2D
    config:
      activation: linear
      activity_regularizer: null
      bias_constraint: null
      bias_initializer:
        class_name: Zeros
        config: {}
      bias_regularizer: null
      data_format: channels_last
      dilation_rate: *id001
      filters: 44
      kernel_constraint: null
      kernel_initializer:
        class_name: VarianceScaling
        config: {distribution: normal, mode: fan_in, scale: 2.0, seed: null}
      kernel_regularizer: null
      kernel_size: &id059 !!python/tuple [1, 1]
      name: normal_conv_1_0
      padding: same
      strides: &id060 !!python/tuple [1, 1]
      trainable: true
      use_bias: false
    inbound_nodes:
    - - - activation_1064
        - 0
        - 0
        - {}
    name: normal_conv_1_0
  - class_name: BatchNormalization
    config:
      axis: -1
      beta_constraint: null
      beta_initializer:
        class_name: Zeros
        config: {}
      beta_regularizer: null
      center: true
      epsilon: 0.001
      gamma_constraint: null
      gamma_initializer:
        class_name: Ones
        config: {}
      gamma_regularizer: null
      momentum: 0.9997
      moving_mean_initializer:
        class_name: Zeros
        config: {}
      moving_variance_initializer:
        class_name: Ones
        config: {}
      name: adjust_bn_0
      scale: true
      trainable: true
    inbound_nodes:
    - - - concatenate_13
        - 0
        - 0
        - {}
    name: adjust_bn_0
  - class_name: BatchNormalization
    config:
      axis: -1
      beta_constraint: null
      beta_initializer:
        class_name: Zeros
        config: {}
      beta_regularizer: null
      center: true
      epsilon: 0.001
      gamma_constraint: null
      gamma_initializer:
        class_name: Ones
        config: {}
      gamma_regularizer: null
      momentum: 0.9997
      moving_mean_initializer:
        class_name: Zeros
        config: {}
      moving_variance_initializer:
        class_name: Ones
        config: {}
      name: normal_bn_1_0
      scale: true
      trainable: true
    inbound_nodes:
    - - - normal_conv_1_0
        - 0
        - 0
        - {}
    name: normal_bn_1_0
  - class_name: Activation
    config: {activation: relu, name: activation_1065, trainable: true}
    inbound_nodes:
    - - - normal_bn_1_0
        - 0
        - 0
        - {}
    name: activation_1065
  - class_name: Activation
    config: {activation: relu, name: activation_1067, trainable: true}
    inbound_nodes:
    - - - adjust_bn_0
        - 0
        - 0
        - {}
    name: activation_1067
  - class_name: Activation
    config: {activation: relu, name: activation_1069, trainable: true}
    inbound_nodes:
    - - - adjust_bn_0
        - 0
        - 0
        - {}
    name: activation_1069
  - class_name: Activation
    config: {activation: relu, name: activation_1071, trainable: true}
    inbound_nodes:
    - - - adjust_bn_0
        - 0
        - 0
        - {}
    name: activation_1071
  - class_name: Activation
    config: {activation: relu, name: activation_1073, trainable: true}
    inbound_nodes:
    - - - normal_bn_1_0
        - 0
        - 0
        - {}
    name: activation_1073
  - class_name: SeparableConv2D
    config:
      activation: linear
      activity_regularizer: null
      bias_constraint: null
      bias_initializer:
        class_name: Zeros
        config: {}
      bias_regularizer: null
      data_format: channels_last
      depth_multiplier: 1
      depthwise_constraint: null
      depthwise_initializer:
        class_name: VarianceScaling
        config: {distribution: uniform, mode: fan_avg, scale: 1.0, seed: null}
      depthwise_regularizer: null
      dilation_rate: *id002
      filters: 44
      kernel_size: &id050 !!python/tuple [5, 5]
      name: separable_conv_1_normal_left1_0
      padding: same
      pointwise_constraint: null
      pointwise_initializer:
        class_name: VarianceScaling
        config: {distribution: uniform, mode: fan_avg, scale: 1.0, seed: null}
      pointwise_regularizer: null
      strides: *id024
      trainable: true
      use_bias: false
    inbound_nodes:
    - - - activation_1065
        - 0
        - 0
        - {}
    name: separable_conv_1_normal_left1_0
  - class_name: SeparableConv2D
    config:
      activation: linear
      activity_regularizer: null
      bias_constraint: null
      bias_initializer:
        class_name: Zeros
        config: {}
      bias_regularizer: null
      data_format: channels_last
      depth_multiplier: 1
      depthwise_constraint: null
      depthwise_initializer:
        class_name: VarianceScaling
        config: {distribution: uniform, mode: fan_avg, scale: 1.0, seed: null}
      depthwise_regularizer: null
      dilation_rate: *id002
      filters: 44
      kernel_size: &id049 !!python/tuple [3, 3]
      name: separable_conv_1_normal_right1_0
      padding: same
      pointwise_constraint: null
      pointwise_initializer:
        class_name: VarianceScaling
        config: {distribution: uniform, mode: fan_avg, scale: 1.0, seed: null}
      pointwise_regularizer: null
      strides: *id024
      trainable: true
      use_bias: false
    inbound_nodes:
    - - - activation_1067
        - 0
        - 0
        - {}
    name: separable_conv_1_normal_right1_0
  - class_name: SeparableConv2D
    config:
      activation: linear
      activity_regularizer: null
      bias_constraint: null
      bias_initializer:
        class_name: Zeros
        config: {}
      bias_regularizer: null
      data_format: channels_last
      depth_multiplier: 1
      depthwise_constraint: null
      depthwise_initializer:
        class_name: VarianceScaling
        config: {distribution: uniform, mode: fan_avg, scale: 1.0, seed: null}
      depthwise_regularizer: null
      dilation_rate: *id002
      filters: 44
      kernel_size: &id051 !!python/tuple [5, 5]
      name: separable_conv_1_normal_left2_0
      padding: same
      pointwise_constraint: null
      pointwise_initializer:
        class_name: VarianceScaling
        config: {distribution: uniform, mode: fan_avg, scale: 1.0, seed: null}
      pointwise_regularizer: null
      strides: *id024
      trainable: true
      use_bias: false
    inbound_nodes:
    - - - activation_1069
        - 0
        - 0
        - {}
    name: separable_conv_1_normal_left2_0
  - class_name: SeparableConv2D
    config:
      activation: linear
      activity_regularizer: null
      bias_constraint: null
      bias_initializer:
        class_name: Zeros
        config: {}
      bias_regularizer: null
      data_format: channels_last
      depth_multiplier: 1
      depthwise_constraint: null
      depthwise_initializer:
        class_name: VarianceScaling
        config: {distribution: uniform, mode: fan_avg, scale: 1.0, seed: null}
      depthwise_regularizer: null
      dilation_rate: *id002
      filters: 44
      kernel_size: &id052 !!python/tuple [3, 3]
      name: separable_conv_1_normal_right2_0
      padding: same
      pointwise_constraint: null
      pointwise_initializer:
        class_name: VarianceScaling
        config: {distribution: uniform, mode: fan_avg, scale: 1.0, seed: null}
      pointwise_regularizer: null
      strides: *id024
      trainable: true
      use_bias: false
    inbound_nodes:
    - - - activation_1071
        - 0
        - 0
        - {}
    name: separable_conv_1_normal_right2_0
  - class_name: SeparableConv2D
    config:
      activation: linear
      activity_regularizer: null
      bias_constraint: null
      bias_initializer:
        class_name: Zeros
        config: {}
      bias_regularizer: null
      data_format: channels_last
      depth_multiplier: 1
      depthwise_constraint: null
      depthwise_initializer:
        class_name: VarianceScaling
        config: {distribution: uniform, mode: fan_avg, scale: 1.0, seed: null}
      depthwise_regularizer: null
      dilation_rate: *id002
      filters: 44
      kernel_size: *id049
      name: separable_conv_1_normal_left5_0
      padding: same
      pointwise_constraint: null
      pointwise_initializer:
        class_name: VarianceScaling
        config: {distribution: uniform, mode: fan_avg, scale: 1.0, seed: null}
      pointwise_regularizer: null
      strides: *id024
      trainable: true
      use_bias: false
    inbound_nodes:
    - - - activation_1073
        - 0
        - 0
        - {}
    name: separable_conv_1_normal_left5_0
  - class_name: BatchNormalization
    config:
      axis: -1
      beta_constraint: null
      beta_initializer:
        class_name: Zeros
        config: {}
      beta_regularizer: null
      center: true
      epsilon: 0.001
      gamma_constraint: null
      gamma_initializer:
        class_name: Ones
        config: {}
      gamma_regularizer: null
      momentum: 0.9997
      moving_mean_initializer:
        class_name: Zeros
        config: {}
      moving_variance_initializer:
        class_name: Ones
        config: {}
      name: separable_conv_1_bn_normal_left1_0
      scale: true
      trainable: true
    inbound_nodes:
    - - - separable_conv_1_normal_left1_0
        - 0
        - 0
        - {}
    name: separable_conv_1_bn_normal_left1_0
  - class_name: BatchNormalization
    config:
      axis: -1
      beta_constraint: null
      beta_initializer:
        class_name: Zeros
        config: {}
      beta_regularizer: null
      center: true
      epsilon: 0.001
      gamma_constraint: null
      gamma_initializer:
        class_name: Ones
        config: {}
      gamma_regularizer: null
      momentum: 0.9997
      moving_mean_initializer:
        class_name: Zeros
        config: {}
      moving_variance_initializer:
        class_name: Ones
        config: {}
      name: separable_conv_1_bn_normal_right1_0
      scale: true
      trainable: true
    inbound_nodes:
    - - - separable_conv_1_normal_right1_0
        - 0
        - 0
        - {}
    name: separable_conv_1_bn_normal_right1_0
  - class_name: BatchNormalization
    config:
      axis: -1
      beta_constraint: null
      beta_initializer:
        class_name: Zeros
        config: {}
      beta_regularizer: null
      center: true
      epsilon: 0.001
      gamma_constraint: null
      gamma_initializer:
        class_name: Ones
        config: {}
      gamma_regularizer: null
      momentum: 0.9997
      moving_mean_initializer:
        class_name: Zeros
        config: {}
      moving_variance_initializer:
        class_name: Ones
        config: {}
      name: separable_conv_1_bn_normal_left2_0
      scale: true
      trainable: true
    inbound_nodes:
    - - - separable_conv_1_normal_left2_0
        - 0
        - 0
        - {}
    name: separable_conv_1_bn_normal_left2_0
  - class_name: BatchNormalization
    config:
      axis: -1
      beta_constraint: null
      beta_initializer:
        class_name: Zeros
        config: {}
      beta_regularizer: null
      center: true
      epsilon: 0.001
      gamma_constraint: null
      gamma_initializer:
        class_name: Ones
        config: {}
      gamma_regularizer: null
      momentum: 0.9997
      moving_mean_initializer:
        class_name: Zeros
        config: {}
      moving_variance_initializer:
        class_name: Ones
        config: {}
      name: separable_conv_1_bn_normal_right2_0
      scale: true
      trainable: true
    inbound_nodes:
    - - - separable_conv_1_normal_right2_0
        - 0
        - 0
        - {}
    name: separable_conv_1_bn_normal_right2_0
  - class_name: BatchNormalization
    config:
      axis: -1
      beta_constraint: null
      beta_initializer:
        class_name: Zeros
        config: {}
      beta_regularizer: null
      center: true
      epsilon: 0.001
      gamma_constraint: null
      gamma_initializer:
        class_name: Ones
        config: {}
      gamma_regularizer: null
      momentum: 0.9997
      moving_mean_initializer:
        class_name: Zeros
        config: {}
      moving_variance_initializer:
        class_name: Ones
        config: {}
      name: separable_conv_1_bn_normal_left5_0
      scale: true
      trainable: true
    inbound_nodes:
    - - - separable_conv_1_normal_left5_0
        - 0
        - 0
        - {}
    name: separable_conv_1_bn_normal_left5_0
  - class_name: Activation
    config: {activation: relu, name: activation_1066, trainable: true}
    inbound_nodes:
    - - - separable_conv_1_bn_normal_left1_0
        - 0
        - 0
        - {}
    name: activation_1066
  - class_name: Activation
    config: {activation: relu, name: activation_1068, trainable: true}
    inbound_nodes:
    - - - separable_conv_1_bn_normal_right1_0
        - 0
        - 0
        - {}
    name: activation_1068
  - class_name: Activation
    config: {activation: relu, name: activation_1070, trainable: true}
    inbound_nodes:
    - - - separable_conv_1_bn_normal_left2_0
        - 0
        - 0
        - {}
    name: activation_1070
  - class_name: Activation
    config: {activation: relu, name: activation_1072, trainable: true}
    inbound_nodes:
    - - - separable_conv_1_bn_normal_right2_0
        - 0
        - 0
        - {}
    name: activation_1072
  - class_name: Activation
    config: {activation: relu, name: activation_1074, trainable: true}
    inbound_nodes:
    - - - separable_conv_1_bn_normal_left5_0
        - 0
        - 0
        - {}
    name: activation_1074
  - class_name: SeparableConv2D
    config:
      activation: linear
      activity_regularizer: null
      bias_constraint: null
      bias_initializer:
        class_name: Zeros
        config: {}
      bias_regularizer: null
      data_format: channels_last
      depth_multiplier: 1
      depthwise_constraint: null
      depthwise_initializer:
        class_name: VarianceScaling
        config: {distribution: uniform, mode: fan_avg, scale: 1.0, seed: null}
      depthwise_regularizer: null
      dilation_rate: *id002
      filters: 44
      kernel_size: *id050
      name: separable_conv_2_normal_left1_0
      padding: same
      pointwise_constraint: null
      pointwise_initializer:
        class_name: VarianceScaling
        config: {distribution: uniform, mode: fan_avg, scale: 1.0, seed: null}
      pointwise_regularizer: null
      strides: *id005
      trainable: true
      use_bias: false
    inbound_nodes:
    - - - activation_1066
        - 0
        - 0
        - {}
    name: separable_conv_2_normal_left1_0
  - class_name: SeparableConv2D
    config:
      activation: linear
      activity_regularizer: null
      bias_constraint: null
      bias_initializer:
        class_name: Zeros
        config: {}
      bias_regularizer: null
      data_format: channels_last
      depth_multiplier: 1
      depthwise_constraint: null
      depthwise_initializer:
        class_name: VarianceScaling
        config: {distribution: uniform, mode: fan_avg, scale: 1.0, seed: null}
      depthwise_regularizer: null
      dilation_rate: *id002
      filters: 44
      kernel_size: *id049
      name: separable_conv_2_normal_right1_0
      padding: same
      pointwise_constraint: null
      pointwise_initializer:
        class_name: VarianceScaling
        config: {distribution: uniform, mode: fan_avg, scale: 1.0, seed: null}
      pointwise_regularizer: null
      strides: *id005
      trainable: true
      use_bias: false
    inbound_nodes:
    - - - activation_1068
        - 0
        - 0
        - {}
    name: separable_conv_2_normal_right1_0
  - class_name: SeparableConv2D
    config:
      activation: linear
      activity_regularizer: null
      bias_constraint: null
      bias_initializer:
        class_name: Zeros
        config: {}
      bias_regularizer: null
      data_format: channels_last
      depth_multiplier: 1
      depthwise_constraint: null
      depthwise_initializer:
        class_name: VarianceScaling
        config: {distribution: uniform, mode: fan_avg, scale: 1.0, seed: null}
      depthwise_regularizer: null
      dilation_rate: *id002
      filters: 44
      kernel_size: *id051
      name: separable_conv_2_normal_left2_0
      padding: same
      pointwise_constraint: null
      pointwise_initializer:
        class_name: VarianceScaling
        config: {distribution: uniform, mode: fan_avg, scale: 1.0, seed: null}
      pointwise_regularizer: null
      strides: *id005
      trainable: true
      use_bias: false
    inbound_nodes:
    - - - activation_1070
        - 0
        - 0
        - {}
    name: separable_conv_2_normal_left2_0
  - class_name: SeparableConv2D
    config:
      activation: linear
      activity_regularizer: null
      bias_constraint: null
      bias_initializer:
        class_name: Zeros
        config: {}
      bias_regularizer: null
      data_format: channels_last
      depth_multiplier: 1
      depthwise_constraint: null
      depthwise_initializer:
        class_name: VarianceScaling
        config: {distribution: uniform, mode: fan_avg, scale: 1.0, seed: null}
      depthwise_regularizer: null
      dilation_rate: *id002
      filters: 44
      kernel_size: *id052
      name: separable_conv_2_normal_right2_0
      padding: same
      pointwise_constraint: null
      pointwise_initializer:
        class_name: VarianceScaling
        config: {distribution: uniform, mode: fan_avg, scale: 1.0, seed: null}
      pointwise_regularizer: null
      strides: *id005
      trainable: true
      use_bias: false
    inbound_nodes:
    - - - activation_1072
        - 0
        - 0
        - {}
    name: separable_conv_2_normal_right2_0
  - class_name: SeparableConv2D
    config:
      activation: linear
      activity_regularizer: null
      bias_constraint: null
      bias_initializer:
        class_name: Zeros
        config: {}
      bias_regularizer: null
      data_format: channels_last
      depth_multiplier: 1
      depthwise_constraint: null
      depthwise_initializer:
        class_name: VarianceScaling
        config: {distribution: uniform, mode: fan_avg, scale: 1.0, seed: null}
      depthwise_regularizer: null
      dilation_rate: *id002
      filters: 44
      kernel_size: *id049
      name: separable_conv_2_normal_left5_0
      padding: same
      pointwise_constraint: null
      pointwise_initializer:
        class_name: VarianceScaling
        config: {distribution: uniform, mode: fan_avg, scale: 1.0, seed: null}
      pointwise_regularizer: null
      strides: *id005
      trainable: true
      use_bias: false
    inbound_nodes:
    - - - activation_1074
        - 0
        - 0
        - {}
    name: separable_conv_2_normal_left5_0
  - class_name: BatchNormalization
    config:
      axis: -1
      beta_constraint: null
      beta_initializer:
        class_name: Zeros
        config: {}
      beta_regularizer: null
      center: true
      epsilon: 0.001
      gamma_constraint: null
      gamma_initializer:
        class_name: Ones
        config: {}
      gamma_regularizer: null
      momentum: 0.9997
      moving_mean_initializer:
        class_name: Zeros
        config: {}
      moving_variance_initializer:
        class_name: Ones
        config: {}
      name: separable_conv_2_bn_normal_left1_0
      scale: true
      trainable: true
    inbound_nodes:
    - - - separable_conv_2_normal_left1_0
        - 0
        - 0
        - {}
    name: separable_conv_2_bn_normal_left1_0
  - class_name: BatchNormalization
    config:
      axis: -1
      beta_constraint: null
      beta_initializer:
        class_name: Zeros
        config: {}
      beta_regularizer: null
      center: true
      epsilon: 0.001
      gamma_constraint: null
      gamma_initializer:
        class_name: Ones
        config: {}
      gamma_regularizer: null
      momentum: 0.9997
      moving_mean_initializer:
        class_name: Zeros
        config: {}
      moving_variance_initializer:
        class_name: Ones
        config: {}
      name: separable_conv_2_bn_normal_right1_0
      scale: true
      trainable: true
    inbound_nodes:
    - - - separable_conv_2_normal_right1_0
        - 0
        - 0
        - {}
    name: separable_conv_2_bn_normal_right1_0
  - class_name: BatchNormalization
    config:
      axis: -1
      beta_constraint: null
      beta_initializer:
        class_name: Zeros
        config: {}
      beta_regularizer: null
      center: true
      epsilon: 0.001
      gamma_constraint: null
      gamma_initializer:
        class_name: Ones
        config: {}
      gamma_regularizer: null
      momentum: 0.9997
      moving_mean_initializer:
        class_name: Zeros
        config: {}
      moving_variance_initializer:
        class_name: Ones
        config: {}
      name: separable_conv_2_bn_normal_left2_0
      scale: true
      trainable: true
    inbound_nodes:
    - - - separable_conv_2_normal_left2_0
        - 0
        - 0
        - {}
    name: separable_conv_2_bn_normal_left2_0
  - class_name: BatchNormalization
    config:
      axis: -1
      beta_constraint: null
      beta_initializer:
        class_name: Zeros
        config: {}
      beta_regularizer: null
      center: true
      epsilon: 0.001
      gamma_constraint: null
      gamma_initializer:
        class_name: Ones
        config: {}
      gamma_regularizer: null
      momentum: 0.9997
      moving_mean_initializer:
        class_name: Zeros
        config: {}
      moving_variance_initializer:
        class_name: Ones
        config: {}
      name: separable_conv_2_bn_normal_right2_0
      scale: true
      trainable: true
    inbound_nodes:
    - - - separable_conv_2_normal_right2_0
        - 0
        - 0
        - {}
    name: separable_conv_2_bn_normal_right2_0
  - class_name: AveragePooling2D
    config:
      data_format: channels_last
      name: normal_left3_0
      padding: same
      pool_size: &id061 !!python/tuple [3, 3]
      strides: &id062 !!python/tuple [1, 1]
      trainable: true
    inbound_nodes:
    - - - normal_bn_1_0
        - 0
        - 0
        - {}
    name: normal_left3_0
  - class_name: AveragePooling2D
    config:
      data_format: channels_last
      name: normal_left4_0
      padding: same
      pool_size: &id063 !!python/tuple [3, 3]
      strides: &id064 !!python/tuple [1, 1]
      trainable: true
    inbound_nodes:
    - - - adjust_bn_0
        - 0
        - 0
        - {}
    name: normal_left4_0
  - class_name: AveragePooling2D
    config:
      data_format: channels_last
      name: normal_right4_0
      padding: same
      pool_size: &id065 !!python/tuple [3, 3]
      strides: &id066 !!python/tuple [1, 1]
      trainable: true
    inbound_nodes:
    - - - adjust_bn_0
        - 0
        - 0
        - {}
    name: normal_right4_0
  - class_name: BatchNormalization
    config:
      axis: -1
      beta_constraint: null
      beta_initializer:
        class_name: Zeros
        config: {}
      beta_regularizer: null
      center: true
      epsilon: 0.001
      gamma_constraint: null
      gamma_initializer:
        class_name: Ones
        config: {}
      gamma_regularizer: null
      momentum: 0.9997
      moving_mean_initializer:
        class_name: Zeros
        config: {}
      moving_variance_initializer:
        class_name: Ones
        config: {}
      name: separable_conv_2_bn_normal_left5_0
      scale: true
      trainable: true
    inbound_nodes:
    - - - separable_conv_2_normal_left5_0
        - 0
        - 0
        - {}
    name: separable_conv_2_bn_normal_left5_0
  - class_name: Add
    config: {name: normal_add_1_0, trainable: true}
    inbound_nodes:
    - - - separable_conv_2_bn_normal_left1_0
        - 0
        - 0
        - &id053 {}
      - - separable_conv_2_bn_normal_right1_0
        - 0
        - 0
        - *id053
    name: normal_add_1_0
  - class_name: Add
    config: {name: normal_add_2_0, trainable: true}
    inbound_nodes:
    - - - separable_conv_2_bn_normal_left2_0
        - 0
        - 0
        - &id054 {}
      - - separable_conv_2_bn_normal_right2_0
        - 0
        - 0
        - *id054
    name: normal_add_2_0
  - class_name: Add
    config: {name: normal_add_3_0, trainable: true}
    inbound_nodes:
    - - - normal_left3_0
        - 0
        - 0
        - &id055 {}
      - - adjust_bn_0
        - 0
        - 0
        - *id055
    name: normal_add_3_0
  - class_name: Add
    config: {name: normal_add_4_0, trainable: true}
    inbound_nodes:
    - - - normal_left4_0
        - 0
        - 0
        - &id056 {}
      - - normal_right4_0
        - 0
        - 0
        - *id056
    name: normal_add_4_0
  - class_name: Add
    config: {name: normal_add_5_0, trainable: true}
    inbound_nodes:
    - - - separable_conv_2_bn_normal_left5_0
        - 0
        - 0
        - &id057 {}
      - - normal_bn_1_0
        - 0
        - 0
        - *id057
    name: normal_add_5_0
  - class_name: Concatenate
    config: {axis: -1, name: normal_concat_0, trainable: true}
    inbound_nodes:
    - - - adjust_bn_0
        - 0
        - 0
        - &id058 {}
      - - normal_add_1_0
        - 0
        - 0
        - *id058
      - - normal_add_2_0
        - 0
        - 0
        - *id058
      - - normal_add_3_0
        - 0
        - 0
        - *id058
      - - normal_add_4_0
        - 0
        - 0
        - *id058
      - - normal_add_5_0
        - 0
        - 0
        - *id058
    name: normal_concat_0
  - class_name: Activation
    config: {activation: relu, name: activation_1075, trainable: true}
    inbound_nodes:
    - - - reduction_concat_stem_2
        - 0
        - 0
        - {}
    name: activation_1075
  - class_name: Activation
    config: {activation: relu, name: activation_1076, trainable: true}
    inbound_nodes:
    - - - normal_concat_0
        - 0
        - 0
        - {}
    name: activation_1076
  - class_name: Conv2D
    config:
      activation: linear
      activity_regularizer: null
      bias_constraint: null
      bias_initializer:
        class_name: Zeros
        config: {}
      bias_regularizer: null
      data_format: channels_last
      dilation_rate: *id001
      filters: 44
      kernel_constraint: null
      kernel_initializer:
        class_name: VarianceScaling
        config: {distribution: normal, mode: fan_in, scale: 2.0, seed: null}
      kernel_regularizer: null
      kernel_size: &id073 !!python/tuple [1, 1]
      name: adjust_conv_projection_1
      padding: same
      strides: &id074 !!python/tuple [1, 1]
      trainable: true
      use_bias: false
    inbound_nodes:
    - - - activation_1075
        - 0
        - 0
        - {}
    name: adjust_conv_projection_1
  - class_name: Conv2D
    config:
      activation: linear
      activity_regularizer: null
      bias_constraint: null
      bias_initializer:
        class_name: Zeros
        config: {}
      bias_regularizer: null
      data_format: channels_last
      dilation_rate: *id001
      filters: 44
      kernel_constraint: null
      kernel_initializer:
        class_name: VarianceScaling
        config: {distribution: normal, mode: fan_in, scale: 2.0, seed: null}
      kernel_regularizer: null
      kernel_size: *id059
      name: normal_conv_1_1
      padding: same
      strides: *id060
      trainable: true
      use_bias: false
    inbound_nodes:
    - - - activation_1076
        - 0
        - 0
        - {}
    name: normal_conv_1_1
  - class_name: BatchNormalization
    config:
      axis: -1
      beta_constraint: null
      beta_initializer:
        class_name: Zeros
        config: {}
      beta_regularizer: null
      center: true
      epsilon: 0.001
      gamma_constraint: null
      gamma_initializer:
        class_name: Ones
        config: {}
      gamma_regularizer: null
      momentum: 0.9997
      moving_mean_initializer:
        class_name: Zeros
        config: {}
      moving_variance_initializer:
        class_name: Ones
        config: {}
      name: adjust_bn_1
      scale: true
      trainable: true
    inbound_nodes:
    - - - adjust_conv_projection_1
        - 0
        - 0
        - {}
    name: adjust_bn_1
  - class_name: BatchNormalization
    config:
      axis: -1
      beta_constraint: null
      beta_initializer:
        class_name: Zeros
        config: {}
      beta_regularizer: null
      center: true
      epsilon: 0.001
      gamma_constraint: null
      gamma_initializer:
        class_name: Ones
        config: {}
      gamma_regularizer: null
      momentum: 0.9997
      moving_mean_initializer:
        class_name: Zeros
        config: {}
      moving_variance_initializer:
        class_name: Ones
        config: {}
      name: normal_bn_1_1
      scale: true
      trainable: true
    inbound_nodes:
    - - - normal_conv_1_1
        - 0
        - 0
        - {}
    name: normal_bn_1_1
  - class_name: Activation
    config: {activation: relu, name: activation_1077, trainable: true}
    inbound_nodes:
    - - - normal_bn_1_1
        - 0
        - 0
        - {}
    name: activation_1077
  - class_name: Activation
    config: {activation: relu, name: activation_1079, trainable: true}
    inbound_nodes:
    - - - adjust_bn_1
        - 0
        - 0
        - {}
    name: activation_1079
  - class_name: Activation
    config: {activation: relu, name: activation_1081, trainable: true}
    inbound_nodes:
    - - - adjust_bn_1
        - 0
        - 0
        - {}
    name: activation_1081
  - class_name: Activation
    config: {activation: relu, name: activation_1083, trainable: true}
    inbound_nodes:
    - - - adjust_bn_1
        - 0
        - 0
        - {}
    name: activation_1083
  - class_name: Activation
    config: {activation: relu, name: activation_1085, trainable: true}
    inbound_nodes:
    - - - normal_bn_1_1
        - 0
        - 0
        - {}
    name: activation_1085
  - class_name: SeparableConv2D
    config:
      activation: linear
      activity_regularizer: null
      bias_constraint: null
      bias_initializer:
        class_name: Zeros
        config: {}
      bias_regularizer: null
      data_format: channels_last
      depth_multiplier: 1
      depthwise_constraint: null
      depthwise_initializer:
        class_name: VarianceScaling
        config: {distribution: uniform, mode: fan_avg, scale: 1.0, seed: null}
      depthwise_regularizer: null
      dilation_rate: *id002
      filters: 44
      kernel_size: *id050
      name: separable_conv_1_normal_left1_1
      padding: same
      pointwise_constraint: null
      pointwise_initializer:
        class_name: VarianceScaling
        config: {distribution: uniform, mode: fan_avg, scale: 1.0, seed: null}
      pointwise_regularizer: null
      strides: *id024
      trainable: true
      use_bias: false
    inbound_nodes:
    - - - activation_1077
        - 0
        - 0
        - {}
    name: separable_conv_1_normal_left1_1
  - class_name: SeparableConv2D
    config:
      activation: linear
      activity_regularizer: null
      bias_constraint: null
      bias_initializer:
        class_name: Zeros
        config: {}
      bias_regularizer: null
      data_format: channels_last
      depth_multiplier: 1
      depthwise_constraint: null
      depthwise_initializer:
        class_name: VarianceScaling
        config: {distribution: uniform, mode: fan_avg, scale: 1.0, seed: null}
      depthwise_regularizer: null
      dilation_rate: *id002
      filters: 44
      kernel_size: *id049
      name: separable_conv_1_normal_right1_1
      padding: same
      pointwise_constraint: null
      pointwise_initializer:
        class_name: VarianceScaling
        config: {distribution: uniform, mode: fan_avg, scale: 1.0, seed: null}
      pointwise_regularizer: null
      strides: *id024
      trainable: true
      use_bias: false
    inbound_nodes:
    - - - activation_1079
        - 0
        - 0
        - {}
    name: separable_conv_1_normal_right1_1
  - class_name: SeparableConv2D
    config:
      activation: linear
      activity_regularizer: null
      bias_constraint: null
      bias_initializer:
        class_name: Zeros
        config: {}
      bias_regularizer: null
      data_format: channels_last
      depth_multiplier: 1
      depthwise_constraint: null
      depthwise_initializer:
        class_name: VarianceScaling
        config: {distribution: uniform, mode: fan_avg, scale: 1.0, seed: null}
      depthwise_regularizer: null
      dilation_rate: *id002
      filters: 44
      kernel_size: *id051
      name: separable_conv_1_normal_left2_1
      padding: same
      pointwise_constraint: null
      pointwise_initializer:
        class_name: VarianceScaling
        config: {distribution: uniform, mode: fan_avg, scale: 1.0, seed: null}
      pointwise_regularizer: null
      strides: *id024
      trainable: true
      use_bias: false
    inbound_nodes:
    - - - activation_1081
        - 0
        - 0
        - {}
    name: separable_conv_1_normal_left2_1
  - class_name: SeparableConv2D
    config:
      activation: linear
      activity_regularizer: null
      bias_constraint: null
      bias_initializer:
        class_name: Zeros
        config: {}
      bias_regularizer: null
      data_format: channels_last
      depth_multiplier: 1
      depthwise_constraint: null
      depthwise_initializer:
        class_name: VarianceScaling
        config: {distribution: uniform, mode: fan_avg, scale: 1.0, seed: null}
      depthwise_regularizer: null
      dilation_rate: *id002
      filters: 44
      kernel_size: *id052
      name: separable_conv_1_normal_right2_1
      padding: same
      pointwise_constraint: null
      pointwise_initializer:
        class_name: VarianceScaling
        config: {distribution: uniform, mode: fan_avg, scale: 1.0, seed: null}
      pointwise_regularizer: null
      strides: *id024
      trainable: true
      use_bias: false
    inbound_nodes:
    - - - activation_1083
        - 0
        - 0
        - {}
    name: separable_conv_1_normal_right2_1
  - class_name: SeparableConv2D
    config:
      activation: linear
      activity_regularizer: null
      bias_constraint: null
      bias_initializer:
        class_name: Zeros
        config: {}
      bias_regularizer: null
      data_format: channels_last
      depth_multiplier: 1
      depthwise_constraint: null
      depthwise_initializer:
        class_name: VarianceScaling
        config: {distribution: uniform, mode: fan_avg, scale: 1.0, seed: null}
      depthwise_regularizer: null
      dilation_rate: *id002
      filters: 44
      kernel_size: *id049
      name: separable_conv_1_normal_left5_1
      padding: same
      pointwise_constraint: null
      pointwise_initializer:
        class_name: VarianceScaling
        config: {distribution: uniform, mode: fan_avg, scale: 1.0, seed: null}
      pointwise_regularizer: null
      strides: *id024
      trainable: true
      use_bias: false
    inbound_nodes:
    - - - activation_1085
        - 0
        - 0
        - {}
    name: separable_conv_1_normal_left5_1
  - class_name: BatchNormalization
    config:
      axis: -1
      beta_constraint: null
      beta_initializer:
        class_name: Zeros
        config: {}
      beta_regularizer: null
      center: true
      epsilon: 0.001
      gamma_constraint: null
      gamma_initializer:
        class_name: Ones
        config: {}
      gamma_regularizer: null
      momentum: 0.9997
      moving_mean_initializer:
        class_name: Zeros
        config: {}
      moving_variance_initializer:
        class_name: Ones
        config: {}
      name: separable_conv_1_bn_normal_left1_1
      scale: true
      trainable: true
    inbound_nodes:
    - - - separable_conv_1_normal_left1_1
        - 0
        - 0
        - {}
    name: separable_conv_1_bn_normal_left1_1
  - class_name: BatchNormalization
    config:
      axis: -1
      beta_constraint: null
      beta_initializer:
        class_name: Zeros
        config: {}
      beta_regularizer: null
      center: true
      epsilon: 0.001
      gamma_constraint: null
      gamma_initializer:
        class_name: Ones
        config: {}
      gamma_regularizer: null
      momentum: 0.9997
      moving_mean_initializer:
        class_name: Zeros
        config: {}
      moving_variance_initializer:
        class_name: Ones
        config: {}
      name: separable_conv_1_bn_normal_right1_1
      scale: true
      trainable: true
    inbound_nodes:
    - - - separable_conv_1_normal_right1_1
        - 0
        - 0
        - {}
    name: separable_conv_1_bn_normal_right1_1
  - class_name: BatchNormalization
    config:
      axis: -1
      beta_constraint: null
      beta_initializer:
        class_name: Zeros
        config: {}
      beta_regularizer: null
      center: true
      epsilon: 0.001
      gamma_constraint: null
      gamma_initializer:
        class_name: Ones
        config: {}
      gamma_regularizer: null
      momentum: 0.9997
      moving_mean_initializer:
        class_name: Zeros
        config: {}
      moving_variance_initializer:
        class_name: Ones
        config: {}
      name: separable_conv_1_bn_normal_left2_1
      scale: true
      trainable: true
    inbound_nodes:
    - - - separable_conv_1_normal_left2_1
        - 0
        - 0
        - {}
    name: separable_conv_1_bn_normal_left2_1
  - class_name: BatchNormalization
    config:
      axis: -1
      beta_constraint: null
      beta_initializer:
        class_name: Zeros
        config: {}
      beta_regularizer: null
      center: true
      epsilon: 0.001
      gamma_constraint: null
      gamma_initializer:
        class_name: Ones
        config: {}
      gamma_regularizer: null
      momentum: 0.9997
      moving_mean_initializer:
        class_name: Zeros
        config: {}
      moving_variance_initializer:
        class_name: Ones
        config: {}
      name: separable_conv_1_bn_normal_right2_1
      scale: true
      trainable: true
    inbound_nodes:
    - - - separable_conv_1_normal_right2_1
        - 0
        - 0
        - {}
    name: separable_conv_1_bn_normal_right2_1
  - class_name: BatchNormalization
    config:
      axis: -1
      beta_constraint: null
      beta_initializer:
        class_name: Zeros
        config: {}
      beta_regularizer: null
      center: true
      epsilon: 0.001
      gamma_constraint: null
      gamma_initializer:
        class_name: Ones
        config: {}
      gamma_regularizer: null
      momentum: 0.9997
      moving_mean_initializer:
        class_name: Zeros
        config: {}
      moving_variance_initializer:
        class_name: Ones
        config: {}
      name: separable_conv_1_bn_normal_left5_1
      scale: true
      trainable: true
    inbound_nodes:
    - - - separable_conv_1_normal_left5_1
        - 0
        - 0
        - {}
    name: separable_conv_1_bn_normal_left5_1
  - class_name: Activation
    config: {activation: relu, name: activation_1078, trainable: true}
    inbound_nodes:
    - - - separable_conv_1_bn_normal_left1_1
        - 0
        - 0
        - {}
    name: activation_1078
  - class_name: Activation
    config: {activation: relu, name: activation_1080, trainable: true}
    inbound_nodes:
    - - - separable_conv_1_bn_normal_right1_1
        - 0
        - 0
        - {}
    name: activation_1080
  - class_name: Activation
    config: {activation: relu, name: activation_1082, trainable: true}
    inbound_nodes:
    - - - separable_conv_1_bn_normal_left2_1
        - 0
        - 0
        - {}
    name: activation_1082
  - class_name: Activation
    config: {activation: relu, name: activation_1084, trainable: true}
    inbound_nodes:
    - - - separable_conv_1_bn_normal_right2_1
        - 0
        - 0
        - {}
    name: activation_1084
  - class_name: Activation
    config: {activation: relu, name: activation_1086, trainable: true}
    inbound_nodes:
    - - - separable_conv_1_bn_normal_left5_1
        - 0
        - 0
        - {}
    name: activation_1086
  - class_name: SeparableConv2D
    config:
      activation: linear
      activity_regularizer: null
      bias_constraint: null
      bias_initializer:
        class_name: Zeros
        config: {}
      bias_regularizer: null
      data_format: channels_last
      depth_multiplier: 1
      depthwise_constraint: null
      depthwise_initializer:
        class_name: VarianceScaling
        config: {distribution: uniform, mode: fan_avg, scale: 1.0, seed: null}
      depthwise_regularizer: null
      dilation_rate: *id002
      filters: 44
      kernel_size: *id050
      name: separable_conv_2_normal_left1_1
      padding: same
      pointwise_constraint: null
      pointwise_initializer:
        class_name: VarianceScaling
        config: {distribution: uniform, mode: fan_avg, scale: 1.0, seed: null}
      pointwise_regularizer: null
      strides: *id005
      trainable: true
      use_bias: false
    inbound_nodes:
    - - - activation_1078
        - 0
        - 0
        - {}
    name: separable_conv_2_normal_left1_1
  - class_name: SeparableConv2D
    config:
      activation: linear
      activity_regularizer: null
      bias_constraint: null
      bias_initializer:
        class_name: Zeros
        config: {}
      bias_regularizer: null
      data_format: channels_last
      depth_multiplier: 1
      depthwise_constraint: null
      depthwise_initializer:
        class_name: VarianceScaling
        config: {distribution: uniform, mode: fan_avg, scale: 1.0, seed: null}
      depthwise_regularizer: null
      dilation_rate: *id002
      filters: 44
      kernel_size: *id049
      name: separable_conv_2_normal_right1_1
      padding: same
      pointwise_constraint: null
      pointwise_initializer:
        class_name: VarianceScaling
        config: {distribution: uniform, mode: fan_avg, scale: 1.0, seed: null}
      pointwise_regularizer: null
      strides: *id005
      trainable: true
      use_bias: false
    inbound_nodes:
    - - - activation_1080
        - 0
        - 0
        - {}
    name: separable_conv_2_normal_right1_1
  - class_name: SeparableConv2D
    config:
      activation: linear
      activity_regularizer: null
      bias_constraint: null
      bias_initializer:
        class_name: Zeros
        config: {}
      bias_regularizer: null
      data_format: channels_last
      depth_multiplier: 1
      depthwise_constraint: null
      depthwise_initializer:
        class_name: VarianceScaling
        config: {distribution: uniform, mode: fan_avg, scale: 1.0, seed: null}
      depthwise_regularizer: null
      dilation_rate: *id002
      filters: 44
      kernel_size: *id051
      name: separable_conv_2_normal_left2_1
      padding: same
      pointwise_constraint: null
      pointwise_initializer:
        class_name: VarianceScaling
        config: {distribution: uniform, mode: fan_avg, scale: 1.0, seed: null}
      pointwise_regularizer: null
      strides: *id005
      trainable: true
      use_bias: false
    inbound_nodes:
    - - - activation_1082
        - 0
        - 0
        - {}
    name: separable_conv_2_normal_left2_1
  - class_name: SeparableConv2D
    config:
      activation: linear
      activity_regularizer: null
      bias_constraint: null
      bias_initializer:
        class_name: Zeros
        config: {}
      bias_regularizer: null
      data_format: channels_last
      depth_multiplier: 1
      depthwise_constraint: null
      depthwise_initializer:
        class_name: VarianceScaling
        config: {distribution: uniform, mode: fan_avg, scale: 1.0, seed: null}
      depthwise_regularizer: null
      dilation_rate: *id002
      filters: 44
      kernel_size: *id052
      name: separable_conv_2_normal_right2_1
      padding: same
      pointwise_constraint: null
      pointwise_initializer:
        class_name: VarianceScaling
        config: {distribution: uniform, mode: fan_avg, scale: 1.0, seed: null}
      pointwise_regularizer: null
      strides: *id005
      trainable: true
      use_bias: false
    inbound_nodes:
    - - - activation_1084
        - 0
        - 0
        - {}
    name: separable_conv_2_normal_right2_1
  - class_name: SeparableConv2D
    config:
      activation: linear
      activity_regularizer: null
      bias_constraint: null
      bias_initializer:
        class_name: Zeros
        config: {}
      bias_regularizer: null
      data_format: channels_last
      depth_multiplier: 1
      depthwise_constraint: null
      depthwise_initializer:
        class_name: VarianceScaling
        config: {distribution: uniform, mode: fan_avg, scale: 1.0, seed: null}
      depthwise_regularizer: null
      dilation_rate: *id002
      filters: 44
      kernel_size: *id049
      name: separable_conv_2_normal_left5_1
      padding: same
      pointwise_constraint: null
      pointwise_initializer:
        class_name: VarianceScaling
        config: {distribution: uniform, mode: fan_avg, scale: 1.0, seed: null}
      pointwise_regularizer: null
      strides: *id005
      trainable: true
      use_bias: false
    inbound_nodes:
    - - - activation_1086
        - 0
        - 0
        - {}
    name: separable_conv_2_normal_left5_1
  - class_name: BatchNormalization
    config:
      axis: -1
      beta_constraint: null
      beta_initializer:
        class_name: Zeros
        config: {}
      beta_regularizer: null
      center: true
      epsilon: 0.001
      gamma_constraint: null
      gamma_initializer:
        class_name: Ones
        config: {}
      gamma_regularizer: null
      momentum: 0.9997
      moving_mean_initializer:
        class_name: Zeros
        config: {}
      moving_variance_initializer:
        class_name: Ones
        config: {}
      name: separable_conv_2_bn_normal_left1_1
      scale: true
      trainable: true
    inbound_nodes:
    - - - separable_conv_2_normal_left1_1
        - 0
        - 0
        - {}
    name: separable_conv_2_bn_normal_left1_1
  - class_name: BatchNormalization
    config:
      axis: -1
      beta_constraint: null
      beta_initializer:
        class_name: Zeros
        config: {}
      beta_regularizer: null
      center: true
      epsilon: 0.001
      gamma_constraint: null
      gamma_initializer:
        class_name: Ones
        config: {}
      gamma_regularizer: null
      momentum: 0.9997
      moving_mean_initializer:
        class_name: Zeros
        config: {}
      moving_variance_initializer:
        class_name: Ones
        config: {}
      name: separable_conv_2_bn_normal_right1_1
      scale: true
      trainable: true
    inbound_nodes:
    - - - separable_conv_2_normal_right1_1
        - 0
        - 0
        - {}
    name: separable_conv_2_bn_normal_right1_1
  - class_name: BatchNormalization
    config:
      axis: -1
      beta_constraint: null
      beta_initializer:
        class_name: Zeros
        config: {}
      beta_regularizer: null
      center: true
      epsilon: 0.001
      gamma_constraint: null
      gamma_initializer:
        class_name: Ones
        config: {}
      gamma_regularizer: null
      momentum: 0.9997
      moving_mean_initializer:
        class_name: Zeros
        config: {}
      moving_variance_initializer:
        class_name: Ones
        config: {}
      name: separable_conv_2_bn_normal_left2_1
      scale: true
      trainable: true
    inbound_nodes:
    - - - separable_conv_2_normal_left2_1
        - 0
        - 0
        - {}
    name: separable_conv_2_bn_normal_left2_1
  - class_name: BatchNormalization
    config:
      axis: -1
      beta_constraint: null
      beta_initializer:
        class_name: Zeros
        config: {}
      beta_regularizer: null
      center: true
      epsilon: 0.001
      gamma_constraint: null
      gamma_initializer:
        class_name: Ones
        config: {}
      gamma_regularizer: null
      momentum: 0.9997
      moving_mean_initializer:
        class_name: Zeros
        config: {}
      moving_variance_initializer:
        class_name: Ones
        config: {}
      name: separable_conv_2_bn_normal_right2_1
      scale: true
      trainable: true
    inbound_nodes:
    - - - separable_conv_2_normal_right2_1
        - 0
        - 0
        - {}
    name: separable_conv_2_bn_normal_right2_1
  - class_name: AveragePooling2D
    config:
      data_format: channels_last
      name: normal_left3_1
      padding: same
      pool_size: *id061
      strides: *id062
      trainable: true
    inbound_nodes:
    - - - normal_bn_1_1
        - 0
        - 0
        - {}
    name: normal_left3_1
  - class_name: AveragePooling2D
    config:
      data_format: channels_last
      name: normal_left4_1
      padding: same
      pool_size: *id063
      strides: *id064
      trainable: true
    inbound_nodes:
    - - - adjust_bn_1
        - 0
        - 0
        - {}
    name: normal_left4_1
  - class_name: AveragePooling2D
    config:
      data_format: channels_last
      name: normal_right4_1
      padding: same
      pool_size: *id065
      strides: *id066
      trainable: true
    inbound_nodes:
    - - - adjust_bn_1
        - 0
        - 0
        - {}
    name: normal_right4_1
  - class_name: BatchNormalization
    config:
      axis: -1
      beta_constraint: null
      beta_initializer:
        class_name: Zeros
        config: {}
      beta_regularizer: null
      center: true
      epsilon: 0.001
      gamma_constraint: null
      gamma_initializer:
        class_name: Ones
        config: {}
      gamma_regularizer: null
      momentum: 0.9997
      moving_mean_initializer:
        class_name: Zeros
        config: {}
      moving_variance_initializer:
        class_name: Ones
        config: {}
      name: separable_conv_2_bn_normal_left5_1
      scale: true
      trainable: true
    inbound_nodes:
    - - - separable_conv_2_normal_left5_1
        - 0
        - 0
        - {}
    name: separable_conv_2_bn_normal_left5_1
  - class_name: Add
    config: {name: normal_add_1_1, trainable: true}
    inbound_nodes:
    - - - separable_conv_2_bn_normal_left1_1
        - 0
        - 0
        - &id067 {}
      - - separable_conv_2_bn_normal_right1_1
        - 0
        - 0
        - *id067
    name: normal_add_1_1
  - class_name: Add
    config: {name: normal_add_2_1, trainable: true}
    inbound_nodes:
    - - - separable_conv_2_bn_normal_left2_1
        - 0
        - 0
        - &id068 {}
      - - separable_conv_2_bn_normal_right2_1
        - 0
        - 0
        - *id068
    name: normal_add_2_1
  - class_name: Add
    config: {name: normal_add_3_1, trainable: true}
    inbound_nodes:
    - - - normal_left3_1
        - 0
        - 0
        - &id069 {}
      - - adjust_bn_1
        - 0
        - 0
        - *id069
    name: normal_add_3_1
  - class_name: Add
    config: {name: normal_add_4_1, trainable: true}
    inbound_nodes:
    - - - normal_left4_1
        - 0
        - 0
        - &id070 {}
      - - normal_right4_1
        - 0
        - 0
        - *id070
    name: normal_add_4_1
  - class_name: Add
    config: {name: normal_add_5_1, trainable: true}
    inbound_nodes:
    - - - separable_conv_2_bn_normal_left5_1
        - 0
        - 0
        - &id071 {}
      - - normal_bn_1_1
        - 0
        - 0
        - *id071
    name: normal_add_5_1
  - class_name: Concatenate
    config: {axis: -1, name: normal_concat_1, trainable: true}
    inbound_nodes:
    - - - adjust_bn_1
        - 0
        - 0
        - &id072 {}
      - - normal_add_1_1
        - 0
        - 0
        - *id072
      - - normal_add_2_1
        - 0
        - 0
        - *id072
      - - normal_add_3_1
        - 0
        - 0
        - *id072
      - - normal_add_4_1
        - 0
        - 0
        - *id072
      - - normal_add_5_1
        - 0
        - 0
        - *id072
    name: normal_concat_1
  - class_name: Activation
    config: {activation: relu, name: activation_1087, trainable: true}
    inbound_nodes:
    - - - normal_concat_0
        - 0
        - 0
        - {}
    name: activation_1087
  - class_name: Activation
    config: {activation: relu, name: activation_1088, trainable: true}
    inbound_nodes:
    - - - normal_concat_1
        - 0
        - 0
        - {}
    name: activation_1088
  - class_name: Conv2D
    config:
      activation: linear
      activity_regularizer: null
      bias_constraint: null
      bias_initializer:
        class_name: Zeros
        config: {}
      bias_regularizer: null
      data_format: channels_last
      dilation_rate: *id001
      filters: 44
      kernel_constraint: null
      kernel_initializer:
        class_name: VarianceScaling
        config: {distribution: normal, mode: fan_in, scale: 2.0, seed: null}
      kernel_regularizer: null
      kernel_size: *id073
      name: adjust_conv_projection_2
      padding: same
      strides: *id074
      trainable: true
      use_bias: false
    inbound_nodes:
    - - - activation_1087
        - 0
        - 0
        - {}
    name: adjust_conv_projection_2
  - class_name: Conv2D
    config:
      activation: linear
      activity_regularizer: null
      bias_constraint: null
      bias_initializer:
        class_name: Zeros
        config: {}
      bias_regularizer: null
      data_format: channels_last
      dilation_rate: *id001
      filters: 44
      kernel_constraint: null
      kernel_initializer:
        class_name: VarianceScaling
        config: {distribution: normal, mode: fan_in, scale: 2.0, seed: null}
      kernel_regularizer: null
      kernel_size: *id059
      name: normal_conv_1_2
      padding: same
      strides: *id060
      trainable: true
      use_bias: false
    inbound_nodes:
    - - - activation_1088
        - 0
        - 0
        - {}
    name: normal_conv_1_2
  - class_name: BatchNormalization
    config:
      axis: -1
      beta_constraint: null
      beta_initializer:
        class_name: Zeros
        config: {}
      beta_regularizer: null
      center: true
      epsilon: 0.001
      gamma_constraint: null
      gamma_initializer:
        class_name: Ones
        config: {}
      gamma_regularizer: null
      momentum: 0.9997
      moving_mean_initializer:
        class_name: Zeros
        config: {}
      moving_variance_initializer:
        class_name: Ones
        config: {}
      name: adjust_bn_2
      scale: true
      trainable: true
    inbound_nodes:
    - - - adjust_conv_projection_2
        - 0
        - 0
        - {}
    name: adjust_bn_2
  - class_name: BatchNormalization
    config:
      axis: -1
      beta_constraint: null
      beta_initializer:
        class_name: Zeros
        config: {}
      beta_regularizer: null
      center: true
      epsilon: 0.001
      gamma_constraint: null
      gamma_initializer:
        class_name: Ones
        config: {}
      gamma_regularizer: null
      momentum: 0.9997
      moving_mean_initializer:
        class_name: Zeros
        config: {}
      moving_variance_initializer:
        class_name: Ones
        config: {}
      name: normal_bn_1_2
      scale: true
      trainable: true
    inbound_nodes:
    - - - normal_conv_1_2
        - 0
        - 0
        - {}
    name: normal_bn_1_2
  - class_name: Activation
    config: {activation: relu, name: activation_1089, trainable: true}
    inbound_nodes:
    - - - normal_bn_1_2
        - 0
        - 0
        - {}
    name: activation_1089
  - class_name: Activation
    config: {activation: relu, name: activation_1091, trainable: true}
    inbound_nodes:
    - - - adjust_bn_2
        - 0
        - 0
        - {}
    name: activation_1091
  - class_name: Activation
    config: {activation: relu, name: activation_1093, trainable: true}
    inbound_nodes:
    - - - adjust_bn_2
        - 0
        - 0
        - {}
    name: activation_1093
  - class_name: Activation
    config: {activation: relu, name: activation_1095, trainable: true}
    inbound_nodes:
    - - - adjust_bn_2
        - 0
        - 0
        - {}
    name: activation_1095
  - class_name: Activation
    config: {activation: relu, name: activation_1097, trainable: true}
    inbound_nodes:
    - - - normal_bn_1_2
        - 0
        - 0
        - {}
    name: activation_1097
  - class_name: SeparableConv2D
    config:
      activation: linear
      activity_regularizer: null
      bias_constraint: null
      bias_initializer:
        class_name: Zeros
        config: {}
      bias_regularizer: null
      data_format: channels_last
      depth_multiplier: 1
      depthwise_constraint: null
      depthwise_initializer:
        class_name: VarianceScaling
        config: {distribution: uniform, mode: fan_avg, scale: 1.0, seed: null}
      depthwise_regularizer: null
      dilation_rate: *id002
      filters: 44
      kernel_size: *id050
      name: separable_conv_1_normal_left1_2
      padding: same
      pointwise_constraint: null
      pointwise_initializer:
        class_name: VarianceScaling
        config: {distribution: uniform, mode: fan_avg, scale: 1.0, seed: null}
      pointwise_regularizer: null
      strides: *id024
      trainable: true
      use_bias: false
    inbound_nodes:
    - - - activation_1089
        - 0
        - 0
        - {}
    name: separable_conv_1_normal_left1_2
  - class_name: SeparableConv2D
    config:
      activation: linear
      activity_regularizer: null
      bias_constraint: null
      bias_initializer:
        class_name: Zeros
        config: {}
      bias_regularizer: null
      data_format: channels_last
      depth_multiplier: 1
      depthwise_constraint: null
      depthwise_initializer:
        class_name: VarianceScaling
        config: {distribution: uniform, mode: fan_avg, scale: 1.0, seed: null}
      depthwise_regularizer: null
      dilation_rate: *id002
      filters: 44
      kernel_size: *id049
      name: separable_conv_1_normal_right1_2
      padding: same
      pointwise_constraint: null
      pointwise_initializer:
        class_name: VarianceScaling
        config: {distribution: uniform, mode: fan_avg, scale: 1.0, seed: null}
      pointwise_regularizer: null
      strides: *id024
      trainable: true
      use_bias: false
    inbound_nodes:
    - - - activation_1091
        - 0
        - 0
        - {}
    name: separable_conv_1_normal_right1_2
  - class_name: SeparableConv2D
    config:
      activation: linear
      activity_regularizer: null
      bias_constraint: null
      bias_initializer:
        class_name: Zeros
        config: {}
      bias_regularizer: null
      data_format: channels_last
      depth_multiplier: 1
      depthwise_constraint: null
      depthwise_initializer:
        class_name: VarianceScaling
        config: {distribution: uniform, mode: fan_avg, scale: 1.0, seed: null}
      depthwise_regularizer: null
      dilation_rate: *id002
      filters: 44
      kernel_size: *id051
      name: separable_conv_1_normal_left2_2
      padding: same
      pointwise_constraint: null
      pointwise_initializer:
        class_name: VarianceScaling
        config: {distribution: uniform, mode: fan_avg, scale: 1.0, seed: null}
      pointwise_regularizer: null
      strides: *id024
      trainable: true
      use_bias: false
    inbound_nodes:
    - - - activation_1093
        - 0
        - 0
        - {}
    name: separable_conv_1_normal_left2_2
  - class_name: SeparableConv2D
    config:
      activation: linear
      activity_regularizer: null
      bias_constraint: null
      bias_initializer:
        class_name: Zeros
        config: {}
      bias_regularizer: null
      data_format: channels_last
      depth_multiplier: 1
      depthwise_constraint: null
      depthwise_initializer:
        class_name: VarianceScaling
        config: {distribution: uniform, mode: fan_avg, scale: 1.0, seed: null}
      depthwise_regularizer: null
      dilation_rate: *id002
      filters: 44
      kernel_size: *id052
      name: separable_conv_1_normal_right2_2
      padding: same
      pointwise_constraint: null
      pointwise_initializer:
        class_name: VarianceScaling
        config: {distribution: uniform, mode: fan_avg, scale: 1.0, seed: null}
      pointwise_regularizer: null
      strides: *id024
      trainable: true
      use_bias: false
    inbound_nodes:
    - - - activation_1095
        - 0
        - 0
        - {}
    name: separable_conv_1_normal_right2_2
  - class_name: SeparableConv2D
    config:
      activation: linear
      activity_regularizer: null
      bias_constraint: null
      bias_initializer:
        class_name: Zeros
        config: {}
      bias_regularizer: null
      data_format: channels_last
      depth_multiplier: 1
      depthwise_constraint: null
      depthwise_initializer:
        class_name: VarianceScaling
        config: {distribution: uniform, mode: fan_avg, scale: 1.0, seed: null}
      depthwise_regularizer: null
      dilation_rate: *id002
      filters: 44
      kernel_size: *id049
      name: separable_conv_1_normal_left5_2
      padding: same
      pointwise_constraint: null
      pointwise_initializer:
        class_name: VarianceScaling
        config: {distribution: uniform, mode: fan_avg, scale: 1.0, seed: null}
      pointwise_regularizer: null
      strides: *id024
      trainable: true
      use_bias: false
    inbound_nodes:
    - - - activation_1097
        - 0
        - 0
        - {}
    name: separable_conv_1_normal_left5_2
  - class_name: BatchNormalization
    config:
      axis: -1
      beta_constraint: null
      beta_initializer:
        class_name: Zeros
        config: {}
      beta_regularizer: null
      center: true
      epsilon: 0.001
      gamma_constraint: null
      gamma_initializer:
        class_name: Ones
        config: {}
      gamma_regularizer: null
      momentum: 0.9997
      moving_mean_initializer:
        class_name: Zeros
        config: {}
      moving_variance_initializer:
        class_name: Ones
        config: {}
      name: separable_conv_1_bn_normal_left1_2
      scale: true
      trainable: true
    inbound_nodes:
    - - - separable_conv_1_normal_left1_2
        - 0
        - 0
        - {}
    name: separable_conv_1_bn_normal_left1_2
  - class_name: BatchNormalization
    config:
      axis: -1
      beta_constraint: null
      beta_initializer:
        class_name: Zeros
        config: {}
      beta_regularizer: null
      center: true
      epsilon: 0.001
      gamma_constraint: null
      gamma_initializer:
        class_name: Ones
        config: {}
      gamma_regularizer: null
      momentum: 0.9997
      moving_mean_initializer:
        class_name: Zeros
        config: {}
      moving_variance_initializer:
        class_name: Ones
        config: {}
      name: separable_conv_1_bn_normal_right1_2
      scale: true
      trainable: true
    inbound_nodes:
    - - - separable_conv_1_normal_right1_2
        - 0
        - 0
        - {}
    name: separable_conv_1_bn_normal_right1_2
  - class_name: BatchNormalization
    config:
      axis: -1
      beta_constraint: null
      beta_initializer:
        class_name: Zeros
        config: {}
      beta_regularizer: null
      center: true
      epsilon: 0.001
      gamma_constraint: null
      gamma_initializer:
        class_name: Ones
        config: {}
      gamma_regularizer: null
      momentum: 0.9997
      moving_mean_initializer:
        class_name: Zeros
        config: {}
      moving_variance_initializer:
        class_name: Ones
        config: {}
      name: separable_conv_1_bn_normal_left2_2
      scale: true
      trainable: true
    inbound_nodes:
    - - - separable_conv_1_normal_left2_2
        - 0
        - 0
        - {}
    name: separable_conv_1_bn_normal_left2_2
  - class_name: BatchNormalization
    config:
      axis: -1
      beta_constraint: null
      beta_initializer:
        class_name: Zeros
        config: {}
      beta_regularizer: null
      center: true
      epsilon: 0.001
      gamma_constraint: null
      gamma_initializer:
        class_name: Ones
        config: {}
      gamma_regularizer: null
      momentum: 0.9997
      moving_mean_initializer:
        class_name: Zeros
        config: {}
      moving_variance_initializer:
        class_name: Ones
        config: {}
      name: separable_conv_1_bn_normal_right2_2
      scale: true
      trainable: true
    inbound_nodes:
    - - - separable_conv_1_normal_right2_2
        - 0
        - 0
        - {}
    name: separable_conv_1_bn_normal_right2_2
  - class_name: BatchNormalization
    config:
      axis: -1
      beta_constraint: null
      beta_initializer:
        class_name: Zeros
        config: {}
      beta_regularizer: null
      center: true
      epsilon: 0.001
      gamma_constraint: null
      gamma_initializer:
        class_name: Ones
        config: {}
      gamma_regularizer: null
      momentum: 0.9997
      moving_mean_initializer:
        class_name: Zeros
        config: {}
      moving_variance_initializer:
        class_name: Ones
        config: {}
      name: separable_conv_1_bn_normal_left5_2
      scale: true
      trainable: true
    inbound_nodes:
    - - - separable_conv_1_normal_left5_2
        - 0
        - 0
        - {}
    name: separable_conv_1_bn_normal_left5_2
  - class_name: Activation
    config: {activation: relu, name: activation_1090, trainable: true}
    inbound_nodes:
    - - - separable_conv_1_bn_normal_left1_2
        - 0
        - 0
        - {}
    name: activation_1090
  - class_name: Activation
    config: {activation: relu, name: activation_1092, trainable: true}
    inbound_nodes:
    - - - separable_conv_1_bn_normal_right1_2
        - 0
        - 0
        - {}
    name: activation_1092
  - class_name: Activation
    config: {activation: relu, name: activation_1094, trainable: true}
    inbound_nodes:
    - - - separable_conv_1_bn_normal_left2_2
        - 0
        - 0
        - {}
    name: activation_1094
  - class_name: Activation
    config: {activation: relu, name: activation_1096, trainable: true}
    inbound_nodes:
    - - - separable_conv_1_bn_normal_right2_2
        - 0
        - 0
        - {}
    name: activation_1096
  - class_name: Activation
    config: {activation: relu, name: activation_1098, trainable: true}
    inbound_nodes:
    - - - separable_conv_1_bn_normal_left5_2
        - 0
        - 0
        - {}
    name: activation_1098
  - class_name: SeparableConv2D
    config:
      activation: linear
      activity_regularizer: null
      bias_constraint: null
      bias_initializer:
        class_name: Zeros
        config: {}
      bias_regularizer: null
      data_format: channels_last
      depth_multiplier: 1
      depthwise_constraint: null
      depthwise_initializer:
        class_name: VarianceScaling
        config: {distribution: uniform, mode: fan_avg, scale: 1.0, seed: null}
      depthwise_regularizer: null
      dilation_rate: *id002
      filters: 44
      kernel_size: *id050
      name: separable_conv_2_normal_left1_2
      padding: same
      pointwise_constraint: null
      pointwise_initializer:
        class_name: VarianceScaling
        config: {distribution: uniform, mode: fan_avg, scale: 1.0, seed: null}
      pointwise_regularizer: null
      strides: *id005
      trainable: true
      use_bias: false
    inbound_nodes:
    - - - activation_1090
        - 0
        - 0
        - {}
    name: separable_conv_2_normal_left1_2
  - class_name: SeparableConv2D
    config:
      activation: linear
      activity_regularizer: null
      bias_constraint: null
      bias_initializer:
        class_name: Zeros
        config: {}
      bias_regularizer: null
      data_format: channels_last
      depth_multiplier: 1
      depthwise_constraint: null
      depthwise_initializer:
        class_name: VarianceScaling
        config: {distribution: uniform, mode: fan_avg, scale: 1.0, seed: null}
      depthwise_regularizer: null
      dilation_rate: *id002
      filters: 44
      kernel_size: *id049
      name: separable_conv_2_normal_right1_2
      padding: same
      pointwise_constraint: null
      pointwise_initializer:
        class_name: VarianceScaling
        config: {distribution: uniform, mode: fan_avg, scale: 1.0, seed: null}
      pointwise_regularizer: null
      strides: *id005
      trainable: true
      use_bias: false
    inbound_nodes:
    - - - activation_1092
        - 0
        - 0
        - {}
    name: separable_conv_2_normal_right1_2
  - class_name: SeparableConv2D
    config:
      activation: linear
      activity_regularizer: null
      bias_constraint: null
      bias_initializer:
        class_name: Zeros
        config: {}
      bias_regularizer: null
      data_format: channels_last
      depth_multiplier: 1
      depthwise_constraint: null
      depthwise_initializer:
        class_name: VarianceScaling
        config: {distribution: uniform, mode: fan_avg, scale: 1.0, seed: null}
      depthwise_regularizer: null
      dilation_rate: *id002
      filters: 44
      kernel_size: *id051
      name: separable_conv_2_normal_left2_2
      padding: same
      pointwise_constraint: null
      pointwise_initializer:
        class_name: VarianceScaling
        config: {distribution: uniform, mode: fan_avg, scale: 1.0, seed: null}
      pointwise_regularizer: null
      strides: *id005
      trainable: true
      use_bias: false
    inbound_nodes:
    - - - activation_1094
        - 0
        - 0
        - {}
    name: separable_conv_2_normal_left2_2
  - class_name: SeparableConv2D
    config:
      activation: linear
      activity_regularizer: null
      bias_constraint: null
      bias_initializer:
        class_name: Zeros
        config: {}
      bias_regularizer: null
      data_format: channels_last
      depth_multiplier: 1
      depthwise_constraint: null
      depthwise_initializer:
        class_name: VarianceScaling
        config: {distribution: uniform, mode: fan_avg, scale: 1.0, seed: null}
      depthwise_regularizer: null
      dilation_rate: *id002
      filters: 44
      kernel_size: *id052
      name: separable_conv_2_normal_right2_2
      padding: same
      pointwise_constraint: null
      pointwise_initializer:
        class_name: VarianceScaling
        config: {distribution: uniform, mode: fan_avg, scale: 1.0, seed: null}
      pointwise_regularizer: null
      strides: *id005
      trainable: true
      use_bias: false
    inbound_nodes:
    - - - activation_1096
        - 0
        - 0
        - {}
    name: separable_conv_2_normal_right2_2
  - class_name: SeparableConv2D
    config:
      activation: linear
      activity_regularizer: null
      bias_constraint: null
      bias_initializer:
        class_name: Zeros
        config: {}
      bias_regularizer: null
      data_format: channels_last
      depth_multiplier: 1
      depthwise_constraint: null
      depthwise_initializer:
        class_name: VarianceScaling
        config: {distribution: uniform, mode: fan_avg, scale: 1.0, seed: null}
      depthwise_regularizer: null
      dilation_rate: *id002
      filters: 44
      kernel_size: *id049
      name: separable_conv_2_normal_left5_2
      padding: same
      pointwise_constraint: null
      pointwise_initializer:
        class_name: VarianceScaling
        config: {distribution: uniform, mode: fan_avg, scale: 1.0, seed: null}
      pointwise_regularizer: null
      strides: *id005
      trainable: true
      use_bias: false
    inbound_nodes:
    - - - activation_1098
        - 0
        - 0
        - {}
    name: separable_conv_2_normal_left5_2
  - class_name: BatchNormalization
    config:
      axis: -1
      beta_constraint: null
      beta_initializer:
        class_name: Zeros
        config: {}
      beta_regularizer: null
      center: true
      epsilon: 0.001
      gamma_constraint: null
      gamma_initializer:
        class_name: Ones
        config: {}
      gamma_regularizer: null
      momentum: 0.9997
      moving_mean_initializer:
        class_name: Zeros
        config: {}
      moving_variance_initializer:
        class_name: Ones
        config: {}
      name: separable_conv_2_bn_normal_left1_2
      scale: true
      trainable: true
    inbound_nodes:
    - - - separable_conv_2_normal_left1_2
        - 0
        - 0
        - {}
    name: separable_conv_2_bn_normal_left1_2
  - class_name: BatchNormalization
    config:
      axis: -1
      beta_constraint: null
      beta_initializer:
        class_name: Zeros
        config: {}
      beta_regularizer: null
      center: true
      epsilon: 0.001
      gamma_constraint: null
      gamma_initializer:
        class_name: Ones
        config: {}
      gamma_regularizer: null
      momentum: 0.9997
      moving_mean_initializer:
        class_name: Zeros
        config: {}
      moving_variance_initializer:
        class_name: Ones
        config: {}
      name: separable_conv_2_bn_normal_right1_2
      scale: true
      trainable: true
    inbound_nodes:
    - - - separable_conv_2_normal_right1_2
        - 0
        - 0
        - {}
    name: separable_conv_2_bn_normal_right1_2
  - class_name: BatchNormalization
    config:
      axis: -1
      beta_constraint: null
      beta_initializer:
        class_name: Zeros
        config: {}
      beta_regularizer: null
      center: true
      epsilon: 0.001
      gamma_constraint: null
      gamma_initializer:
        class_name: Ones
        config: {}
      gamma_regularizer: null
      momentum: 0.9997
      moving_mean_initializer:
        class_name: Zeros
        config: {}
      moving_variance_initializer:
        class_name: Ones
        config: {}
      name: separable_conv_2_bn_normal_left2_2
      scale: true
      trainable: true
    inbound_nodes:
    - - - separable_conv_2_normal_left2_2
        - 0
        - 0
        - {}
    name: separable_conv_2_bn_normal_left2_2
  - class_name: BatchNormalization
    config:
      axis: -1
      beta_constraint: null
      beta_initializer:
        class_name: Zeros
        config: {}
      beta_regularizer: null
      center: true
      epsilon: 0.001
      gamma_constraint: null
      gamma_initializer:
        class_name: Ones
        config: {}
      gamma_regularizer: null
      momentum: 0.9997
      moving_mean_initializer:
        class_name: Zeros
        config: {}
      moving_variance_initializer:
        class_name: Ones
        config: {}
      name: separable_conv_2_bn_normal_right2_2
      scale: true
      trainable: true
    inbound_nodes:
    - - - separable_conv_2_normal_right2_2
        - 0
        - 0
        - {}
    name: separable_conv_2_bn_normal_right2_2
  - class_name: AveragePooling2D
    config:
      data_format: channels_last
      name: normal_left3_2
      padding: same
      pool_size: *id061
      strides: *id062
      trainable: true
    inbound_nodes:
    - - - normal_bn_1_2
        - 0
        - 0
        - {}
    name: normal_left3_2
  - class_name: AveragePooling2D
    config:
      data_format: channels_last
      name: normal_left4_2
      padding: same
      pool_size: *id063
      strides: *id064
      trainable: true
    inbound_nodes:
    - - - adjust_bn_2
        - 0
        - 0
        - {}
    name: normal_left4_2
  - class_name: AveragePooling2D
    config:
      data_format: channels_last
      name: normal_right4_2
      padding: same
      pool_size: *id065
      strides: *id066
      trainable: true
    inbound_nodes:
    - - - adjust_bn_2
        - 0
        - 0
        - {}
    name: normal_right4_2
  - class_name: BatchNormalization
    config:
      axis: -1
      beta_constraint: null
      beta_initializer:
        class_name: Zeros
        config: {}
      beta_regularizer: null
      center: true
      epsilon: 0.001
      gamma_constraint: null
      gamma_initializer:
        class_name: Ones
        config: {}
      gamma_regularizer: null
      momentum: 0.9997
      moving_mean_initializer:
        class_name: Zeros
        config: {}
      moving_variance_initializer:
        class_name: Ones
        config: {}
      name: separable_conv_2_bn_normal_left5_2
      scale: true
      trainable: true
    inbound_nodes:
    - - - separable_conv_2_normal_left5_2
        - 0
        - 0
        - {}
    name: separable_conv_2_bn_normal_left5_2
  - class_name: Add
    config: {name: normal_add_1_2, trainable: true}
    inbound_nodes:
    - - - separable_conv_2_bn_normal_left1_2
        - 0
        - 0
        - &id075 {}
      - - separable_conv_2_bn_normal_right1_2
        - 0
        - 0
        - *id075
    name: normal_add_1_2
  - class_name: Add
    config: {name: normal_add_2_2, trainable: true}
    inbound_nodes:
    - - - separable_conv_2_bn_normal_left2_2
        - 0
        - 0
        - &id076 {}
      - - separable_conv_2_bn_normal_right2_2
        - 0
        - 0
        - *id076
    name: normal_add_2_2
  - class_name: Add
    config: {name: normal_add_3_2, trainable: true}
    inbound_nodes:
    - - - normal_left3_2
        - 0
        - 0
        - &id077 {}
      - - adjust_bn_2
        - 0
        - 0
        - *id077
    name: normal_add_3_2
  - class_name: Add
    config: {name: normal_add_4_2, trainable: true}
    inbound_nodes:
    - - - normal_left4_2
        - 0
        - 0
        - &id078 {}
      - - normal_right4_2
        - 0
        - 0
        - *id078
    name: normal_add_4_2
  - class_name: Add
    config: {name: normal_add_5_2, trainable: true}
    inbound_nodes:
    - - - separable_conv_2_bn_normal_left5_2
        - 0
        - 0
        - &id079 {}
      - - normal_bn_1_2
        - 0
        - 0
        - *id079
    name: normal_add_5_2
  - class_name: Concatenate
    config: {axis: -1, name: normal_concat_2, trainable: true}
    inbound_nodes:
    - - - adjust_bn_2
        - 0
        - 0
        - &id080 {}
      - - normal_add_1_2
        - 0
        - 0
        - *id080
      - - normal_add_2_2
        - 0
        - 0
        - *id080
      - - normal_add_3_2
        - 0
        - 0
        - *id080
      - - normal_add_4_2
        - 0
        - 0
        - *id080
      - - normal_add_5_2
        - 0
        - 0
        - *id080
    name: normal_concat_2
  - class_name: Activation
    config: {activation: relu, name: activation_1099, trainable: true}
    inbound_nodes:
    - - - normal_concat_1
        - 0
        - 0
        - {}
    name: activation_1099
  - class_name: Activation
    config: {activation: relu, name: activation_1100, trainable: true}
    inbound_nodes:
    - - - normal_concat_2
        - 0
        - 0
        - {}
    name: activation_1100
  - class_name: Conv2D
    config:
      activation: linear
      activity_regularizer: null
      bias_constraint: null
      bias_initializer:
        class_name: Zeros
        config: {}
      bias_regularizer: null
      data_format: channels_last
      dilation_rate: *id001
      filters: 44
      kernel_constraint: null
      kernel_initializer:
        class_name: VarianceScaling
        config: {distribution: normal, mode: fan_in, scale: 2.0, seed: null}
      kernel_regularizer: null
      kernel_size: *id073
      name: adjust_conv_projection_3
      padding: same
      strides: *id074
      trainable: true
      use_bias: false
    inbound_nodes:
    - - - activation_1099
        - 0
        - 0
        - {}
    name: adjust_conv_projection_3
  - class_name: Conv2D
    config:
      activation: linear
      activity_regularizer: null
      bias_constraint: null
      bias_initializer:
        class_name: Zeros
        config: {}
      bias_regularizer: null
      data_format: channels_last
      dilation_rate: *id001
      filters: 44
      kernel_constraint: null
      kernel_initializer:
        class_name: VarianceScaling
        config: {distribution: normal, mode: fan_in, scale: 2.0, seed: null}
      kernel_regularizer: null
      kernel_size: *id059
      name: normal_conv_1_3
      padding: same
      strides: *id060
      trainable: true
      use_bias: false
    inbound_nodes:
    - - - activation_1100
        - 0
        - 0
        - {}
    name: normal_conv_1_3
  - class_name: BatchNormalization
    config:
      axis: -1
      beta_constraint: null
      beta_initializer:
        class_name: Zeros
        config: {}
      beta_regularizer: null
      center: true
      epsilon: 0.001
      gamma_constraint: null
      gamma_initializer:
        class_name: Ones
        config: {}
      gamma_regularizer: null
      momentum: 0.9997
      moving_mean_initializer:
        class_name: Zeros
        config: {}
      moving_variance_initializer:
        class_name: Ones
        config: {}
      name: adjust_bn_3
      scale: true
      trainable: true
    inbound_nodes:
    - - - adjust_conv_projection_3
        - 0
        - 0
        - {}
    name: adjust_bn_3
  - class_name: BatchNormalization
    config:
      axis: -1
      beta_constraint: null
      beta_initializer:
        class_name: Zeros
        config: {}
      beta_regularizer: null
      center: true
      epsilon: 0.001
      gamma_constraint: null
      gamma_initializer:
        class_name: Ones
        config: {}
      gamma_regularizer: null
      momentum: 0.9997
      moving_mean_initializer:
        class_name: Zeros
        config: {}
      moving_variance_initializer:
        class_name: Ones
        config: {}
      name: normal_bn_1_3
      scale: true
      trainable: true
    inbound_nodes:
    - - - normal_conv_1_3
        - 0
        - 0
        - {}
    name: normal_bn_1_3
  - class_name: Activation
    config: {activation: relu, name: activation_1101, trainable: true}
    inbound_nodes:
    - - - normal_bn_1_3
        - 0
        - 0
        - {}
    name: activation_1101
  - class_name: Activation
    config: {activation: relu, name: activation_1103, trainable: true}
    inbound_nodes:
    - - - adjust_bn_3
        - 0
        - 0
        - {}
    name: activation_1103
  - class_name: Activation
    config: {activation: relu, name: activation_1105, trainable: true}
    inbound_nodes:
    - - - adjust_bn_3
        - 0
        - 0
        - {}
    name: activation_1105
  - class_name: Activation
    config: {activation: relu, name: activation_1107, trainable: true}
    inbound_nodes:
    - - - adjust_bn_3
        - 0
        - 0
        - {}
    name: activation_1107
  - class_name: Activation
    config: {activation: relu, name: activation_1109, trainable: true}
    inbound_nodes:
    - - - normal_bn_1_3
        - 0
        - 0
        - {}
    name: activation_1109
  - class_name: SeparableConv2D
    config:
      activation: linear
      activity_regularizer: null
      bias_constraint: null
      bias_initializer:
        class_name: Zeros
        config: {}
      bias_regularizer: null
      data_format: channels_last
      depth_multiplier: 1
      depthwise_constraint: null
      depthwise_initializer:
        class_name: VarianceScaling
        config: {distribution: uniform, mode: fan_avg, scale: 1.0, seed: null}
      depthwise_regularizer: null
      dilation_rate: *id002
      filters: 44
      kernel_size: *id050
      name: separable_conv_1_normal_left1_3
      padding: same
      pointwise_constraint: null
      pointwise_initializer:
        class_name: VarianceScaling
        config: {distribution: uniform, mode: fan_avg, scale: 1.0, seed: null}
      pointwise_regularizer: null
      strides: *id024
      trainable: true
      use_bias: false
    inbound_nodes:
    - - - activation_1101
        - 0
        - 0
        - {}
    name: separable_conv_1_normal_left1_3
  - class_name: SeparableConv2D
    config:
      activation: linear
      activity_regularizer: null
      bias_constraint: null
      bias_initializer:
        class_name: Zeros
        config: {}
      bias_regularizer: null
      data_format: channels_last
      depth_multiplier: 1
      depthwise_constraint: null
      depthwise_initializer:
        class_name: VarianceScaling
        config: {distribution: uniform, mode: fan_avg, scale: 1.0, seed: null}
      depthwise_regularizer: null
      dilation_rate: *id002
      filters: 44
      kernel_size: *id049
      name: separable_conv_1_normal_right1_3
      padding: same
      pointwise_constraint: null
      pointwise_initializer:
        class_name: VarianceScaling
        config: {distribution: uniform, mode: fan_avg, scale: 1.0, seed: null}
      pointwise_regularizer: null
      strides: *id024
      trainable: true
      use_bias: false
    inbound_nodes:
    - - - activation_1103
        - 0
        - 0
        - {}
    name: separable_conv_1_normal_right1_3
  - class_name: SeparableConv2D
    config:
      activation: linear
      activity_regularizer: null
      bias_constraint: null
      bias_initializer:
        class_name: Zeros
        config: {}
      bias_regularizer: null
      data_format: channels_last
      depth_multiplier: 1
      depthwise_constraint: null
      depthwise_initializer:
        class_name: VarianceScaling
        config: {distribution: uniform, mode: fan_avg, scale: 1.0, seed: null}
      depthwise_regularizer: null
      dilation_rate: *id002
      filters: 44
      kernel_size: *id051
      name: separable_conv_1_normal_left2_3
      padding: same
      pointwise_constraint: null
      pointwise_initializer:
        class_name: VarianceScaling
        config: {distribution: uniform, mode: fan_avg, scale: 1.0, seed: null}
      pointwise_regularizer: null
      strides: *id024
      trainable: true
      use_bias: false
    inbound_nodes:
    - - - activation_1105
        - 0
        - 0
        - {}
    name: separable_conv_1_normal_left2_3
  - class_name: SeparableConv2D
    config:
      activation: linear
      activity_regularizer: null
      bias_constraint: null
      bias_initializer:
        class_name: Zeros
        config: {}
      bias_regularizer: null
      data_format: channels_last
      depth_multiplier: 1
      depthwise_constraint: null
      depthwise_initializer:
        class_name: VarianceScaling
        config: {distribution: uniform, mode: fan_avg, scale: 1.0, seed: null}
      depthwise_regularizer: null
      dilation_rate: *id002
      filters: 44
      kernel_size: *id052
      name: separable_conv_1_normal_right2_3
      padding: same
      pointwise_constraint: null
      pointwise_initializer:
        class_name: VarianceScaling
        config: {distribution: uniform, mode: fan_avg, scale: 1.0, seed: null}
      pointwise_regularizer: null
      strides: *id024
      trainable: true
      use_bias: false
    inbound_nodes:
    - - - activation_1107
        - 0
        - 0
        - {}
    name: separable_conv_1_normal_right2_3
  - class_name: SeparableConv2D
    config:
      activation: linear
      activity_regularizer: null
      bias_constraint: null
      bias_initializer:
        class_name: Zeros
        config: {}
      bias_regularizer: null
      data_format: channels_last
      depth_multiplier: 1
      depthwise_constraint: null
      depthwise_initializer:
        class_name: VarianceScaling
        config: {distribution: uniform, mode: fan_avg, scale: 1.0, seed: null}
      depthwise_regularizer: null
      dilation_rate: *id002
      filters: 44
      kernel_size: *id049
      name: separable_conv_1_normal_left5_3
      padding: same
      pointwise_constraint: null
      pointwise_initializer:
        class_name: VarianceScaling
        config: {distribution: uniform, mode: fan_avg, scale: 1.0, seed: null}
      pointwise_regularizer: null
      strides: *id024
      trainable: true
      use_bias: false
    inbound_nodes:
    - - - activation_1109
        - 0
        - 0
        - {}
    name: separable_conv_1_normal_left5_3
  - class_name: BatchNormalization
    config:
      axis: -1
      beta_constraint: null
      beta_initializer:
        class_name: Zeros
        config: {}
      beta_regularizer: null
      center: true
      epsilon: 0.001
      gamma_constraint: null
      gamma_initializer:
        class_name: Ones
        config: {}
      gamma_regularizer: null
      momentum: 0.9997
      moving_mean_initializer:
        class_name: Zeros
        config: {}
      moving_variance_initializer:
        class_name: Ones
        config: {}
      name: separable_conv_1_bn_normal_left1_3
      scale: true
      trainable: true
    inbound_nodes:
    - - - separable_conv_1_normal_left1_3
        - 0
        - 0
        - {}
    name: separable_conv_1_bn_normal_left1_3
  - class_name: BatchNormalization
    config:
      axis: -1
      beta_constraint: null
      beta_initializer:
        class_name: Zeros
        config: {}
      beta_regularizer: null
      center: true
      epsilon: 0.001
      gamma_constraint: null
      gamma_initializer:
        class_name: Ones
        config: {}
      gamma_regularizer: null
      momentum: 0.9997
      moving_mean_initializer:
        class_name: Zeros
        config: {}
      moving_variance_initializer:
        class_name: Ones
        config: {}
      name: separable_conv_1_bn_normal_right1_3
      scale: true
      trainable: true
    inbound_nodes:
    - - - separable_conv_1_normal_right1_3
        - 0
        - 0
        - {}
    name: separable_conv_1_bn_normal_right1_3
  - class_name: BatchNormalization
    config:
      axis: -1
      beta_constraint: null
…
        - {}
    name: activation_1211
  - class_name: Activation
    config: {activation: relu, name: activation_1213, trainable: true}
    inbound_nodes:
    - - - adjust_bn_11
        - 0
        - 0
        - {}
    name: activation_1213
  - class_name: Activation
    config: {activation: relu, name: activation_1215, trainable: true}
    inbound_nodes:
    - - - normal_bn_1_11
        - 0
        - 0
        - {}
    name: activation_1215
  - class_name: SeparableConv2D
    config:
      activation: linear
      activity_regularizer: null
      bias_constraint: null
      bias_initializer:
        class_name: Zeros
        config: {}
      bias_regularizer: null
      data_format: channels_last
      depth_multiplier: 1
      depthwise_constraint: null
      depthwise_initializer:
        class_name: VarianceScaling
        config: {distribution: uniform, mode: fan_avg, scale: 1.0, seed: null}
      depthwise_regularizer: null
      dilation_rate: *id002
      filters: 176
      kernel_size: *id050
      name: separable_conv_1_normal_left1_11
      padding: same
      pointwise_constraint: null
      pointwise_initializer:
        class_name: VarianceScaling
        config: {distribution: uniform, mode: fan_avg, scale: 1.0, seed: null}
      pointwise_regularizer: null
      strides: *id024
      trainable: true
      use_bias: false
    inbound_nodes:
    - - - activation_1207
        - 0
        - 0
        - {}
    name: separable_conv_1_normal_left1_11
  - class_name: SeparableConv2D
    config:
      activation: linear
      activity_regularizer: null
      bias_constraint: null
      bias_initializer:
        class_name: Zeros
        config: {}
      bias_regularizer: null
      data_format: channels_last
      depth_multiplier: 1
      depthwise_constraint: null
      depthwise_initializer:
        class_name: VarianceScaling
        config: {distribution: uniform, mode: fan_avg, scale: 1.0, seed: null}
      depthwise_regularizer: null
      dilation_rate: *id002
      filters: 176
      kernel_size: *id049
      name: separable_conv_1_normal_right1_11
      padding: same
      pointwise_constraint: null
      pointwise_initializer:
        class_name: VarianceScaling
        config: {distribution: uniform, mode: fan_avg, scale: 1.0, seed: null}
      pointwise_regularizer: null
      strides: *id024
      trainable: true
      use_bias: false
    inbound_nodes:
    - - - activation_1209
        - 0
        - 0
        - {}
    name: separable_conv_1_normal_right1_11
  - class_name: SeparableConv2D
    config:
      activation: linear
      activity_regularizer: null
      bias_constraint: null
      bias_initializer:
        class_name: Zeros
        config: {}
      bias_regularizer: null
      data_format: channels_last
      depth_multiplier: 1
      depthwise_constraint: null
      depthwise_initializer:
        class_name: VarianceScaling
        config: {distribution: uniform, mode: fan_avg, scale: 1.0, seed: null}
      depthwise_regularizer: null
      dilation_rate: *id002
      filters: 176
      kernel_size: *id051
      name: separable_conv_1_normal_left2_11
      padding: same
      pointwise_constraint: null
      pointwise_initializer:
        class_name: VarianceScaling
        config: {distribution: uniform, mode: fan_avg, scale: 1.0, seed: null}
      pointwise_regularizer: null
      strides: *id024
      trainable: true
      use_bias: false
    inbound_nodes:
    - - - activation_1211
        - 0
        - 0
        - {}
    name: separable_conv_1_normal_left2_11
  - class_name: SeparableConv2D
    config:
      activation: linear
      activity_regularizer: null
      bias_constraint: null
      bias_initializer:
        class_name: Zeros
        config: {}
      bias_regularizer: null
      data_format: channels_last
      depth_multiplier: 1
      depthwise_constraint: null
      depthwise_initializer:
        class_name: VarianceScaling
        config: {distribution: uniform, mode: fan_avg, scale: 1.0, seed: null}
      depthwise_regularizer: null
      dilation_rate: *id002
      filters: 176
      kernel_size: *id052
      name: separable_conv_1_normal_right2_11
      padding: same
      pointwise_constraint: null
      pointwise_initializer:
        class_name: VarianceScaling
        config: {distribution: uniform, mode: fan_avg, scale: 1.0, seed: null}
      pointwise_regularizer: null
      strides: *id024
      trainable: true
      use_bias: false
    inbound_nodes:
    - - - activation_1213
        - 0
        - 0
        - {}
    name: separable_conv_1_normal_right2_11
  - class_name: SeparableConv2D
    config:
      activation: linear
      activity_regularizer: null
      bias_constraint: null
      bias_initializer:
        class_name: Zeros
        config: {}
      bias_regularizer: null
      data_format: channels_last
      depth_multiplier: 1
      depthwise_constraint: null
      depthwise_initializer:
        class_name: VarianceScaling
        config: {distribution: uniform, mode: fan_avg, scale: 1.0, seed: null}
      depthwise_regularizer: null
      dilation_rate: *id002
      filters: 176
      kernel_size: *id049
      name: separable_conv_1_normal_left5_11
      padding: same
      pointwise_constraint: null
      pointwise_initializer:
        class_name: VarianceScaling
        config: {distribution: uniform, mode: fan_avg, scale: 1.0, seed: null}
      pointwise_regularizer: null
      strides: *id024
      trainable: true
      use_bias: false
    inbound_nodes:
    - - - activation_1215
        - 0
        - 0
        - {}
    name: separable_conv_1_normal_left5_11
  - class_name: BatchNormalization
    config:
      axis: -1
      beta_constraint: null
      beta_initializer:
        class_name: Zeros
        config: {}
      beta_regularizer: null
      center: true
      epsilon: 0.001
      gamma_constraint: null
      gamma_initializer:
        class_name: Ones
        config: {}
      gamma_regularizer: null
      momentum: 0.9997
      moving_mean_initializer:
        class_name: Zeros
        config: {}
      moving_variance_initializer:
        class_name: Ones
        config: {}
      name: separable_conv_1_bn_normal_left1_11
      scale: true
      trainable: true
    inbound_nodes:
    - - - separable_conv_1_normal_left1_11
        - 0
        - 0
        - {}
    name: separable_conv_1_bn_normal_left1_11
  - class_name: BatchNormalization
    config:
      axis: -1
      beta_constraint: null
      beta_initializer:
        class_name: Zeros
        config: {}
      beta_regularizer: null
      center: true
      epsilon: 0.001
      gamma_constraint: null
      gamma_initializer:
        class_name: Ones
        config: {}
      gamma_regularizer: null
      momentum: 0.9997
      moving_mean_initializer:
        class_name: Zeros
        config: {}
      moving_variance_initializer:
        class_name: Ones
        config: {}
      name: separable_conv_1_bn_normal_right1_11
      scale: true
      trainable: true
    inbound_nodes:
    - - - separable_conv_1_normal_right1_11
        - 0
        - 0
        - {}
    name: separable_conv_1_bn_normal_right1_11
  - class_name: BatchNormalization
    config:
      axis: -1
      beta_constraint: null
      beta_initializer:
        class_name: Zeros
        config: {}
      beta_regularizer: null
      center: true
      epsilon: 0.001
      gamma_constraint: null
      gamma_initializer:
        class_name: Ones
        config: {}
      gamma_regularizer: null
      momentum: 0.9997
      moving_mean_initializer:
        class_name: Zeros
        config: {}
      moving_variance_initializer:
        class_name: Ones
        config: {}
      name: separable_conv_1_bn_normal_left2_11
      scale: true
      trainable: true
    inbound_nodes:
    - - - separable_conv_1_normal_left2_11
        - 0
        - 0
        - {}
    name: separable_conv_1_bn_normal_left2_11
  - class_name: BatchNormalization
    config:
      axis: -1
      beta_constraint: null
      beta_initializer:
        class_name: Zeros
        config: {}
      beta_regularizer: null
      center: true
      epsilon: 0.001
      gamma_constraint: null
      gamma_initializer:
        class_name: Ones
        config: {}
      gamma_regularizer: null
      momentum: 0.9997
      moving_mean_initializer:
        class_name: Zeros
        config: {}
      moving_variance_initializer:
        class_name: Ones
        config: {}
      name: separable_conv_1_bn_normal_right2_11
      scale: true
      trainable: true
    inbound_nodes:
    - - - separable_conv_1_normal_right2_11
        - 0
        - 0
        - {}
    name: separable_conv_1_bn_normal_right2_11
  - class_name: BatchNormalization
    config:
      axis: -1
      beta_constraint: null
      beta_initializer:
        class_name: Zeros
        config: {}
      beta_regularizer: null
      center: true
      epsilon: 0.001
      gamma_constraint: null
      gamma_initializer:
        class_name: Ones
        config: {}
      gamma_regularizer: null
      momentum: 0.9997
      moving_mean_initializer:
        class_name: Zeros
        config: {}
      moving_variance_initializer:
        class_name: Ones
        config: {}
      name: separable_conv_1_bn_normal_left5_11
      scale: true
      trainable: true
    inbound_nodes:
    - - - separable_conv_1_normal_left5_11
        - 0
        - 0
        - {}
    name: separable_conv_1_bn_normal_left5_11
  - class_name: Activation
    config: {activation: relu, name: activation_1208, trainable: true}
    inbound_nodes:
    - - - separable_conv_1_bn_normal_left1_11
        - 0
        - 0
        - {}
    name: activation_1208
  - class_name: Activation
    config: {activation: relu, name: activation_1210, trainable: true}
    inbound_nodes:
    - - - separable_conv_1_bn_normal_right1_11
        - 0
        - 0
        - {}
    name: activation_1210
  - class_name: Activation
    config: {activation: relu, name: activation_1212, trainable: true}
    inbound_nodes:
    - - - separable_conv_1_bn_normal_left2_11
        - 0
        - 0
        - {}
    name: activation_1212
  - class_name: Activation
    config: {activation: relu, name: activation_1214, trainable: true}
    inbound_nodes:
    - - - separable_conv_1_bn_normal_right2_11
        - 0
        - 0
        - {}
    name: activation_1214
  - class_name: Activation
    config: {activation: relu, name: activation_1216, trainable: true}
    inbound_nodes:
    - - - separable_conv_1_bn_normal_left5_11
        - 0
        - 0
        - {}
    name: activation_1216
  - class_name: SeparableConv2D
    config:
      activation: linear
      activity_regularizer: null
      bias_constraint: null
      bias_initializer:
        class_name: Zeros
        config: {}
      bias_regularizer: null
      data_format: channels_last
      depth_multiplier: 1
      depthwise_constraint: null
      depthwise_initializer:
        class_name: VarianceScaling
        config: {distribution: uniform, mode: fan_avg, scale: 1.0, seed: null}
      depthwise_regularizer: null
      dilation_rate: *id002
      filters: 176
      kernel_size: *id050
      name: separable_conv_2_normal_left1_11
      padding: same
      pointwise_constraint: null
      pointwise_initializer:
        class_name: VarianceScaling
        config: {distribution: uniform, mode: fan_avg, scale: 1.0, seed: null}
      pointwise_regularizer: null
      strides: *id005
      trainable: true
      use_bias: false
    inbound_nodes:
    - - - activation_1208
        - 0
        - 0
        - {}
    name: separable_conv_2_normal_left1_11
  - class_name: SeparableConv2D
    config:
      activation: linear
      activity_regularizer: null
      bias_constraint: null
      bias_initializer:
        class_name: Zeros
        config: {}
      bias_regularizer: null
      data_format: channels_last
      depth_multiplier: 1
      depthwise_constraint: null
      depthwise_initializer:
        class_name: VarianceScaling
        config: {distribution: uniform, mode: fan_avg, scale: 1.0, seed: null}
      depthwise_regularizer: null
      dilation_rate: *id002
      filters: 176
      kernel_size: *id049
      name: separable_conv_2_normal_right1_11
      padding: same
      pointwise_constraint: null
      pointwise_initializer:
        class_name: VarianceScaling
        config: {distribution: uniform, mode: fan_avg, scale: 1.0, seed: null}
      pointwise_regularizer: null
      strides: *id005
      trainable: true
      use_bias: false
    inbound_nodes:
    - - - activation_1210
        - 0
        - 0
        - {}
    name: separable_conv_2_normal_right1_11
  - class_name: SeparableConv2D
    config:
      activation: linear
      activity_regularizer: null
      bias_constraint: null
      bias_initializer:
        class_name: Zeros
        config: {}
      bias_regularizer: null
      data_format: channels_last
      depth_multiplier: 1
      depthwise_constraint: null
      depthwise_initializer:
        class_name: VarianceScaling
        config: {distribution: uniform, mode: fan_avg, scale: 1.0, seed: null}
      depthwise_regularizer: null
      dilation_rate: *id002
      filters: 176
      kernel_size: *id051
      name: separable_conv_2_normal_left2_11
      padding: same
      pointwise_constraint: null
      pointwise_initializer:
        class_name: VarianceScaling
        config: {distribution: uniform, mode: fan_avg, scale: 1.0, seed: null}
      pointwise_regularizer: null
      strides: *id005
      trainable: true
      use_bias: false
    inbound_nodes:
    - - - activation_1212
        - 0
        - 0
        - {}
    name: separable_conv_2_normal_left2_11
  - class_name: SeparableConv2D
    config:
      activation: linear
      activity_regularizer: null
      bias_constraint: null
      bias_initializer:
        class_name: Zeros
        config: {}
      bias_regularizer: null
      data_format: channels_last
      depth_multiplier: 1
      depthwise_constraint: null
      depthwise_initializer:
        class_name: VarianceScaling
        config: {distribution: uniform, mode: fan_avg, scale: 1.0, seed: null}
      depthwise_regularizer: null
      dilation_rate: *id002
      filters: 176
      kernel_size: *id052
      name: separable_conv_2_normal_right2_11
      padding: same
      pointwise_constraint: null
      pointwise_initializer:
        class_name: VarianceScaling
        config: {distribution: uniform, mode: fan_avg, scale: 1.0, seed: null}
      pointwise_regularizer: null
      strides: *id005
      trainable: true
      use_bias: false
    inbound_nodes:
    - - - activation_1214
        - 0
        - 0
        - {}
    name: separable_conv_2_normal_right2_11
  - class_name: SeparableConv2D
    config:
      activation: linear
      activity_regularizer: null
      bias_constraint: null
      bias_initializer:
        class_name: Zeros
        config: {}
      bias_regularizer: null
      data_format: channels_last
      depth_multiplier: 1
      depthwise_constraint: null
      depthwise_initializer:
        class_name: VarianceScaling
        config: {distribution: uniform, mode: fan_avg, scale: 1.0, seed: null}
      depthwise_regularizer: null
      dilation_rate: *id002
      filters: 176
      kernel_size: *id049
      name: separable_conv_2_normal_left5_11
      padding: same
      pointwise_constraint: null
      pointwise_initializer:
        class_name: VarianceScaling
        config: {distribution: uniform, mode: fan_avg, scale: 1.0, seed: null}
      pointwise_regularizer: null
      strides: *id005
      trainable: true
      use_bias: false
    inbound_nodes:
    - - - activation_1216
        - 0
        - 0
        - {}
    name: separable_conv_2_normal_left5_11
  - class_name: BatchNormalization
    config:
      axis: -1
      beta_constraint: null
      beta_initializer:
        class_name: Zeros
        config: {}
      beta_regularizer: null
      center: true
      epsilon: 0.001
      gamma_constraint: null
      gamma_initializer:
        class_name: Ones
        config: {}
      gamma_regularizer: null
      momentum: 0.9997
      moving_mean_initializer:
        class_name: Zeros
        config: {}
      moving_variance_initializer:
        class_name: Ones
        config: {}
      name: separable_conv_2_bn_normal_left1_11
      scale: true
      trainable: true
    inbound_nodes:
    - - - separable_conv_2_normal_left1_11
        - 0
        - 0
        - {}
    name: separable_conv_2_bn_normal_left1_11
  - class_name: BatchNormalization
    config:
      axis: -1
      beta_constraint: null
      beta_initializer:
        class_name: Zeros
        config: {}
      beta_regularizer: null
      center: true
      epsilon: 0.001
      gamma_constraint: null
      gamma_initializer:
        class_name: Ones
        config: {}
      gamma_regularizer: null
      momentum: 0.9997
      moving_mean_initializer:
        class_name: Zeros
        config: {}
      moving_variance_initializer:
        class_name: Ones
        config: {}
      name: separable_conv_2_bn_normal_right1_11
      scale: true
      trainable: true
    inbound_nodes:
    - - - separable_conv_2_normal_right1_11
        - 0
        - 0
        - {}
    name: separable_conv_2_bn_normal_right1_11
  - class_name: BatchNormalization
    config:
      axis: -1
      beta_constraint: null
      beta_initializer:
        class_name: Zeros
        config: {}
      beta_regularizer: null
      center: true
      epsilon: 0.001
      gamma_constraint: null
      gamma_initializer:
        class_name: Ones
        config: {}
      gamma_regularizer: null
      momentum: 0.9997
      moving_mean_initializer:
        class_name: Zeros
        config: {}
      moving_variance_initializer:
        class_name: Ones
        config: {}
      name: separable_conv_2_bn_normal_left2_11
      scale: true
      trainable: true
    inbound_nodes:
    - - - separable_conv_2_normal_left2_11
        - 0
        - 0
        - {}
    name: separable_conv_2_bn_normal_left2_11
  - class_name: BatchNormalization
    config:
      axis: -1
      beta_constraint: null
      beta_initializer:
        class_name: Zeros
        config: {}
      beta_regularizer: null
      center: true
      epsilon: 0.001
      gamma_constraint: null
      gamma_initializer:
        class_name: Ones
        config: {}
      gamma_regularizer: null
      momentum: 0.9997
      moving_mean_initializer:
        class_name: Zeros
        config: {}
      moving_variance_initializer:
        class_name: Ones
        config: {}
      name: separable_conv_2_bn_normal_right2_11
      scale: true
      trainable: true
    inbound_nodes:
    - - - separable_conv_2_normal_right2_11
        - 0
        - 0
        - {}
    name: separable_conv_2_bn_normal_right2_11
  - class_name: AveragePooling2D
    config:
      data_format: channels_last
      name: normal_left3_11
      padding: same
      pool_size: *id061
      strides: *id062
      trainable: true
    inbound_nodes:
    - - - normal_bn_1_11
        - 0
        - 0
        - {}
    name: normal_left3_11
  - class_name: AveragePooling2D
    config:
      data_format: channels_last
      name: normal_left4_11
      padding: same
      pool_size: *id063
      strides: *id064
      trainable: true
    inbound_nodes:
    - - - adjust_bn_11
        - 0
        - 0
        - {}
    name: normal_left4_11
  - class_name: AveragePooling2D
    config:
      data_format: channels_last
      name: normal_right4_11
      padding: same
      pool_size: *id065
      strides: *id066
      trainable: true
    inbound_nodes:
    - - - adjust_bn_11
        - 0
        - 0
        - {}
    name: normal_right4_11
  - class_name: BatchNormalization
    config:
      axis: -1
      beta_constraint: null
      beta_initializer:
        class_name: Zeros
        config: {}
      beta_regularizer: null
      center: true
      epsilon: 0.001
      gamma_constraint: null
      gamma_initializer:
        class_name: Ones
        config: {}
      gamma_regularizer: null
      momentum: 0.9997
      moving_mean_initializer:
        class_name: Zeros
        config: {}
      moving_variance_initializer:
        class_name: Ones
        config: {}
      name: separable_conv_2_bn_normal_left5_11
      scale: true
      trainable: true
    inbound_nodes:
    - - - separable_conv_2_normal_left5_11
        - 0
        - 0
        - {}
    name: separable_conv_2_bn_normal_left5_11
  - class_name: Add
    config: {name: normal_add_1_11, trainable: true}
    inbound_nodes:
    - - - separable_conv_2_bn_normal_left1_11
        - 0
        - 0
        - &id137 {}
      - - separable_conv_2_bn_normal_right1_11
        - 0
        - 0
        - *id137
    name: normal_add_1_11
  - class_name: Add
    config: {name: normal_add_2_11, trainable: true}
    inbound_nodes:
    - - - separable_conv_2_bn_normal_left2_11
        - 0
        - 0
        - &id138 {}
      - - separable_conv_2_bn_normal_right2_11
        - 0
        - 0
        - *id138
    name: normal_add_2_11
  - class_name: Add
    config: {name: normal_add_3_11, trainable: true}
    inbound_nodes:
    - - - normal_left3_11
        - 0
        - 0
        - &id139 {}
      - - adjust_bn_11
        - 0
        - 0
        - *id139
    name: normal_add_3_11
  - class_name: Add
    config: {name: normal_add_4_11, trainable: true}
    inbound_nodes:
    - - - normal_left4_11
        - 0
        - 0
        - &id140 {}
      - - normal_right4_11
        - 0
        - 0
        - *id140
    name: normal_add_4_11
  - class_name: Add
    config: {name: normal_add_5_11, trainable: true}
    inbound_nodes:
    - - - separable_conv_2_bn_normal_left5_11
        - 0
        - 0
        - &id141 {}
      - - normal_bn_1_11
        - 0
        - 0
        - *id141
    name: normal_add_5_11
  - class_name: Concatenate
    config: {axis: -1, name: normal_concat_11, trainable: true}
    inbound_nodes:
    - - - adjust_bn_11
        - 0
        - 0
        - &id142 {}
      - - normal_add_1_11
        - 0
        - 0
        - *id142
      - - normal_add_2_11
        - 0
        - 0
        - *id142
      - - normal_add_3_11
        - 0
        - 0
        - *id142
      - - normal_add_4_11
        - 0
        - 0
        - *id142
      - - normal_add_5_11
        - 0
        - 0
        - *id142
    name: normal_concat_11
  - class_name: Activation
    config: {activation: relu, name: activation_1217, trainable: true}
    inbound_nodes:
    - - - normal_concat_10
        - 0
        - 0
        - {}
    name: activation_1217
  - class_name: Activation
    config: {activation: relu, name: activation_1218, trainable: true}
    inbound_nodes:
    - - - normal_concat_11
        - 0
        - 0
        - {}
    name: activation_1218
  - class_name: Conv2D
    config:
      activation: linear
      activity_regularizer: null
      bias_constraint: null
      bias_initializer:
        class_name: Zeros
        config: {}
      bias_regularizer: null
      data_format: channels_last
      dilation_rate: *id001
      filters: 176
      kernel_constraint: null
      kernel_initializer:
        class_name: VarianceScaling
        config: {distribution: normal, mode: fan_in, scale: 2.0, seed: null}
      kernel_regularizer: null
      kernel_size: *id073
      name: adjust_conv_projection_12
      padding: same
      strides: *id074
      trainable: true
      use_bias: false
    inbound_nodes:
    - - - activation_1217
        - 0
        - 0
        - {}
    name: adjust_conv_projection_12
  - class_name: Conv2D
    config:
      activation: linear
      activity_regularizer: null
      bias_constraint: null
      bias_initializer:
        class_name: Zeros
        config: {}
      bias_regularizer: null
      data_format: channels_last
      dilation_rate: *id001
      filters: 176
      kernel_constraint: null
      kernel_initializer:
        class_name: VarianceScaling
        config: {distribution: normal, mode: fan_in, scale: 2.0, seed: null}
      kernel_regularizer: null
      kernel_size: *id059
      name: normal_conv_1_12
      padding: same
      strides: *id060
      trainable: true
      use_bias: false
    inbound_nodes:
    - - - activation_1218
        - 0
        - 0
        - {}
    name: normal_conv_1_12
  - class_name: BatchNormalization
    config:
      axis: -1
      beta_constraint: null
      beta_initializer:
        class_name: Zeros
        config: {}
      beta_regularizer: null
      center: true
      epsilon: 0.001
      gamma_constraint: null
      gamma_initializer:
        class_name: Ones
        config: {}
      gamma_regularizer: null
      momentum: 0.9997
      moving_mean_initializer:
        class_name: Zeros
        config: {}
      moving_variance_initializer:
        class_name: Ones
        config: {}
      name: adjust_bn_12
      scale: true
      trainable: true
    inbound_nodes:
    - - - adjust_conv_projection_12
        - 0
        - 0
        - {}
    name: adjust_bn_12
  - class_name: BatchNormalization
    config:
      axis: -1
      beta_constraint: null
      beta_initializer:
        class_name: Zeros
        config: {}
      beta_regularizer: null
      center: true
      epsilon: 0.001
      gamma_constraint: null
      gamma_initializer:
        class_name: Ones
        config: {}
      gamma_regularizer: null
      momentum: 0.9997
      moving_mean_initializer:
        class_name: Zeros
        config: {}
      moving_variance_initializer:
        class_name: Ones
        config: {}
      name: normal_bn_1_12
      scale: true
      trainable: true
    inbound_nodes:
    - - - normal_conv_1_12
        - 0
        - 0
        - {}
    name: normal_bn_1_12
  - class_name: Activation
    config: {activation: relu, name: activation_1219, trainable: true}
    inbound_nodes:
    - - - normal_bn_1_12
        - 0
        - 0
        - {}
    name: activation_1219
  - class_name: Activation
    config: {activation: relu, name: activation_1221, trainable: true}
    inbound_nodes:
    - - - adjust_bn_12
        - 0
        - 0
        - {}
    name: activation_1221
  - class_name: Activation
    config: {activation: relu, name: activation_1223, trainable: true}
    inbound_nodes:
    - - - adjust_bn_12
        - 0
        - 0
        - {}
    name: activation_1223
  - class_name: Activation
    config: {activation: relu, name: activation_1225, trainable: true}
    inbound_nodes:
    - - - adjust_bn_12
        - 0
        - 0
        - {}
    name: activation_1225
  - class_name: Activation
    config: {activation: relu, name: activation_1227, trainable: true}
    inbound_nodes:
    - - - normal_bn_1_12
        - 0
        - 0
        - {}
    name: activation_1227
  - class_name: SeparableConv2D
    config:
      activation: linear
      activity_regularizer: null
      bias_constraint: null
      bias_initializer:
        class_name: Zeros
        config: {}
      bias_regularizer: null
      data_format: channels_last
      depth_multiplier: 1
      depthwise_constraint: null
      depthwise_initializer:
        class_name: VarianceScaling
        config: {distribution: uniform, mode: fan_avg, scale: 1.0, seed: null}
      depthwise_regularizer: null
      dilation_rate: *id002
      filters: 176
      kernel_size: *id050
      name: separable_conv_1_normal_left1_12
      padding: same
      pointwise_constraint: null
      pointwise_initializer:
        class_name: VarianceScaling
        config: {distribution: uniform, mode: fan_avg, scale: 1.0, seed: null}
      pointwise_regularizer: null
      strides: *id024
      trainable: true
      use_bias: false
    inbound_nodes:
    - - - activation_1219
        - 0
        - 0
        - {}
    name: separable_conv_1_normal_left1_12
  - class_name: SeparableConv2D
    config:
      activation: linear
      activity_regularizer: null
      bias_constraint: null
      bias_initializer:
        class_name: Zeros
        config: {}
      bias_regularizer: null
      data_format: channels_last
      depth_multiplier: 1
      depthwise_constraint: null
      depthwise_initializer:
        class_name: VarianceScaling
        config: {distribution: uniform, mode: fan_avg, scale: 1.0, seed: null}
      depthwise_regularizer: null
      dilation_rate: *id002
      filters: 176
      kernel_size: *id049
      name: separable_conv_1_normal_right1_12
      padding: same
      pointwise_constraint: null
      pointwise_initializer:
        class_name: VarianceScaling
        config: {distribution: uniform, mode: fan_avg, scale: 1.0, seed: null}
      pointwise_regularizer: null
      strides: *id024
      trainable: true
      use_bias: false
    inbound_nodes:
    - - - activation_1221
        - 0
        - 0
        - {}
    name: separable_conv_1_normal_right1_12
  - class_name: SeparableConv2D
    config:
      activation: linear
      activity_regularizer: null
      bias_constraint: null
      bias_initializer:
        class_name: Zeros
        config: {}
      bias_regularizer: null
      data_format: channels_last
      depth_multiplier: 1
      depthwise_constraint: null
      depthwise_initializer:
        class_name: VarianceScaling
        config: {distribution: uniform, mode: fan_avg, scale: 1.0, seed: null}
      depthwise_regularizer: null
      dilation_rate: *id002
      filters: 176
      kernel_size: *id051
      name: separable_conv_1_normal_left2_12
      padding: same
      pointwise_constraint: null
      pointwise_initializer:
        class_name: VarianceScaling
        config: {distribution: uniform, mode: fan_avg, scale: 1.0, seed: null}
      pointwise_regularizer: null
      strides: *id024
      trainable: true
      use_bias: false
    inbound_nodes:
    - - - activation_1223
        - 0
        - 0
        - {}
    name: separable_conv_1_normal_left2_12
  - class_name: SeparableConv2D
    config:
      activation: linear
      activity_regularizer: null
      bias_constraint: null
      bias_initializer:
        class_name: Zeros
        config: {}
      bias_regularizer: null
      data_format: channels_last
      depth_multiplier: 1
      depthwise_constraint: null
      depthwise_initializer:
        class_name: VarianceScaling
        config: {distribution: uniform, mode: fan_avg, scale: 1.0, seed: null}
      depthwise_regularizer: null
      dilation_rate: *id002
      filters: 176
      kernel_size: *id052
      name: separable_conv_1_normal_right2_12
      padding: same
      pointwise_constraint: null
      pointwise_initializer:
        class_name: VarianceScaling
        config: {distribution: uniform, mode: fan_avg, scale: 1.0, seed: null}
      pointwise_regularizer: null
      strides: *id024
      trainable: true
      use_bias: false
    inbound_nodes:
    - - - activation_1225
        - 0
        - 0
        - {}
    name: separable_conv_1_normal_right2_12
  - class_name: SeparableConv2D
    config:
      activation: linear
      activity_regularizer: null
      bias_constraint: null
      bias_initializer:
        class_name: Zeros
        config: {}
      bias_regularizer: null
      data_format: channels_last
      depth_multiplier: 1
      depthwise_constraint: null
      depthwise_initializer:
        class_name: VarianceScaling
        config: {distribution: uniform, mode: fan_avg, scale: 1.0, seed: null}
      depthwise_regularizer: null
      dilation_rate: *id002
      filters: 176
      kernel_size: *id049
      name: separable_conv_1_normal_left5_12
      padding: same
      pointwise_constraint: null
      pointwise_initializer:
        class_name: VarianceScaling
        config: {distribution: uniform, mode: fan_avg, scale: 1.0, seed: null}
      pointwise_regularizer: null
      strides: *id024
      trainable: true
      use_bias: false
    inbound_nodes:
    - - - activation_1227
        - 0
        - 0
        - {}
    name: separable_conv_1_normal_left5_12
  - class_name: BatchNormalization
    config:
      axis: -1
      beta_constraint: null
      beta_initializer:
        class_name: Zeros
        config: {}
      beta_regularizer: null
      center: true
      epsilon: 0.001
      gamma_constraint: null
      gamma_initializer:
        class_name: Ones
        config: {}
      gamma_regularizer: null
      momentum: 0.9997
      moving_mean_initializer:
        class_name: Zeros
        config: {}
      moving_variance_initializer:
        class_name: Ones
        config: {}
      name: separable_conv_1_bn_normal_left1_12
      scale: true
      trainable: true
    inbound_nodes:
    - - - separable_conv_1_normal_left1_12
        - 0
        - 0
        - {}
    name: separable_conv_1_bn_normal_left1_12
  - class_name: BatchNormalization
    config:
      axis: -1
      beta_constraint: null
      beta_initializer:
        class_name: Zeros
        config: {}
      beta_regularizer: null
      center: true
      epsilon: 0.001
      gamma_constraint: null
      gamma_initializer:
        class_name: Ones
        config: {}
      gamma_regularizer: null
      momentum: 0.9997
      moving_mean_initializer:
        class_name: Zeros
        config: {}
      moving_variance_initializer:
        class_name: Ones
        config: {}
      name: separable_conv_1_bn_normal_right1_12
      scale: true
      trainable: true
    inbound_nodes:
    - - - separable_conv_1_normal_right1_12
        - 0
        - 0
        - {}
    name: separable_conv_1_bn_normal_right1_12
  - class_name: BatchNormalization
    config:
      axis: -1
      beta_constraint: null
      beta_initializer:
        class_name: Zeros
        config: {}
      beta_regularizer: null
      center: true
      epsilon: 0.001
      gamma_constraint: null
      gamma_initializer:
        class_name: Ones
        config: {}
      gamma_regularizer: null
      momentum: 0.9997
      moving_mean_initializer:
        class_name: Zeros
        config: {}
      moving_variance_initializer:
        class_name: Ones
        config: {}
      name: separable_conv_1_bn_normal_left2_12
      scale: true
      trainable: true
    inbound_nodes:
    - - - separable_conv_1_normal_left2_12
        - 0
        - 0
        - {}
    name: separable_conv_1_bn_normal_left2_12
  - class_name: BatchNormalization
    config:
      axis: -1
      beta_constraint: null
      beta_initializer:
        class_name: Zeros
        config: {}
      beta_regularizer: null
      center: true
      epsilon: 0.001
      gamma_constraint: null
      gamma_initializer:
        class_name: Ones
        config: {}
      gamma_regularizer: null
      momentum: 0.9997
      moving_mean_initializer:
        class_name: Zeros
        config: {}
      moving_variance_initializer:
        class_name: Ones
        config: {}
      name: separable_conv_1_bn_normal_right2_12
      scale: true
      trainable: true
    inbound_nodes:
    - - - separable_conv_1_normal_right2_12
        - 0
        - 0
        - {}
    name: separable_conv_1_bn_normal_right2_12
  - class_name: BatchNormalization
    config:
      axis: -1
      beta_constraint: null
      beta_initializer:
        class_name: Zeros
        config: {}
      beta_regularizer: null
      center: true
      epsilon: 0.001
      gamma_constraint: null
      gamma_initializer:
        class_name: Ones
        config: {}
      gamma_regularizer: null
      momentum: 0.9997
      moving_mean_initializer:
        class_name: Zeros
        config: {}
      moving_variance_initializer:
        class_name: Ones
        config: {}
      name: separable_conv_1_bn_normal_left5_12
      scale: true
      trainable: true
    inbound_nodes:
    - - - separable_conv_1_normal_left5_12
        - 0
        - 0
        - {}
    name: separable_conv_1_bn_normal_left5_12
  - class_name: Activation
    config: {activation: relu, name: activation_1220, trainable: true}
    inbound_nodes:
    - - - separable_conv_1_bn_normal_left1_12
        - 0
        - 0
        - {}
    name: activation_1220
  - class_name: Activation
    config: {activation: relu, name: activation_1222, trainable: true}
    inbound_nodes:
    - - - separable_conv_1_bn_normal_right1_12
        - 0
        - 0
        - {}
    name: activation_1222
  - class_name: Activation
    config: {activation: relu, name: activation_1224, trainable: true}
    inbound_nodes:
    - - - separable_conv_1_bn_normal_left2_12
        - 0
        - 0
        - {}
    name: activation_1224
  - class_name: Activation
    config: {activation: relu, name: activation_1226, trainable: true}
    inbound_nodes:
    - - - separable_conv_1_bn_normal_right2_12
        - 0
        - 0
        - {}
    name: activation_1226
  - class_name: Activation
    config: {activation: relu, name: activation_1228, trainable: true}
    inbound_nodes:
    - - - separable_conv_1_bn_normal_left5_12
        - 0
        - 0
        - {}
    name: activation_1228
  - class_name: SeparableConv2D
    config:
      activation: linear
      activity_regularizer: null
      bias_constraint: null
      bias_initializer:
        class_name: Zeros
        config: {}
      bias_regularizer: null
      data_format: channels_last
      depth_multiplier: 1
      depthwise_constraint: null
      depthwise_initializer:
        class_name: VarianceScaling
        config: {distribution: uniform, mode: fan_avg, scale: 1.0, seed: null}
      depthwise_regularizer: null
      dilation_rate: *id002
      filters: 176
      kernel_size: *id050
      name: separable_conv_2_normal_left1_12
      padding: same
      pointwise_constraint: null
      pointwise_initializer:
        class_name: VarianceScaling
        config: {distribution: uniform, mode: fan_avg, scale: 1.0, seed: null}
      pointwise_regularizer: null
      strides: *id005
      trainable: true
      use_bias: false
    inbound_nodes:
    - - - activation_1220
        - 0
        - 0
        - {}
    name: separable_conv_2_normal_left1_12
  - class_name: SeparableConv2D
    config:
      activation: linear
      activity_regularizer: null
      bias_constraint: null
      bias_initializer:
        class_name: Zeros
        config: {}
      bias_regularizer: null
      data_format: channels_last
      depth_multiplier: 1
      depthwise_constraint: null
      depthwise_initializer:
        class_name: VarianceScaling
        config: {distribution: uniform, mode: fan_avg, scale: 1.0, seed: null}
      depthwise_regularizer: null
      dilation_rate: *id002
      filters: 176
      kernel_size: *id049
      name: separable_conv_2_normal_right1_12
      padding: same
      pointwise_constraint: null
      pointwise_initializer:
        class_name: VarianceScaling
        config: {distribution: uniform, mode: fan_avg, scale: 1.0, seed: null}
      pointwise_regularizer: null
      strides: *id005
      trainable: true
      use_bias: false
    inbound_nodes:
    - - - activation_1222
        - 0
        - 0
        - {}
    name: separable_conv_2_normal_right1_12
  - class_name: SeparableConv2D
    config:
      activation: linear
      activity_regularizer: null
      bias_constraint: null
      bias_initializer:
        class_name: Zeros
        config: {}
      bias_regularizer: null
      data_format: channels_last
      depth_multiplier: 1
      depthwise_constraint: null
      depthwise_initializer:
        class_name: VarianceScaling
        config: {distribution: uniform, mode: fan_avg, scale: 1.0, seed: null}
      depthwise_regularizer: null
      dilation_rate: *id002
      filters: 176
      kernel_size: *id051
      name: separable_conv_2_normal_left2_12
      padding: same
      pointwise_constraint: null
      pointwise_initializer:
        class_name: VarianceScaling
        config: {distribution: uniform, mode: fan_avg, scale: 1.0, seed: null}
      pointwise_regularizer: null
      strides: *id005
      trainable: true
      use_bias: false
    inbound_nodes:
    - - - activation_1224
        - 0
        - 0
        - {}
    name: separable_conv_2_normal_left2_12
  - class_name: SeparableConv2D
    config:
      activation: linear
      activity_regularizer: null
      bias_constraint: null
      bias_initializer:
        class_name: Zeros
        config: {}
      bias_regularizer: null
      data_format: channels_last
      depth_multiplier: 1
      depthwise_constraint: null
      depthwise_initializer:
        class_name: VarianceScaling
        config: {distribution: uniform, mode: fan_avg, scale: 1.0, seed: null}
      depthwise_regularizer: null
      dilation_rate: *id002
      filters: 176
      kernel_size: *id052
      name: separable_conv_2_normal_right2_12
      padding: same
      pointwise_constraint: null
      pointwise_initializer:
        class_name: VarianceScaling
        config: {distribution: uniform, mode: fan_avg, scale: 1.0, seed: null}
      pointwise_regularizer: null
      strides: *id005
      trainable: true
      use_bias: false
    inbound_nodes:
    - - - activation_1226
        - 0
        - 0
        - {}
    name: separable_conv_2_normal_right2_12
  - class_name: SeparableConv2D
    config:
      activation: linear
      activity_regularizer: null
      bias_constraint: null
      bias_initializer:
        class_name: Zeros
        config: {}
      bias_regularizer: null
      data_format: channels_last
      depth_multiplier: 1
      depthwise_constraint: null
      depthwise_initializer:
        class_name: VarianceScaling
        config: {distribution: uniform, mode: fan_avg, scale: 1.0, seed: null}
      depthwise_regularizer: null
      dilation_rate: *id002
      filters: 176
      kernel_size: *id049
      name: separable_conv_2_normal_left5_12
      padding: same
      pointwise_constraint: null
      pointwise_initializer:
        class_name: VarianceScaling
        config: {distribution: uniform, mode: fan_avg, scale: 1.0, seed: null}
      pointwise_regularizer: null
      strides: *id005
      trainable: true
      use_bias: false
    inbound_nodes:
    - - - activation_1228
        - 0
        - 0
        - {}
    name: separable_conv_2_normal_left5_12
  - class_name: BatchNormalization
    config:
      axis: -1
      beta_constraint: null
      beta_initializer:
        class_name: Zeros
        config: {}
      beta_regularizer: null
      center: true
      epsilon: 0.001
      gamma_constraint: null
      gamma_initializer:
        class_name: Ones
        config: {}
      gamma_regularizer: null
      momentum: 0.9997
      moving_mean_initializer:
        class_name: Zeros
        config: {}
      moving_variance_initializer:
        class_name: Ones
        config: {}
      name: separable_conv_2_bn_normal_left1_12
      scale: true
      trainable: true
    inbound_nodes:
    - - - separable_conv_2_normal_left1_12
        - 0
        - 0
        - {}
    name: separable_conv_2_bn_normal_left1_12
  - class_name: BatchNormalization
    config:
      axis: -1
      beta_constraint: null
      beta_initializer:
        class_name: Zeros
        config: {}
      beta_regularizer: null
      center: true
      epsilon: 0.001
      gamma_constraint: null
      gamma_initializer:
        class_name: Ones
        config: {}
      gamma_regularizer: null
      momentum: 0.9997
      moving_mean_initializer:
        class_name: Zeros
        config: {}
      moving_variance_initializer:
        class_name: Ones
        config: {}
      name: separable_conv_2_bn_normal_right1_12
      scale: true
      trainable: true
    inbound_nodes:
    - - - separable_conv_2_normal_right1_12
        - 0
        - 0
        - {}
    name: separable_conv_2_bn_normal_right1_12
  - class_name: BatchNormalization
    config:
      axis: -1
      beta_constraint: null
      beta_initializer:
        class_name: Zeros
        config: {}
      beta_regularizer: null
      center: true
      epsilon: 0.001
      gamma_constraint: null
      gamma_initializer:
        class_name: Ones
        config: {}
      gamma_regularizer: null
      momentum: 0.9997
      moving_mean_initializer:
        class_name: Zeros
        config: {}
      moving_variance_initializer:
        class_name: Ones
        config: {}
      name: separable_conv_2_bn_normal_left2_12
      scale: true
      trainable: true
    inbound_nodes:
    - - - separable_conv_2_normal_left2_12
        - 0
        - 0
        - {}
    name: separable_conv_2_bn_normal_left2_12
  - class_name: BatchNormalization
    config:
      axis: -1
      beta_constraint: null
      beta_initializer:
        class_name: Zeros
        config: {}
      beta_regularizer: null
      center: true
      epsilon: 0.001
      gamma_constraint: null
      gamma_initializer:
        class_name: Ones
        config: {}
      gamma_regularizer: null
      momentum: 0.9997
      moving_mean_initializer:
        class_name: Zeros
        config: {}
      moving_variance_initializer:
        class_name: Ones
        config: {}
      name: separable_conv_2_bn_normal_right2_12
      scale: true
      trainable: true
    inbound_nodes:
    - - - separable_conv_2_normal_right2_12
        - 0
        - 0
        - {}
    name: separable_conv_2_bn_normal_right2_12
  - class_name: AveragePooling2D
    config:
      data_format: channels_last
      name: normal_left3_12
      padding: same
      pool_size: *id061
      strides: *id062
      trainable: true
    inbound_nodes:
    - - - normal_bn_1_12
        - 0
        - 0
        - {}
    name: normal_left3_12
  - class_name: AveragePooling2D
    config:
      data_format: channels_last
      name: normal_left4_12
      padding: same
      pool_size: *id063
      strides: *id064
      trainable: true
    inbound_nodes:
    - - - adjust_bn_12
        - 0
        - 0
        - {}
    name: normal_left4_12
  - class_name: AveragePooling2D
    config:
      data_format: channels_last
      name: normal_right4_12
      padding: same
      pool_size: *id065
      strides: *id066
      trainable: true
    inbound_nodes:
    - - - adjust_bn_12
        - 0
        - 0
        - {}
    name: normal_right4_12
  - class_name: BatchNormalization
    config:
      axis: -1
      beta_constraint: null
      beta_initializer:
        class_name: Zeros
        config: {}
      beta_regularizer: null
      center: true
      epsilon: 0.001
      gamma_constraint: null
      gamma_initializer:
        class_name: Ones
        config: {}
      gamma_regularizer: null
      momentum: 0.9997
      moving_mean_initializer:
        class_name: Zeros
        config: {}
      moving_variance_initializer:
        class_name: Ones
        config: {}
      name: separable_conv_2_bn_normal_left5_12
      scale: true
      trainable: true
    inbound_nodes:
    - - - separable_conv_2_normal_left5_12
        - 0
        - 0
        - {}
    name: separable_conv_2_bn_normal_left5_12
  - class_name: Add
    config: {name: normal_add_1_12, trainable: true}
    inbound_nodes:
    - - - separable_conv_2_bn_normal_left1_12
        - 0
        - 0
        - &id143 {}
      - - separable_conv_2_bn_normal_right1_12
        - 0
        - 0
        - *id143
    name: normal_add_1_12
  - class_name: Add
    config: {name: normal_add_2_12, trainable: true}
    inbound_nodes:
    - - - separable_conv_2_bn_normal_left2_12
        - 0
        - 0
        - &id144 {}
      - - separable_conv_2_bn_normal_right2_12
        - 0
        - 0
        - *id144
    name: normal_add_2_12
  - class_name: Add
    config: {name: normal_add_3_12, trainable: true}
    inbound_nodes:
    - - - normal_left3_12
        - 0
        - 0
        - &id145 {}
      - - adjust_bn_12
        - 0
        - 0
        - *id145
    name: normal_add_3_12
  - class_name: Add
    config: {name: normal_add_4_12, trainable: true}
    inbound_nodes:
    - - - normal_left4_12
        - 0
        - 0
        - &id146 {}
      - - normal_right4_12
        - 0
        - 0
        - *id146
    name: normal_add_4_12
  - class_name: Add
    config: {name: normal_add_5_12, trainable: true}
    inbound_nodes:
    - - - separable_conv_2_bn_normal_left5_12
        - 0
        - 0
        - &id147 {}
      - - normal_bn_1_12
        - 0
        - 0
        - *id147
    name: normal_add_5_12
  - class_name: Concatenate
    config: {axis: -1, name: normal_concat_12, trainable: true}
    inbound_nodes:
    - - - adjust_bn_12
        - 0
        - 0
        - &id148 {}
      - - normal_add_1_12
        - 0
        - 0
        - *id148
      - - normal_add_2_12
        - 0
        - 0
        - *id148
      - - normal_add_3_12
        - 0
        - 0
        - *id148
      - - normal_add_4_12
        - 0
        - 0
        - *id148
      - - normal_add_5_12
        - 0
        - 0
        - *id148
    name: normal_concat_12
  - class_name: Activation
    config: {activation: relu, name: activation_1229, trainable: true}
    inbound_nodes:
    - - - normal_concat_12
        - 0
        - 0
        - {}
    name: activation_1229
  - class_name: GlobalAveragePooling2D
    config: {data_format: channels_last, name: global_average_pooling2d_6, trainable: true}
    inbound_nodes:
    - - - activation_1229
        - 0
        - 0
        - {}
    name: global_average_pooling2d_6
  - class_name: Dense
    config:
      activation: softmax
      activity_regularizer: null
      bias_constraint: null
      bias_initializer:
        class_name: Zeros
        config: {}
      bias_regularizer: null
      kernel_constraint: null
      kernel_initializer:
        class_name: VarianceScaling
        config: {distribution: uniform, mode: fan_avg, scale: 1.0, seed: null}
      kernel_regularizer: null
      name: predictions
      trainable: true
      units: 1000
      use_bias: true
    inbound_nodes:
    - - - global_average_pooling2d_6
        - 0
        - 0
        - {}
    name: predictions
  name: NASNet
  output_layers:
  - [predictions, 0, 0]
keras_version: 2.2.4
